Supervised/00_exercises/lab_10/saved_models/ReverseTask/lightning_logs/version_0/checkpoints/epoch=1-step=780.ckpt (torch, 57239 bytes, 21 tensors)

positional_encoding f4 [1, 50, 32]
-0.37227964 -0.102810755 0.13587376 -1.1431983 -1.1996351 -1.7965194 0.15733603 -0.17655843
-0.21319412 -1.9542915 -0.9383608 -1.4769887 1.0171092 -0.34773394 -1.4648534 0.9156282
0.082087584 1.0960605 -0.13419391 0.24158542 -0.09129469 0.7112574 0.27942166 0.8717046
0.12829445 -1.9974844 -1.491559 0.45381233 1.2819895 0.28305164 0.16987664 1.0464538
0.20001163 -0.18584922 0.012268164 1.0165228 -0.744018 1.7889775 0.9604492 -0.76247317
0.6634825 0.364687 -0.04265403 -0.67529225 -0.3481115 -0.6004026 0.18619417 0.4471292
-0.67561144 0.21991122 1.0279418 -1.3884151 0.33528525 -0.52771574 0.14475943 0.3235039
0.4925521 -1.5579352 0.17849995 -1.4160614 -0.09953526 -0.6171984 -0.1540231 -1.0975771
-0.5118885 0.436216 -2.1134214 0.16468419 -2.703133 -1.494648 -0.29566002 0.07675693
1.4837105 -1.0802306 1.2599192 1.0296235 -1.3327096 -0.9200001 1.7770305 0.13947938
-1.4592029 -0.17127393 -0.009108989 0.35225666 1.4613293 -0.8728166 1.0164819 0.42578903
-0.16581072 -1.4499463 -0.78542686 1.1838171 -1.5319302 -0.36389115 -0.06854225 -0.5234954
1.2359551 -0.74701333 0.09021518 -1.5378377 0.24412683 0.7059709 -0.33350396 -1.9355787
-0.77236456 -0.8439014 0.80816627 2.6517043 -0.3275646 0.7436016 0.39632177 0.17677751
1.441157 -0.21274984 0.21606511 -2.1140165 -0.5763243 0.33920825 -1.3361238 -1.1662449
-0.3392358 -0.06024482 0.20993423 -0.4958067 -1.1704658 1.6339353 -1.0618867 -1.2475173
0.13291833 -0.557003 0.24612749 0.79389507 -0.69816697 -0.044132 -1.374473 -0.83188623
-1.4837078 -0.05217372 1.097268 -0.08692325 0.20134729 1.8158919 -0.8643753 -2.8102977
1.1966004 1.5956533 0.88950396 0.8798029 -0.41806534 -0.4077936 0.7319104 0.15702303
-0.085767224 -0.39978707 -1.382804 -0.052384373 1.5544676 2.5540984 -0.18323822 0.32261583
-0.08873768 0.39686546 1.0556275 -0.9332059 -0.30894262 -0.7132173 0.21334031 0.50406003
-1.3226967 -1.5781345 -1.1616409 0.7376304 -2.2044597 1.8888416 0.47748712 -0.8398623
0.6814848 0.48809975 -0.6104346 2.0605323 -1.0861694 -0.5788898 2.4372103 -1.4526218
2.5702953 -0.3899784 -1.1412791 0.11509577 0.3652143 -0.043531194 0.61068517 -0.32386535
0.46383741 -0.7956975 -0.23072104 0.5448132 -1.1537533 0.3417507 0.50971663 0.14405672
0.24049917 0.24218823 1.1631539 0.35367405 0.7727703 -1.196938 -0.92882013 0.7415065
0.01959003 -0.106731504 -0.02800179 1.6856863 1.1797392 1.7936068 -0.7189359 0.95327187
-0.2916362 -0.08553429 -0.35286465 -0.99518865 0.12635967 -0.43708465 0.5855063 0.34681335
0.60358375 0.7624228 1.0523756 1.4043039 1.2138076 -0.21418917 0.040351942 -0.72649705
-0.3087233 0.32978818 -1.0105499 0.5072729 -1.2773243 -0.30029783 -1.268975 -2.2183368
-1.4818919 0.85177714 0.24696203 1.0152373 1.6969773 -2.1471493 0.57125974 -0.5343959
-1.001077 -2.0532153 2.163894 -0.2696648 -0.9841201 -0.17397095 -0.99296653 1.7093394
00000000: 709b bebe 728e d2bd 7e22 0b3e 5254 92bf
00000010: a58d 99bf 59f4 e5bf b21c 213e bccb 34be
00000020: 8f4f 5abe 3926 fabf 6a38 70bf f70d bdbf
00000030: a230 823f 2f0a b2be 5180 bbbf 9c66 6a3f
00000040: 891d a83d b64b 8c3f 216a 09be 2b62 773e
00000050: b6f8 babd f714 363f 5b10 8f3e 0828 5f3f
00000060: 9f5f 033e 92ad ffbf 68eb bebf 175a e83e
00000070: 3b18 a43f 25ec 903e 24f4 2d3e 33f2 853f
00000080: d9cf 4c3e 424f 3ebe 6900 493c 6b1d 823f
00000090: f777 3ebf 37fd e43f 00e0 753f 7131 43bf
000000a0: fdd9 293f 41b8 ba3e feb5 2ebd f4df 2cbf
000000b0: ac3b b2be fcb3 19bf afa9 3e3e 1eee e43e
000000c0: dff4 2cbf 6830 613e 9993 833f 96b7 b1bf
000000d0: 82aa ab3e 6118 07bf d13b 143e 4ea2 a53e
000000e0: ca2f fc3e 6c6a c7bf b1c8 363e 8041 b5bf
000000f0: 24d9 cbbd b700 1ebf 3bb8 1dbe 687d 8cbf
00000100: 200b 03bf b457 df3e 4c42 07c0 f9a2 283e
00000110: 2200 2dc0 a050 bfbf c060 97be bd32 9d3d
00000120: 3aea bd3f ff44 8abf 0845 a13f b4ca 833f
00000130: 3a96 aabf 2085 6bbf bc75 e33f afd3 0e3e
00000140: 29c7 babf 6f62 2fbe de3d 15bc fc5a b43e
00000150: d70c bb3f e970 5fbf 141c 823f 0501 da3e
00000160: 49ca 29be d797 b9bf bc11 49bf 5287 973f
00000170: 4a16 c4bf f14f babe e15f 8cbd cb03 06bf
00000180: c733 9e3f 443c 3fbf bcc2 b83d ded7 c4bf
00000190: 62fc 793e 82ba 343f 08c1 aabe 0bc1 f7bf
000001a0: afb9 45bf ec09 58bf fce3 4e3f 86b5 2940
000001b0: 8cb6 a7be ad5c 3e3f b0ea ca3e 2a05 353e
000001c0: d577 b83f 18db 59be 2c40 5d3e 0c4c 07c0
000001d0: fd89 13bf b4ac ad3e 1b06 abbf 8347 95bf
000001e0: 51b0 adbe 46c3 76bd 00f9 563e 60da fdbe
000001f0: d3d1 95bf cb24 d13f e7eb 87bf a6ae 9fbf
00000200: be1b 083e c097 0ebf d808 7c3e b53c 4b3f
00000210: 12bb 32bf c2c3 34bd bbee afbf 7ff6 54bf
00000220: 23ea bdbf 1cb4 55bd 4773 8c3f d104 b2bd
00000230: fc2d 4e3e 256f e83f b347 5dbf ebdb 33c0
00000240: 342a 993f 5e3e cc3f 88b6 633f c33a 613f
00000250: a90c d6be 53ca d0be 7b5e 3b3f a5ca 203e
00000260: baa6 afbd e4b0 ccbe b9ff b0bf ff90 56bd
00000270: cbf8 c63f 5976 2340 cda2 3bbe e72d a53e
00000280: 1abc b5bd f331 cb3e cd1e 873f 95e6 6ebf
00000290: ba2d 9ebe 6995 36bf e275 5a3e 140a 013f
000002a0: 204e a9bf 5000 cabf a6b0 94bf 59d5 3c3f
000002b0: de15 0dc0 90c5 f13f 3179 f43e 3701 57bf
000002c0: ca75 2e3f 36e8 f93e 7145 1cbf c3df 0340
000002d0: 9907 8bbf 1f32 14bf 41fb 1b40 83ef b9bf
000002e0: b87f 2440 40ab c7be 6f15 92bf 55b7 eb3d
000002f0: 5efd ba3e c44d 32bd dd55 1c3f aed1 a5be
00000300: 197c ed3e d5b2 4bbf 2342 6cbe e178 0b3f
00000310: 30ae 93bf f3f9 ae3e ca7c 023f 9b83 133e
00000320: 6a45 763e 3100 783e 3ae2 943f c414 b53e
00000330: 46d4 453f 4435 99bf 28c7 6dbf 5fd3 3d3f
00000340: 457b a03c 0c96 dabd 0364 e5bc 92c4 d73f
00000350: b201 973f e894 e53f 2f0c 38bf a009 743f
00000360: 5751 95be 9a2c afbd adaa b4be afc4 7ebf
00000370: 6e64 013e 8fc9 dfbe bee3 153f 8591 b13e
00000380: 7784 1a3f 242e 433f 3eb4 863f 3bc0 b33f
00000390: 0c5e 9b3f 6854 5bbe 1448 253d b6fb 39bf
000003a0: fb10 9ebe ffd9 a83e b359 81bf a3dc 013f
000003b0: 5d7f a3bf a3c0 99be c66d a2bf 3bf9 0dc0
000003c0: a2ae bdbf 110e 5a3f 9de3 7c3e 4cf3 813f
000003d0: 8d36 d93f e56a 09c0 143e 123f 2bce 08bf
000003e0: 4b23 80bf e167 03c0 3d7d 0a40 8111 8abe
000003f0: 4bef 7bbf 7125 32be 0e33 7ebf a2cb da3f

input_net.1.weight f4 [32, 10]
0.5809975 -0.33402246 0.38490057 -0.066714406 0.48355883 -0.14676255 0.31389883 -0.2344972
-0.24591845 0.011385626 0.08339573 -0.12924092 0.053234875 -0.14033903 -0.08271452 0.09825204
-0.277827 -0.3033039 0.042042557 0.23686056 -0.41027302 -0.016240245 0.33075637 0.0416827
0.22562309 -0.28694314 0.2393874 -0.22313063 -0.37404925 0.30138615 0.07631612 0.20359638
0.31906268 -0.054753885 0.30358088 0.087068446 0.48489624 -0.044883784 -0.097835585 0.20810123
-0.36572516 0.40463263 -0.37605223 -0.37491313 0.016805101 0.4255765 0.12581018 0.49360782
-0.26292983 -0.42793873 -0.40432507 0.13597257 -0.31888667 0.38410068 -0.52320033 0.3460514
-0.2854539 0.06590272 0.31231764 -0.15515696 -0.3446028 0.55612814 0.23249294 0.06359676
-0.04629065 0.109230414 0.5143222 0.38910234 -0.28478813 -0.36909255 -0.07169991 0.035562694
-0.08286132 0.44679284 -0.45922717 0.23736222 -0.091744706 -0.41216025 0.3136225 0.090206996
-0.29984167 0.46145368 0.3636095 -0.015945468 -0.17374039 0.38133764 -0.08535903 0.36847
0.43364707 -0.5338146 0.09188036 0.37257805 0.0732298 0.38031682 0.23304947 0.031699125
0.26702783 0.24424496 -0.24224746 -0.29892907 0.014886843 0.3577058 -0.36162114 0.012067697
0.6064964 -0.030719684 -0.16001123 -0.46635777 -0.5370727 0.3600143 -0.32543743 0.4545568
-0.43813553 0.25290182 0.35742018 0.11203972 -0.16948213 -0.33943105 -0.3279404 0.041900694
0.38574898 -0.07923422 -0.1250541 0.38576987 0.47922763 0.25883505 0.058023266 -0.15999095
-0.119571015 0.5605078 0.22975723 -0.23513208 0.1694497 -0.030115746 -0.09254741 -0.20450637
0.25859827 0.4493232 0.22453497 -0.06489852 -0.07804034 0.121294625 0.33415052 -0.09557625
-0.13977034 0.10276688 -0.2642857 0.23054424 0.4478529 -0.3475554 0.370327 -0.12776552
-0.2511715 -0.39270058 -0.12769374 0.26553804 0.19718096 -0.073409244 0.14437835 -0.14567496
-0.26584253 0.3673707 -0.1977567 0.37947392 -0.350551 0.1630128 -0.028081017 -0.004232522
0.24191563 -0.40621945 -0.34713024 -0.013369434 -0.18084621 0.39800203 0.40837333 0.07086712
-0.3206613 -0.21523467 -0.38216215 0.029365791 -0.37438506 0.33244395 -0.042716872 0.439433
0.070865415 -0.42716342 0.61257774 0.115263015 -0.48149574 -0.35617617 -0.20652507 -0.13425672
-0.23405708 0.023997739 -0.11508539 0.13621531 -0.4635305 -0.41736877 0.11000195 0.109086566
0.3054686 -0.5638896 0.43942985 -0.26535034 -0.48801577 -0.33747932 -0.39037713 0.18955089
0.32746205 -0.1037717 0.016228305 -0.32811952 -0.38291964 0.26630867 0.14320719 0.045634557
-0.49088168 -0.25086257 -0.15537252 0.20868662 -0.034562755 0.35235557 -0.2477472 0.026643472
0.17588717 -0.019152792 0.4263422 -0.023548005 -0.026723005 0.22349453 -0.48758087 0.17487343
0.52302176 0.32473266 -0.07927927 -0.53798515 0.4170752 0.0113669075 -0.15746368 0.14120688
0.17610188 0.062716074 -0.25111294 -0.34904438 0.41405848 0.29553565 0.036624536 0.027624484
-0.20289034 0.17195497 0.19817305 0.0984702 -0.21112482 -0.49890396 0.2478777 -0.13856708
00000000: 41bc 143f fe04 abbe b011 c53e 90a1 88bd
00000010: 0695 f73e ec48 16be 59b7 a03e 0920 70be
00000020: 0cd2 7bbe c78a 3a3c 61cb aa3d bb57 04be
00000030: d00c 5a3d 09b5 0fbe 3b66 a9bd 5e38 c93d
00000040: 573f 8ebe a64a 9bbe d134 2c3d 938b 723e
00000050: 4e0f d2be 430a 85bc e658 a93e 7bbb 2a3d
00000060: bd09 673e 36ea 92be f821 753e 5b7c 64be
00000070: 6283 bfbe 494f 9a3e a04b 9c3d 927b 503e
00000080: 2f5c a33e 9c45 60bd f46e 9b3e f150 b23d
00000090: 5244 f83e 0fd8 37bd 065e c8bd 7d18 553e
000000a0: 5440 bbbe 022c cf3e eb89 c0be 9df4 bfbe
000000b0: daaa 893c 2ae5 d93e 62d4 003e 2aba fc3e
000000c0: bd9e 86be c91a dbbe b203 cfbe 653c 0b3e
000000d0: 1d45 a3be d8a8 c43e 75f0 05bf a62d b13e
000000e0: 0327 92be 01f8 863d 19e8 9f3e 77e1 1ebe
000000f0: c76f b0be 6a5e 0e3f a112 6e3e 053f 823d
00000100: 449b 3dbd 32b4 df3d 9faa 033f 6c38 c73e
00000110: c0cf 91be b3f9 bcbe 67d7 92bd 30aa 113d
00000120: 32b3 a9bd 08c2 e43e d31f ebbe 150f 733e
00000130: a6e4 bbbd ab06 d3be 2193 a03e 72be b83d
00000140: d984 99be a843 ec3e 062b ba3e 12a0 82bc
00000150: 00e9 31be b03e c33e b7d0 aebd 1aa8 bc3e
00000160: fd06 de3e 13a8 08bf c52b bc3d 8dc2 be3e
00000170: 81f9 953d e3b8 c23e 85a4 6e3e f1d6 013d
00000180: dfb7 883e 5a1b 7a3e b80f 78be 3b0d 99be
00000190: f2e7 733c 3725 b73e 6826 b9be 97b7 453c
000001a0: 5943 1b3f d9a7 fbbc fcd9 23be 72c6 eebe
000001b0: 997d 09bf cb53 b83e bc9f a6be abbb e83e
000001c0: 4d53 e0be 597c 813e c7ff b63e 1575 e53d
000001d0: b98c 2dbe e8c9 adbe cee7 a7be 10a0 2b3d
000001e0: e480 c53e 8d45 a2bd 2f0e 00be a183 c53e
000001f0: 535d f53e 0786 843e cea9 6d3d abd4 23be
00000200: a6e1 f4bd 707d 0f3f 7b45 6b3e 77c6 70be
00000210: 3984 2d3e 4cb5 f6bc 7f89 bdbd 1e6a 51be
00000220: fe66 843e b10d e63e 7fec 653e 84e9 84bd
00000230: 9dd3 9fbd 5169 f83d c715 ab3e 7bbd c3bd
00000240: f51f 0fbe 7177 d23d 7550 87be ca13 6c3e
00000250: fa4c e53e c8f2 b1be 809b bd3e f7d4 02be
00000260: 8d99 80be 0d10 c9be 26c2 02be 9af4 873e
00000270: cee9 493e 9657 96bd ebd7 133e d12b 15be
00000280: 831c 88be 0318 bc3e bb80 4abe 684a c23e
00000290: 6c7b b3be d4ec 263e 290a e6bc f8b0 8abb
000002a0: bbb8 773e fffb cfbe 0ebb b1be 780b 5bbc
000002b0: c02f 39be ecc6 cb3e 4f16 d13e c822 913d
000002c0: b82d a4be 7a66 5cbe c2aa c3be 8790 f03c
000002d0: 66af bfbe 1836 aa3e e3f7 2ebd 5dfd e03e
000002e0: e321 913d 2ab5 dabe e5d1 1c3f 040f ec3d
000002f0: 9c86 f6be b95c b6be 4f7b 53be 987a 09be
00000300: a9ac 6fbe e896 c43c e4b1 ebbd 077c 0b3e
00000310: df53 edbe 5cb1 d5be b448 e13d c768 df3d
00000320: 6166 9c3e 125b 10bf f3fc e03e 00dc 87be
00000330: 34dd f9be 17ca acbe 83df c7be a119 423e
00000340: 1ba9 a73e 4286 d4bd 39f1 843c 48ff a7be
00000350: 0b0e c4be 9c59 883e e8a4 123e 4deb 3a3d
00000360: d854 fbbe 0f71 80be f919 1fbe f2b1 553e
00000370: ad91 0dbd f367 b43e 71b1 7dbe 6943 da3c
00000380: c41b 343e 51e6 9cbc 8649 da3e bfe7 c0bc
00000390: 34ea dabc c0db 643e 33a4 f9be 0512 333e
000003a0: c1e4 053f 5c43 a63e 2b5d a2bd 65b9 09bf
000003b0: e18a d53e 443c 3a3c 293e 21be 8998 103e
000003c0: 0d54 343e 4971 803d e091 80be f2b5 b2be
000003d0: 79ff d33e 7350 973e 9c03 163d be4c e23c
000003e0: 7cc2 4fbe f714 303e e0ed 4a3e bfaa c93d
000003f0: 1b31 58be 5770 ffbe a7d3 7d3e 87e4 0dbe

input_net.1.bias f4 [32]
-0.037810266 -0.08447402 0.09846668 0.07936418 0.16940558 0.114925995 0.35818094 -0.0141227795
0.25882638 -0.07480804 0.0061870674 0.2085487 0.26183832 0.17110562 0.20456037 -0.080984674
-0.23837098 0.0017173593 0.32576367 -0.22435132 0.18580867 -0.058754366 0.006222582 -0.23099446
0.06567931 0.008594626 0.15930416 0.15207328 -0.057543322 -0.26008388 -0.29527363 -0.055213694
00000000: f0de 1abd b700 adbd e6a8 c93d b089 a23d
00000010: a878 2d3e 525e eb3d 7e63 b73e 3b63 67bc
00000020: e484 843e f534 99bd e2bc ca3b ca8d 553e
00000030: ac0f 863e 5036 2f3e 4678 513e 4bdb a5bd
00000040: 8617 74be 0419 e13a 7fca a63e 5abc 65be
00000050: a144 3e3e 6ba8 70bd cde6 cb3b d089 6cbe
00000060: e082 863d 79d0 0c3c a120 233e 19b9 1b3e
00000070: 8cb2 6bbd b729 85be 1b2e 97be c127 62bd

transformer.layers.0.self_attn.qkv_proj.weight f4 [96, 32]
-0.058479648 -0.20808166 0.30591574 0.057399914 0.065940805 -0.31229103 0.02963245 -0.113651074
0.24999475 -0.13153467 0.09255442 0.22557113 0.16662408 0.3571137 -0.21869494 -0.16463724
-0.25967866 0.21799238 0.1968959 0.019194273 -0.05674628 0.04392514 -0.37965497 0.22541364
-0.43956932 -0.3146824 0.061503056 0.12786707 0.2053105 0.14206143 -0.23778827 0.30057472
0.1919572 0.16213651 -0.13123529 0.12904453 0.17321476 -0.12814929 0.14920472 -0.1514263
0.1481575 -0.17857106 0.068037204 0.2766743 0.10270763 -0.32536572 -0.027199771 -0.38663992
0.06869559 -0.39802054 0.23082921 0.073357634 0.09971429 -0.029136645 0.31883207 -0.057945915
-0.02754755 -0.37267143 0.1563704 -0.06662066 0.06725186 0.40452692 0.1427842 0.0018861791
0.2642245 0.24397177 -0.21202093 0.37873083 0.02946576 0.23501928 0.20951286 -0.12541029
-0.15777509 0.002015903 0.0006648706 0.27108628 0.17710641 0.2415176 0.33185038 0.41941127
-0.11249681 -0.46499234 -0.11716335 -0.4013717 0.05509382 -0.08317349 0.04724702 -0.0867056
0.061882112 -0.24727476 0.08988283 0.097962126 -0.17698516 0.1570785 -0.013293669 -0.036821358
-0.1097089 0.3454224 -0.15626672 0.3666521 -0.018168086 0.29933682 -0.33386728 -0.10209354
-0.33472785 0.08565808 -0.30926448 0.2624589 0.046231877 -0.009933906 -0.010293548 -0.045386344
0.1850062 0.25996768 0.13887879 -0.47964874 0.027102584 0.19298719 0.18921791 -0.13646652
0.41930732 0.078876264 -0.12069906 -0.3177761 0.17630537 0.0735973 -0.04216845 0.04942591
0.19188811 -0.44386607 0.026353043 0.17898217 0.1109568 0.12014618 -0.043204952 0.26354676
-0.030509071 -0.19456032 0.18413623 -0.3052992 -0.011911446 0.019193875 0.03728859 0.20151323
0.10899889 -0.36869365 0.08557815 0.15908729 0.11117133 0.309114 0.0725395 -0.43233192
0.019410018 0.16568695 -0.1411185 0.15671729 0.068076275 0.22665049 0.403661 0.24277584
-0.1787104 0.313783 -0.09254541 -0.34652358 0.027644133 -0.012939225 0.017731713 -0.277661
-0.093447536 0.1785062 -0.3367489 0.00094639085 -0.30111066 -0.04121445 0.306672 0.3453515
-0.07204862 -0.35599124 0.16639698 0.11393905 -0.11851076 -0.16516152 0.17353831 -0.09335226
0.33146966 -0.32162142 0.11269405 -0.0035413248 0.16854738 0.26905322 -0.11886586 0.024842974
0.16199563 -0.3625538 0.37775582 -0.18615358 0.19077642 0.08753728 -0.18382268 0.1336715
-0.12823944 -0.2754683 0.011815129 -0.025451181 -0.05077974 0.07100776 0.0838461 0.1649939
0.40190044 0.13134587 -0.25694534 0.17551503 -0.16618104 -0.03686922 0.29172814 -0.17717443
0.17904148 0.07001153 0.24557969 0.23846224 -0.12561026 -0.12889159 0.11298466 0.0016478109
0.15003297 0.069002636 -0.13447134 -0.18456697 0.20084716 0.035955608 0.11452694 0.25130448
0.1550375 -0.008408587 0.0073634833 0.0073964857 0.44289416 0.03413618 -0.2393071 0.15723708
-0.40339547 -0.24300054 0.33020216 -0.1537707 0.3842911 -0.1284349 0.086189926 0.1623502
0.09213149 -0.103228696 0.434479 0.15980744 0.15977636 -0.19740409 0.15122484 -0.27863762
00000000: 5b88 6fbd 5c13 55be fda0 9c3e 2c1c 6b3d
00000010: f90b 873d 9ce4 9fbe c0bf f23c e5c1 e8bd
00000020: a0fe 7f3e 06b1 06be 2c8d bd3d 1efc 663e
00000030: 819f 2a3e 9bd7 b63e 91f1 5fbe aa96 28be
00000040: 9af4 84be 6539 5f3e 149f 493e 4f3d 9d3c
00000050: ca6e 68bd d9ea 333d 2362 c2be d5d2 663e
00000060: 3b0f e1be 0d1e a1be a1ea 7b3d 96ef 023e
00000070: ea3c 523e 8d78 113e c57e 73be eee4 993e
00000080: 6e90 443e 1d07 263e 8b62 06be 4024 043e
00000090: 365f 313e 9139 03be 1fc9 183e 7f0f 1bbe
000000a0: 9ab6 173e 55db 36be 1757 8b3d 41a8 8d3e
000000b0: 6158 d23d 5696 a6be 0ed2 debc abf5 c5be
000000c0: 46b0 8c3d 59c9 cbbe 7e5e 6c3e 873c 963d
000000d0: 0137 cc3d f9af eebc f53d a33e b258 6dbd
000000e0: 66ab e1bc cace bebe 901f 203e 6a70 88bd
000000f0: 58bb 893d 271e cf3e 0536 123e ab39 f73a
00000100: 6f48 873e bcd3 793e 041c 59be 02e9 c13e
00000110: 2d62 f13c e5a8 703e 8a8a 563e 8e6b 00be
00000120: cb8f 21be 3d1d 043b b64a 2e3a d2cb 8a3e
00000130: 625b 353e 6450 773e 4be8 a93e 13bd d63e
00000140: ba64 e6bd 7a13 eebe 57f3 efbd 9780 cdbe
00000150: 0faa 613d dd56 aabd 1786 413d b592 b1bd
00000160: 1978 7d3d 9835 7dbe 7d14 b83d 5ea0 c83d
00000170: 993b 35be 30d9 203e b0cd 59bc fed1 16bd
00000180: 0faf e0bd 34db b03e 6204 20be d3b9 bb3e
00000190: 3dd5 94bc ad42 993e a7f0 aabe 6b16 d1bd
000001a0: 7361 abbe 816d af3d ea57 9ebe 0361 863e
000001b0: a35d 3d3d d2c1 22bc 45a6 28bc 08e7 39bd
000001c0: 4472 3d3e 7c1a 853e 3e36 0e3e 8594 f5be
000001d0: 3d06 de3c 6f9e 453e 57c2 413e e1bd 0bbe
000001e0: 73af d63e e189 a13d 1231 f7bd 8db3 a2be
000001f0: 6589 343e 2eba 963d d3b8 2cbd d372 4a3d
00000200: 517e 443e 6a42 e3be 56e2 d73c 1a47 373e
00000210: 523d e33d 330f f63d adf7 30bd 9aef 863e
00000220: 29ee f9bc d23a 47be 358e 3c3e 2d50 9cbe
00000230: 3a28 43bc 793c 9d3c ecbb 183d 7c59 4e3e
00000240: cf3a df3d 6ac5 bcbe 9943 af3d c7e7 223e
00000250: cbad e33d 3144 9e3e 978f 943d 9c5a ddbe
00000260: c201 9f3c d7a9 293e 5e81 10be 7f7a 203e
00000270: 936b 8b3d 1117 683e a8ac ce3e 3b9a 783e
00000280: dcff 36be 2aa8 a03e 7388 bdbd 8a6b b1be
00000290: f375 e23c 0bff 53bc 1942 913c 9529 8ebe
000002a0: 6c61 bfbd 54ca 363e 5a6a acbe 3717 783a
000002b0: 2d2b 9abe 7cd0 28bd 1d04 9d3e e9d1 b03e
000002c0: 3a8e 93bd 7c44 b6be f863 2a3e e058 e93d
000002d0: c5b5 f2bd 1a20 29be 07b4 313e 782f bfbd
000002e0: 64b6 a93e 90ab a4be 23cc e63d 9215 68bb
000002f0: af97 2c3e 58c1 893e f26f f3bd 7e83 cb3c
00000300: 2fe2 253e a7a0 b9be 3669 c13e 0b9f 3ebe
00000310: e55a 433e bf46 b33d 033c 3cbe 2fe1 083e
00000320: 3351 03be 2e0a 8dbe 3e94 413c ff7e d0bc
00000330: 6bfe 4fbd 846c 913d 81b7 ab3d 29f4 283e
00000340: e5c5 cd3e 887f 063e 578e 83be 36ba 333e
00000350: 5d2b 2abe 2e04 17bd 645d 953e 376d 35be
00000360: a656 373e 3462 8f3d 3e79 7b3e 722f 743e
00000370: fa9f 00be 28fc 03be 8064 e73d 5cfb d73a
00000380: 3ea2 193e 4151 8d3d dbb2 09be 20ff 3cbe
00000390: e1aa 4d3e 3046 133d 1a8d ea3d fbaa 803e
000003a0: 27c2 1e3e 2cc4 09bc 6049 f13b 385e f23b
000003b0: 06c3 e23e 61d2 0b3d ec0c 75be c202 213e
000003c0: da89 cebe 22d5 78be 4210 a93e 1176 1dbe
000003d0: cec1 c43e 7084 03be 5884 b03d 213f 263e
000003e0: 6faf bc3d 9169 d3bd 0874 de3e 90a4 233e
000003f0: 6a9c 233e 4c24 4abe afda 1a3e 97a9 8ebe

transformer.layers.0.self_attn.qkv_proj.bias f4 [96]
0.021224305 0.03664824 0.05741282 -0.08504832 -0.05647969 0.115908004 -0.021197744 -0.08325291
-0.06752539 -0.0071275407 0.15293527 0.092469126 0.062127452 0.049745683 0.05337792 -0.062903635
-0.120390035 -0.029631024 0.06368063 -0.072866805 0.07474073 -0.045890845 0.062365156 -0.09457363
-0.051564716 0.061457846 -0.043213382 -0.17406566 -0.17515776 0.07367176 -0.05680908 -0.122213386
0.00011627554 -3.564412e-05 -8.43612e-06 -0.00017857351 -0.00010812211 -0.00018749184 -3.184212e-05 1.6585274e-05
9.087349e-05 -8.56422e-05 -9.4580646e-05 -0.00011403313 -8.936204e-05 0.0001514226 -0.000118887656 0.00038006666
-0.000101568236 1.4567101e-05 6.5876186e-05 -6.4891988e-06 -0.00011939038 -7.533973e-05 5.7606263e-05 -6.0124286e-05
0.00010452972 0.00013540765 0.00019429935 -0.00016482057 6.532825e-05 -7.208922e-05 0.00016331085 0.00011087716
0.0033611092 0.017811678 -0.01798244 -0.015522163 0.003753665 0.01584106 0.027504262 -0.017127562
-0.006921742 -0.05138519 -0.005110893 0.012651123 0.01425854 0.010055423 0.031814218 -0.020187283
0.001329563 -0.041937955 -0.014583955 0.0073795007 -0.0044229315 0.024356911 0.049936585 0.084026895
0.017122544 -0.00074078346 -0.06524077 0.003000698 0.023612281 0.00915648 -0.034243263 0.016536204
00000000: 98de ad3c 771c 163d b529 6b3d d02d aebd
00000010: 3f57 67bd 2d61 ed3d e4a6 adbc 8080 aabd
00000020: c04a 8abd 258e e9bb 109b 1c3e 7460 bd3d
00000030: 5b79 7e3d 21c2 4b3d cea2 5a3d 9fd3 80bd
00000040: 0d8f f6bd c3bc f2bc fd6a 823d 313b 95bd
00000050: ab11 993d 0af8 3bbd 9b72 7f3d d2af c1bd
00000060: 8635 53bd 39bb 7b3d 8400 31bd 453e 32be
00000070: 8e5c 33be 38e1 963d a3b0 68bd 034b fabd
00000080: f5d8 f338 9580 15b8 dc88 0db7 763f 3bb9
00000090: 9ebf e2b8 7599 44b9 378e 05b8 9b20 8b37
000000a0: 5593 be38 ce9a b3b8 9959 c6b8 1225 efb8
000000b0: e167 bbb8 32c7 1e39 5353 f9b8 af43 c739
000000c0: 0801 d5b8 3965 7437 0227 8a38 cbbd d9b6
000000d0: 3961 fab8 b6ff 9db8 419e 7138 f62d 7cb8
000000e0: f736 db38 37fc 0d39 d6bc 4b39 afd3 2cb9
000000f0: d600 8938 9b2e 97b8 6c3e 2b39 b986 e838
00000100: 0e46 5c3b cce9 913c e94f 93bc ac50 7ebc
00000110: 0c00 763b 1cc5 813c 9e50 e13c 1a4f 8cbc
00000120: c8cf e2bb 4779 52bd 4779 a7bb a846 4f3c
00000130: a79c 693c 80bf 243c a04f 023d cd5f a5bc
00000140: bb44 ae3a 22c7 2bbd 8af1 6ebc bdcf f13b
00000150: 3dee 90bb 2588 c73c 4e8a 4c3d 4b16 ac3d
00000160: 9444 8c3c 2331 42ba f49c 85bd 5ca7 443b
00000170: 8b6e c13c 1005 163c aa42 0cbd ef76 873c

transformer.layers.0.self_attn.o_proj.weight f4 [32, 32]
0.021409772 -0.17165564 0.27171248 -0.02056872 0.035299536 0.14094147 0.31002626 -0.22204679
0.10762344 0.09079662 0.05809033 0.1645128 -0.3319079 0.22123289 0.368583 -0.4051307
0.16854651 0.19354045 0.19862881 0.3922177 0.022304269 -0.1167743 -0.024888001 0.10329571
0.20786454 0.33290264 -0.08462642 0.42433736 -0.07323351 0.013988072 -0.31144533 0.16099976
0.19865368 0.17940064 -0.40759328 -0.30468753 -0.26820287 -0.29902723 0.17989524 0.3138214
0.27572703 0.27241644 -0.26582092 -0.08706046 0.22115768 0.26843175 -0.00068421214 -0.28381085
0.19753788 0.34965524 -0.14331871 -0.18484236 -0.051688746 0.035605296 -0.20313236 -0.3060483
-0.44903558 0.19409645 0.49584574 -0.06741756 -0.3980508 0.08992471 -0.081538975 0.0928146
0.25968736 0.41914576 0.13088122 -0.20560507 -0.11976944 -0.37768427 -0.3008897 0.2751088
-0.17438184 0.18047796 0.25944623 -0.39100504 0.089523956 0.20760724 0.17751557 -0.04973643
-0.12771237 -0.099523626 -0.3772992 -0.32873738 0.31247038 0.17962103 -0.17648423 -0.10009502
-0.38628688 0.3152682 0.38569874 -0.248932 -0.30410042 0.017119419 -0.1620535 -0.19241546
0.099962346 0.2202911 0.028980302 -0.27314812 0.08968711 0.08319276 0.06960899 0.035058104
0.26974785 -0.3438227 0.12849018 0.13117799 -0.05366045 -0.047154434 0.40151566 -0.32297212
-0.094356686 -0.3637559 0.13396816 -0.12016168 -0.25400063 0.21775319 -0.08407968 -0.003871042
0.1340394 -0.09958192 0.19454198 0.1264741 0.15103926 0.1944396 -0.32197672 0.33806008
-0.08904794 0.18577075 0.14842005 -0.18848106 -0.13149257 -0.16275674 -0.22063452 0.13563336
-0.04393826 0.16741292 -0.35391805 0.021139719 0.09134993 0.0006600299 -0.2045556 0.3414079
-0.2057007 0.11675302 -0.20392029 -0.2539397 -0.22642584 -0.15424985 0.28963894 -0.046684
-0.17697267 -0.16465488 -0.23404838 0.13981499 0.08976234 0.07108575 0.0797775 0.1959261
-0.09598014 -0.2615105 0.14812613 -0.15126584 -0.052152105 -0.10762934 0.08388269 -0.22958057
-0.03436762 0.2838597 -0.1489506 0.3563419 0.17645043 -0.02320972 0.17802106 -0.038371302
-0.04006891 -0.2634946 -0.00030660443 -0.17784435 0.17647348 -0.4199108 0.064670816 -0.1056242
0.07335876 0.24630584 -0.06587519 -0.25302467 -0.19010313 -0.021381652 0.24038704 0.17817993
0.2507614 0.26653862 -0.35137078 -0.21656255 -0.3766933 0.20910302 0.17418824 0.20153034
-0.06652378 0.17793258 -0.18409088 0.16471857 0.12095515 -0.07564461 -0.020076364 -0.051965285
0.28806183 -0.26891685 -0.0016769714 -0.050571635 0.022414677 0.37261254 -0.30536723 0.16242674
0.04148394 0.28510666 -0.236753 -0.088506885 -0.2578463 -0.0066912775 -0.1805954 0.40593126
0.13250941 0.33921805 0.24859378 -0.06418533 0.246249 -0.28786507 -0.06261842 -0.2964354
0.33718094 -0.0970971 -0.15859565 0.015894976 -0.06748031 -0.0016406247 0.31077313 -0.015885193
-0.15314096 -0.028418554 0.10662092 0.23802567 -0.21478526 -0.20129128 0.14127299 0.21854255
-0.104522504 -0.09709665 0.24056472 -0.29366305 0.045003004 -0.27193847 -0.30821297 -0.30073458
00000000: 8c63 af3c 7fc6 2fbe e61d 8b3e bb7f a8bc
00000010: 3f96 103d f652 103e c3bb 9e3e 3c60 63be
00000020: ae69 dc3d 94f3 b93d 20f0 6d3d 0b76 283e
00000030: d5ef a9be e08a 623e e9b6 bc3e 4b6d cfbe
00000040: 7597 2c3e 782f 463e 5a65 4b3e c2d0 c83e
00000050: 71b7 b63c 5d27 efbd ece1 cbbc b48c d33d
00000060: 71da 543e 3772 aa3e 9e50 adbd bf42 d93e
00000070: 73fb 95bd 3a2e 653c c375 9fbe 1fdd 243e
00000080: df6b 4b3e cdb4 373e 11b0 d0be 0100 9cbe
00000090: e351 89be 191a 99be 7536 383e 33ad a03e
000000a0: 182c 8d3e 2b7a 8b3e ae19 88be c14c b2bd
000000b0: 2977 623e e36f 893e b35c 33ba a84f 91be
000000c0: 5f47 4a3e 0306 b33e 24c2 12be 5147 3dbe
000000d0: 94b7 53bd dcd6 113d ee01 50be 5db2 9cbe
000000e0: fee7 e5be 38c1 463e 7edf fd3e 3812 8abd
000000f0: 51cd cbbe 722a b83d e8fd a6bd 9515 be3d
00000100: bef5 843e 469a d63e ba05 063e 238a 52be
00000110: ae49 f5bd d55f c1be 370e 9abe 10db 8c3e
00000120: 2791 32be 37cf 383e 23d6 843e d031 c8be
00000130: 5658 b73d fe96 543e a4c6 353e 6db8 4bbd
00000140: 08c7 02be 0bd3 cbbd 5c2d c1be 4450 a8be
00000150: 1efc 9f3e 93ee 373e 48b8 34be 9efe ccbd
00000160: 65c7 c5be d56a a13e 4e7a c53e 08e8 7ebe
00000170: 0db3 9bbe 063e 8c3c 5af1 25be 8f08 45be
00000180: 0fb9 cc3d fd93 613e 1968 ed3c 12da 8bbe
00000190: e0ad b73d f760 aa3d 288f 8e3d 1699 0f3d
000001a0: 641c 8a3e 8709 b0be ee92 033e 8653 063e
000001b0: 0fcb 5bbd 0225 41bd 7693 cd3e 9a5c a5be
000001c0: 143e c1bd 373e babe f32e 093e 5417 f6bd
000001d0: 5f0c 82be b1fa 5e3e f831 acbd 4fb1 7dbb
000001e0: a041 093e 9bf1 cbbd 0336 473e 6d82 013e
000001f0: 09aa 1a3e 2d1b 473e 22da a4be 3616 ad3e
00000200: c45e b6bd b03a 3e3e 6dfb 173e 2e01 41be
00000210: fda5 06be b4a9 26be 04ee 61be 79e3 0a3e
00000220: 9bf8 33bd 4b6e 2b3e bf34 b5be 342d ad3c
00000230: ac15 bb3d db05 2d3a 0677 51be 04cd ae3e
00000240: 34a3 52be 351c ef3d 7bd0 50be 6204 82be
00000250: 2ddc 67be acf3 1dbe 8e4b 943e b937 3fbd
00000260: 5338 35be 4a9b 28be 61aa 6fbe a92b 0f3e
00000270: 51d5 b73d 6895 913d 6362 a33d daa0 483e
00000280: 3c91 c4bd b4e4 85be 60ae 173e 6fe5 1abe
00000290: 729d 55bd c56c dcbd b0ca ab3d 2b17 6bbe
000002a0: 10c5 0cbd 0f56 913e 8286 18be 7272 b63e
000002b0: 6caf 343e 5022 bebc 274b 363e 3a2b 1dbd
000002c0: 4c1f 24bd c4e8 86be c0bf a0b9 d41c 36be
000002d0: 77b5 343e 8cfe d6be 2272 843d 8051 d8bd
000002e0: 1e3d 963d 9937 7c3e 92e9 86bd 738c 81be
000002f0: 65aa 42be 9328 afbc 0528 763e cd74 363e
00000300: cc63 803e c077 883e dfe6 b3be 93c2 5dbe
00000310: f2dd c0be 1a1f 563e 675e 323e f85d 4e3e
00000320: 9f3d 88bd f533 363e 5282 3cbe fcab 283e
00000330: 55b7 f73d 90eb 9abd 3077 a4bc 8dd9 54bd
00000340: d77c 933e 78af 89be d3cd dbba 3424 4fbd
00000350: fc9e b73c 12c7 be3e 1859 9cbe 3253 263e
00000360: 10eb 293d 80f9 913e 616f 72be 1943 b5bd
00000370: 6e04 84be 8142 dbbb 00ee 38be 39d6 cf3e
00000380: 8cb0 073e fdad ad3e 5e8f 7e3e 9973 83bd
00000390: b328 7c3e 0d63 93be 163e 80bd 61c6 97be
000003a0: fba2 ac3e d8da c6bd e666 22be 2e36 823c
000003b0: 1e33 8abd 3b0a d7ba a81d 9f3e aa21 82bc
000003c0: fcd0 1cbe 07ce e8bc 125c da3d 00bd 733e
000003d0: abf0 5bbe 4d1f 4ebe dea9 103e 9ec9 5f3e
000003e0: e50f d6bd 9cda c6bd 9956 763e 015b 96be
000003f0: 1255 383d 853b 8bbe 17ce 9dbe e2f9 99be

transformer.layers.0.self_attn.o_proj.bias f4 [32]
0.031833477 -0.031388536 -0.022011481 0.059781097 -0.003070291 -0.0060539176 0.06697538 0.02464305
-0.038898166 0.049025517 0.040307377 -0.023492802 0.0042302925 -0.039169427 -0.0069115753 -0.044416394
0.030991888 0.012282759 0.04403803 -0.042598188 0.012973275 -0.023876006 -0.006217427 -0.04612829
-0.0018203071 0.01304156 -0.0075287847 0.006739014 0.009445021 -0.00016921775 -0.0037041001 0.01820154
00000000: d263 023d 4491 00bd 6c51 b4bc 06dd 743d
00000010: ef36 49bb f15f c6bb 632a 893d 39e0 c93c
00000020: af53 1fbd fbce 483d 5919 253d fa73 c0bc
00000030: 449e 8a3b 1f70 20bd 7f7a e2bb f7ed 35bd
00000040: b3e2 fd3c a03d 493c 3961 343d 707b 2ebd
00000050: dc8d 543c 9d97 c3bc 8fbb cbbb 05f1 3cbd
00000060: 5f97 eeba 44ac 553c 06b4 f6bb f2d2 dc3b
00000070: 4abf 1a3c 0b70 31b9 7dc0 72bb 651b 953c

transformer.layers.0.linear_net.0.weight f4 [64, 32]
0.16393574 0.081429146 0.020630138 0.28760555 -0.1619131 0.26213053 0.08702401 -0.10857706
-0.1955768 -0.15525503 -0.057266112 0.09635561 0.028715815 -0.060284365 0.13205867 -0.26079166
-0.20151459 -0.31606162 0.17890617 0.13895495 0.17366749 0.08242476 -0.091037564 -0.18428664
-0.18198052 0.0360424 -0.18452038 -0.007357406 -0.10405455 -0.050382566 0.113012716 0.15149514
0.23571412 -0.19109198 0.063152075 0.027752511 0.07228066 -0.29158083 0.090159975 -0.09816516
0.17760673 -0.13231239 0.24622317 0.14112027 0.1348651 -0.23612545 0.023956636 0.21591823
-0.076913625 -0.10129312 -0.037262384 -0.056868296 -0.18824923 -0.055262316 -0.06738192 -0.0810222
0.016777232 -0.014780251 -0.12687793 -0.012972937 -0.113388926 -0.035434593 -0.093948476 0.09789297
0.024021031 -0.2011811 0.19884847 0.16308711 0.08219838 -0.13977113 -9.616687e-06 0.2421613
0.11702109 0.097442135 -0.13787195 0.2985014 -0.1871088 0.11485096 0.31466448 -0.011905335
0.18320338 -0.026641056 -0.07822631 -0.09162073 -0.12985134 0.16812867 -0.18070936 -0.19303703
-0.108848944 0.28364533 0.045940824 -0.034261648 0.14743438 -0.24586613 -0.11188638 0.0693028
-0.13260925 0.027080193 -0.18805762 0.19728617 -0.18935764 0.0507238 0.10224634 -0.083319835
-0.010922802 -0.1881673 0.11464964 -0.20788011 -0.03909515 0.054562498 0.09503302 -0.19830883
0.11661178 0.020451685 0.063714504 0.014445518 0.2138256 0.12868999 0.058000974 0.21530077
0.1100736 0.023341618 0.12058074 -0.061870858 0.013325105 0.09323803 -0.02294464 0.0133186765
0.054550864 -0.034661192 -0.10970925 -0.13913895 -0.28938338 0.116608754 0.054682482 -0.13049126
0.14252293 0.22045761 -0.17675403 -0.2840171 -0.06251934 -0.16580656 -0.18930279 0.17265826
0.025965568 0.10802826 0.0658227 -0.10836974 -0.10947147 -0.17076099 0.12488147 0.11857505
0.1371487 -0.21495749 -0.11771513 -0.16886052 -0.026169239 -0.09964003 0.05052045 -0.24890032
-0.054489844 0.21197169 -0.22231707 0.19769903 -0.13048142 0.109718025 0.072067425 0.07822825
0.2237056 0.010670791 -0.10253031 0.21670333 -0.051252037 0.031077826 0.04294748 0.06811362
-0.17228985 0.056201167 0.056168485 0.22606307 0.08876203 0.07375348 0.17087235 0.052496597
-0.016678646 0.041582413 -0.071484834 0.13204794 -0.017858159 0.1378883 -0.113013305 0.06116428
0.089619234 0.018956779 0.11453238 0.20029901 -0.18038474 0.20160049 -0.0381199 -0.0575756
0.11237314 -0.027022809 -0.021335855 -0.13745661 -0.081672 0.023833312 -0.2214127 -0.08056276
0.058264647 0.28056115 0.020115862 -0.16014177 -0.027718285 0.0060530216 0.1522686 0.01812771
0.1761022 0.14091532 -0.14411494 -0.13801138 0.21952109 0.09963964 0.17969958 0.20703904
-0.24056286 -0.15434754 0.08561229 0.1449404 -0.035172056 0.11124739 -0.13149977 -0.21444051
-0.046066172 0.07992557 0.07090145 -0.037301403 0.17298505 -0.0096652005 -0.16219148 -0.118936375
-0.0386054 -0.05507364 0.30354738 -0.18928091 -0.15889037 -0.28765503 0.14234355 -0.047677565
-0.13811673 -0.04835922 -0.059565824 -0.07016083 -0.118536614 0.03460572 0.0038960567 0.00050933246
00000000: c5de 273e 53c4 a63d 8900 a93c 0941 933e
00000010: 8ccc 25be f935 863e a539 b23d a65d debd
00000020: 4945 48be 2dfb 1ebe df8f 6abd 1756 c53d
00000030: 6e3d eb3c bdec 76bd 633a 073e 7c86 85be
00000040: d759 4ebe d4d2 a1be 2e33 373e 354a 0e3e
00000050: e4d5 313e 50ce a83d e771 babd a3b5 3cbe
00000060: 1a59 3abe 32a1 133d e9f2 3cbe 6516 f1bb
00000070: 8d1a d5bd f35d 4ebd 3673 e73d 8b21 1b3e
00000080: 0b5f 713e 9ead 43be e055 813d 3c59 e33c
00000090: e207 943d 154a 95be cba5 b83d d10a c9bd
000000a0: 8ade 353e e67c 07be ed21 7c3e d581 103e
000000b0: 141a 0a3e dfca 71be b540 c43c ab19 5d3e
000000c0: e484 9dbd c472 cfbd 71a0 18bd bbee 68bd
000000d0: 68c4 40be bd5a 62bd 88ff 89bd f8ee a5bd
000000e0: 6870 893c de28 72bc 4aec 01be 718c 54bc
000000f0: 7438 e8bd dd23 11bd 0f68 c0bd 1c7c c83d
00000100: c1c7 c43c 6b02 4ebe ef9e 4b3e 4f00 273e
00000110: a057 a83d 2a20 0fbe 5b57 21b7 22f9 773e
00000120: c1a8 ef3d be8f c73d 4e2e 0dbe 2dd5 983e
00000130: 7399 3fbe fb36 eb3d b41b a13e 980e 43bc
00000140: ab99 3b3e 583e dabc 1e35 a0bd a6a3 bbbd
00000150: c0f7 04be ec29 2c3e e00b 39be 80ab 45be
00000160: 32ec debd f639 913e 722c 3c3d f155 0cbd
00000170: 0af9 163e 55c4 7bbe b024 e5bd a0ee 8d3d
00000180: b8ca 07be 48d7 dd3c 2d92 40be 6305 4a3e
00000190: f8e6 41be c2c3 4f3d 8766 d13d 97a3 aabd
000001a0: 8df5 32bc eeae 40be 6ecd ea3d 86de 54be
000001b0: 3c22 20bd ed7c 5f3d aca0 c23d 7811 4bbe
000001c0: 28d2 ee3d 4b8a a73c c07c 823d e5ac 6c3c
000001d0: 19f5 5a3e 4fc7 033e 6e92 6d3d ce77 5c3e
000001e0: 456e e13d ec36 bf3c 09f3 f63d 4c6c 7dbd
000001f0: 8b51 5a3c 95f3 be3d 66f6 bbbc 9436 5a3c
00000200: ba70 5f3d e5f8 0dbd 3eaf e0bd 717a 0ebe
00000210: 0f2a 94be 92d0 ee3d bdfa 5f3d 809f 05be
00000220: 88f1 113e a4bf 613e 02ff 34be b06a 91be
00000230: 240a 80bd 32c9 29be 97d8 41be 54cd 303e
00000240: beb5 d43c ec3d dd3d 0dce 863d f4f0 ddbd
00000250: 9432 e0bd f8db 2ebe dbc1 ff3d 7ad7 f23d
00000260: b570 0c3e d11d 5cbe a114 f1bd c6e9 2cbe
00000270: df60 d6bc 1210 ccbd 88ee 4e3d badf 7ebe
00000280: be30 5fbd 1b0f 593e 16a7 63be 9d71 4a3e
00000290: ec9c 05be d8b3 e03d 1698 933d 2236 a03d
000002a0: 1513 653e 8bd4 2e3c 69fb d1bd 7ae7 5d3e
000002b0: a8ed 51bd ed96 fe3c b2e9 2f3d 277f 8b3d
000002c0: c06c 30be 3233 663d ed10 663d 147d 673e
000002d0: dec8 b53d 110c 973d 29f9 2e3e ac06 573d
000002e0: a8a1 88bc 5252 2a3d a466 92bd 9337 073e
000002f0: 464b 92bc 9732 0d3e 8573 e7bd 6587 7a3d
00000300: 4a8a b73d 3f4b 9b3c f48f ea3d 2f1b 4d3e
00000310: c7b6 38be 5c70 4e3e 9d23 1cbd 64d4 6bbd
00000320: e423 e63d f05e ddbc 88c8 aebc 6dc1 0cbe
00000330: a643 a7bd 143e c33c 03ba 62be 17fe a4bd
00000340: e9a6 6e3d b6a5 8f3e 05ca a43c 34fc 23be
00000350: 7511 e3bc 6d58 c63b 4dec 1b3e 9080 943c
00000360: 2354 343e 1b4c 103e de92 13be db52 0dbe
00000370: 23ca 603e de0f cc3d 2b03 383e 0b02 543e
00000380: 1c56 76be 480d 1ebe 7f55 af3d 426b 143e
00000390: 9310 10bd acd5 e33d e0a7 06be 4b96 5bbe
000003a0: e2af 3cbd 04b0 a33d c834 913d 5bc9 18bd
000003b0: fe22 313e ca5a 1ebc 8615 26be ea94 f3bd
000003c0: b220 1ebd e694 61bd 906a 9b3e dbd2 41be
000003d0: 28b4 22be 8547 93be 82c2 113e 8d49 43bd
000003e0: 796e 0dbe 5114 46bd 4bfb 73bd 7bb0 8fbd
000003f0: 53c3 f2bd babe 0d3d fc54 7f3b b984 053a

transformer.layers.0.linear_net.0.bias f4 [64]
-0.05034839 -0.0022669188 -0.01123743 0.1641671 -0.0967596 0.08289857 -0.02029458 0.042676188
0.21024811 0.09012922 0.034039043 0.17345001 0.25849316 -0.052665714 0.09181728 0.14677678
0.22616985 0.08208855 -0.10774798 0.16762803 0.1639523 -0.041411765 0.20398149 0.016020002
-0.081381895 0.0816391 0.04302697 -0.15115854 0.09559611 0.10230235 0.089008726 -0.052617457
-0.013295951 0.18966588 0.09085054 0.102146946 -0.11354782 0.011448108 0.16440445 0.17038868
-0.044633903 0.058932647 -0.00045696812 0.22001697 0.14887628 0.22020632 -0.15990241 -0.046756048
0.13409016 -0.050828423 -0.067096666 0.05967595 0.12907284 0.16510183 -0.1015168 0.026339157
-0.11292332 -0.012168428 0.04399633 -0.010654939 0.16255449 -0.049913723 0.0078070657 0.184841
00000000: 1d3a 4ebd 9690 14bb 331d 38bc 6c1b 283e
00000010: e629 c6bd bac6 a93d d240 a6bc 3acd 2e3d
00000020: 484b 573e ab95 b83d 866c 0b3d e19c 313e
00000030: 3759 843e 01b8 57bd b30a bc3d a74c 163e
00000040: 1299 673e 0b1e a83d f9aa dcbd afa6 2b3e
00000050: 1de3 273e 629f 29bd 86e0 503e 613c 833c
00000060: 8dab a6bd 6732 a73d 0c3d 303d 4ec9 1abe
00000070: e5c7 c33d e583 d13d 354a b63d 6785 57bd
00000080: 43d7 59bc c637 423e d90f ba3d 6b32 d13d
00000090: c28b e8bd d890 3b3c a459 283e 5f7a 2e3e
000000a0: 0ad2 36bd 5c63 713d 3995 efb9 214c 613e
000000b0: 0673 183e c47d 613e 75bd 23be 4583 3fbd
000000c0: ee4e 093e 7731 50bd fa69 89bd c56e 743d
000000d0: ac2b 043e 7410 293e 0ae8 cfbd 37c5 d73c
000000e0: 5744 e7bd 165e 47bc 7f35 343d 0e92 2ebc
000000f0: af74 263e 5572 4cbd 6ad2 ff3b f646 3d3e

transformer.layers.0.linear_net.3.weight f4 [32, 64]
0.04555699 0.030250516 -0.18541579 0.0107439235 -0.30585662 0.20258054 0.06137159 0.12275355
-0.0051269513 -0.08643534 -0.023143036 0.0044214707 0.13934164 0.20356204 -0.13562398 -0.02232258
-0.01127007 -0.074523255 0.049238488 -0.0152512025 -0.17141776 0.005181434 -0.07825057 -0.2674491
-0.04703933 0.13930072 -0.164549 -0.2656162 0.10421163 -0.21305321 0.086110674 0.049663633
0.009046988 -0.062310677 -0.041464195 0.04857681 0.09594313 0.052638616 0.08664164 0.14274177
0.17091855 -0.22397152 -0.12771693 -0.16584675 0.1074362 -0.06823622 0.15846299 -0.03765361
-0.18737578 -0.026024617 -0.21747084 0.23189309 0.03205272 0.03930005 0.18785925 0.07546408
0.14980653 0.14879993 -0.036102947 -0.0055180998 -0.29977262 -0.14088275 -0.061507862 -0.14116453
0.0076902043 -0.042062264 0.23839234 -0.0068440693 0.15944125 -0.08486982 0.047508854 -0.20418942
0.04958849 -0.104826204 0.016812352 0.046198484 0.020350775 0.014291296 0.09068284 0.0036621897
-0.16432849 0.20782436 4.7769405e-05 -0.020991703 -0.026808107 0.0852729 0.000402616 -0.14604303
0.008182498 0.002607239 -0.027054004 -0.014866373 -0.2356932 0.18654722 -0.23189193 0.11355824
-0.028943138 0.12237438 -0.15389225 -0.041084528 0.065015025 -0.1661506 -0.1404517 -0.10734449
0.0097240135 -0.038960185 -0.18136899 -0.13787244 -0.17108876 0.08284137 0.0010366368 0.22466609
0.2699975 -0.17992699 0.24018618 -0.010419578 -0.09087999 0.03868261 -0.042969324 -0.087270804
0.04673858 -0.08232639 0.0657234 -0.03794016 0.011706834 -0.22233194 0.23977341 -0.042346198
0.07805434 -0.21052969 0.08298767 0.21657895 0.1374575 0.081539616 0.013821142 0.036585424
-0.06929708 0.18079443 -0.089840144 0.1264828 0.19067965 0.049729623 -0.02629326 -0.22101274
0.041229498 -0.11725002 0.011021229 -0.19337426 0.1149533 -0.11562004 0.13171266 0.18144977
0.21577615 -0.19229665 -0.06419676 0.15458146 -0.008058115 0.08271982 -0.15873183 0.17588633
0.12230922 0.039319366 0.16158918 -0.048975646 0.11207231 -0.023981914 -0.10909826 -0.12826368
0.06690508 -0.020748945 0.03083912 -0.0789544 -0.18013227 -0.07409977 0.0027764128 -0.049594603
0.1196116 0.0025741917 0.10365029 -0.13000196 -0.09457514 0.035669725 -0.03957537 0.13304621
0.11078152 -0.1126826 -0.05141749 -0.2725285 -0.012656506 0.039689574 -0.21757495 0.11833209
-0.07644259 -0.099204406 0.06085498 -0.06951525 -0.09023344 -0.062022813 0.11244644 -0.11673145
0.01917821 -0.005310057 -0.010711421 0.048770986 0.17231645 0.03944909 -0.10950782 0.107163005
0.13659641 0.13722481 0.027488234 -0.11875983 0.063872784 -0.15450461 0.112367265 0.12993522
-0.014930013 0.10397797 -0.26650733 0.039254572 -0.12417663 0.06590183 0.027317397 0.08714852
-0.061090548 0.053986922 0.07857949 0.13689086 0.00092239457 0.05363217 0.12451965 0.06694682
-0.0706826 -0.04012056 0.018624172 -0.10172332 -0.027476944 0.042675607 -0.11619306 -0.0016354416
0.043846805 -0.033923067 -0.17770112 0.21736859 -0.1385091 -0.014244929 -0.12397469 -0.15462151
0.019297194 -0.043977518 -0.012253442 0.18871684 -0.121883854 -0.038896766 0.03044407 -0.095093176
00000000: f799 3a3d eecf f73c a3dd 3dbe 4807 303c
00000010: 3d99 9cbe 4671 4f3e c760 7b3d 3766 fb3d
00000020: fcff a7bb 0305 b1bd 7796 bdbc fce1 903b
00000030: 93af 0e3e 9172 503e 03e1 0abe d8dd b6bc
00000040: 1aa6 38bc a69f 98bd 4cae 493d 2ee0 79bc
00000050: 2388 2fbe 05c9 a93b d641 a0bd 17ef 88be
00000060: 50ac 40bd d9a4 0e3e 887f 28be d9fe 87be
00000070: e86c d53d 9f2a 5abe cb5a b03d 186c 4b3d
00000080: d139 143c 7b39 7fbd 5cd6 29bd 7af8 463d
00000090: d57d c43d 979b 573d 2c71 b13d e62a 123e
000000a0: 4605 2f3e ca58 65be 3ac8 02be bbd3 29be
000000b0: 8307 dc3d 6ebf 8bbd 1f44 223e ac3a 1abd
000000c0: 70df 3fbe 9431 d5bc adb0 5ebe 6275 6d3e
000000d0: b749 033d 17f9 203d 2d5e 403e e98c 9a3d
000000e0: e266 193e 025f 183e afe0 13bd 2dd1 b4bb
000000f0: cc7b 99be 9143 10be abef 7bbd 6f8d 10be
00000100: 1cfe fb3b 7b49 2cbd 1f1d 743e 3744 e0bb
00000110: 9144 233e 3ad0 adbd a598 423d 0817 51be
00000120: 4d1d 4b3d 1faf d6bd 0fba 893c 9f3a 3d3d
00000130: abb6 a63c 0a26 6a3c edb7 b93d 5901 703b
00000140: ba45 28be e9cf 543e 025c 4838 cbf6 abbc
00000150: ad9c dbbc 8fa3 ae3d 3416 d339 4e8c 15be
00000160: e20f 063c 36de 2a3b 5ca0 ddbc 1692 73bc
00000170: 8f59 71be 3c06 3f3e 1475 6dbe 3991 e83d
00000180: 291a edbc 6b9f fa3d ee95 1dbe 4048 28bd
00000190: 9926 853d 6223 2abe 92d2 0fbe 6ed7 dbbd
000001a0: 7851 1f3c b794 1fbd cbb8 39be 6f2e 0dbe
000001b0: e431 2fbe bca8 a93d c2df 873a de0e 663e
000001c0: 1d3d 8a3e c83e 38be 5ef3 753e e1b6 2abc
000001d0: 4a1f babd a871 1e3d 9a00 30bd 09bb b2bd
000001e0: f470 3f3d bd9a a8bd fd99 863d 2467 1bbd
000001f0: 05ce 3f3c fcaa 63be 2987 753e 3573 2dbd
00000200: f4da 9f3d 1895 57be 71f5 a93d dfc6 5d3e
00000210: a9c1 0c3e 3efe a63d 1272 623c 99da 153d
00000220: a1eb 8dbd 2d22 393e 1cfe b7bd b584 013e
00000230: 8741 433e 4ab1 4b3d f664 d7bc 2a51 62be
00000240: 43e0 283d c720 f0bd 6392 343c e703 46be
00000250: a36c eb3d 33ca ecbd afdf 063e f8cd 393e
00000260: 6cf4 5c3e 6ae9 44be 9779 83bd 9a4a 1e3e
00000270: 2f06 04bc 0269 a93d 998a 22be 8c1b 343e
00000280: 427d fa3d 580d 213d a277 253e b09a 48bd
00000290: 2b86 e53d b875 c4bc e96e dfbd 8e57 03be
000002a0: 8805 893d b1f9 a9bc 52a2 fc3c d8b2 a1bd
000002b0: 9874 38be 9fc1 97bd 7af4 353b b623 4bbd
000002c0: edf6 f43d c5b3 283b 9a46 d43d 3c1f 05be
000002d0: 9cb0 c1bd 6b1a 123d c819 22bd 443d 083e
000002e0: 6ce1 e23d 23c6 e6bd 259b 52bd db88 8bbe
000002f0: 3c5d 4fbc 8991 223d f8cb 5ebe 1858 f23d
00000300: ef8d 9cbd ae2b cbbd 1243 793d 035e 8ebd
00000310: 4fcc b8bd a20b 7ebd 524a e63d e610 efbd
00000320: 9f1b 9d3c fdff adbb f57e 2fbc 16c4 473d
00000330: b973 303e 5e95 213d a345 e0bd 4778 db3d
00000340: eedf 0b3e a984 0c3e 012f e13c 5b38 f3bd
00000350: bccf 823d 7536 1ebe cf20 e63d bd0d 053e
00000360: 039d 74bc 67f2 d43d a673 88be 67c9 203d
00000370: 5150 febd 8af7 863d bcc8 df3c ec7a b23d
00000380: 153a 7abd 6421 5d3d 49ee a03d 1e2d 0c3e
00000390: dacc 713a 68ad 5b3d 2904 ff3d 6a1b 893d
000003a0: 0ac2 90bd 7555 24bd b891 983c 5154 d0bd
000003b0: 5417 e1bc 9ecc 2e3d a1f6 edbd 505c d6ba
000003c0: b598 333d eaf2 0abd 48f7 35be df95 5e3e
000003d0: 54d5 0dbe 9063 69bc 71e6 fdbd 1a55 1ebe
000003e0: 2615 9e3c c521 34bd a9c2 48bc fd3e 413e
000003f0: 3e9e f9bd 3752 1fbd d865 f93c 36c0 c2bd

transformer.layers.0.linear_net.3.bias f4 [32]
0.08580032 0.038959105 0.054538317 0.07687193 0.06236914 0.014214733 -0.06253218 0.050381083
-0.13445126 0.07367004 -0.028826898 0.01729552 -0.074411996 0.056199614 0.035858992 0.049091585
0.07956438 0.15342408 -0.049060877 0.07662493 0.06206268 0.006698727 -0.034756523 0.054124113
0.11781159 -0.07353216 0.091732815 0.017535653 0.114117734 0.07166248 -0.028272977 0.0011869527
00000000: 14b8 af3d 9593 1f3d 9263 5f3d 086f 9d3d
00000010: c976 7f3d e9e4 683c df10 80bd 655c 4e3d
00000020: 97ad 09be 51e0 963d 6326 ecbc 56af 8d3c
00000030: 5165 98bd 9131 663d e1e0 123d 4214 493d
00000040: a6f2 a23d 341b 1d3e 0ff4 48bd 88ed 9c3d
00000050: 7035 7e3d ff80 db3b db5c 0ebd 3fb1 5d3d
00000060: 3447 f13d 0798 96bd 6ade bb3d eea6 8f3c
00000070: 8fb6 e93d c7c3 923d bb9c e7bc 8693 9b3a

transformer.layers.0.norm1.weight f4 [32]
1.0206102 1.0506347 1.0049284 1.0391395 1.0328118 0.9552849 0.952118 0.9882337
1.0333347 0.97970283 0.9284303 0.9702034 1.1377796 0.9633049 0.91497195 1.0337894
1.0226953 0.88464814 1.0680531 0.99108845 0.90831 0.975518 0.9904464 1.0326117
1.0165697 1.0467212 1.0578442 1.0100881 1.0183363 1.01865 0.9409942 1.0380627
00000000: 5ba3 823f 337b 863f 7ea1 803f 8602 853f
00000010: 2d33 843f 8d8d 743f 01be 733f e2fc 7c3f
00000020: 5044 843f cecd 7a3f 9cad 6d3f 405f 783f
00000030: c3a2 913f 269b 763f 9a3b 6a3f 3653 843f
00000040: aee7 823f 4d78 623f f7b5 883f f9b7 7d3f
00000050: 0187 683f 8cbb 793f e58d 7d3f 9f2c 843f
00000060: f51e 823f f6fa 853f 7067 873f 914a 813f
00000070: d858 823f 2063 823f ffe4 703f 3ddf 843f

transformer.layers.0.norm1.bias f4 [32]
0.014055746 -0.03264125 -0.026652778 0.03570391 0.012569455 -0.012541094 0.06266582 0.02433679
-0.059940707 0.06041047 0.02866807 -0.020116113 0.014337135 -0.0444077 0.023451623 -0.035239875
0.016167216 0.018060125 0.03187757 -0.012090754 -0.005897926 -0.021109873 -0.025713608 -0.03772302
-0.030728359 0.0057502324 -0.0086535355 0.007945725 0.008172655 0.0030348448 -0.017366495 0.002918199
00000000: 124a 663c d5b2 05bd ed56 dabc 433e 123d
00000010: 1ef0 4d3c 2979 4dbc f056 803d f35d c73c
00000020: 6384 75bd f870 773d 4dd9 ea3c 8cca a4bc
00000030: 4de6 6a3c d9e4 35bd 9e1d c03c b057 10bd
00000040: 1c71 843c d4f2 933c 0e92 023d 4c18 46bc
00000050: 6443 c1bb 9dee acbc 58a5 d2bc 7483 1abd
00000060: 0aba fbbc 726c bc3b 8fc7 0dbc c92e 023c
00000070: 99e6 053c 3fe4 463b 2e44 8ebc 413f 3f3b

transformer.layers.0.norm2.weight f4 [32]
1.0738007 1.0760242 1.0698518 0.93398505 0.94944775 1.0707427 0.84831697 0.9144876
1.0137354 1.0798258 0.910332 0.8733644 1.2045408 0.9884845 0.86656183 1.0380235
0.9735324 0.91190755 0.9339725 1.0343225 0.95855427 0.9192834 1.1132442 1.1186323
1.009574 0.9959626 1.0404696 0.98911375 1.0331292 1.0644187 0.9947786 0.99357647
00000000: 4d72 893f 29bb 893f e7f0 883f a519 6f3f
00000010: 020f 733f 190e 893f 4d2b 593f dc1b 6a3f
00000020: 15c2 813f bb37 8a3f 850b 693f cf94 5f3f
00000030: 652e 9a3f 520d 7d3f ffd6 5d3f f4dd 843f
00000040: 6b39 793f c672 693f d218 6f3f ae64 843f
00000050: d063 753f 2856 6b3f c97e 8e3f 582f 8f3f
00000060: b939 813f 68f7 7e3f 1c2e 853f 8f36 7d3f
00000070: 943d 843f df3e 883f cfa9 7e3f 075b 7e3f

transformer.layers.0.norm2.bias f4 [32]
-0.020423511 -0.02444642 -0.022135602 0.010991425 0.01196732 0.008996494 0.024850542 -0.002888278
0.00016387914 0.0075609693 0.0052031823 0.052729335 0.0010360213 0.017476302 -0.012650685 -0.0314471
0.023094611 0.011446226 0.014839905 -0.015251662 -0.016826052 -0.009587453 -0.0204044 -0.020302145
0.02436197 -0.001816733 0.0073101376 0.0012356855 0.008656006 0.031426422 -0.024851378 0.0052516195
00000000: 354f a7bc dc43 c8bc b955 b5bc 6115 343c
00000010: 9412 443c 0866 133c 5d93 cb3c 4449 3dbb
00000020: f9d6 2b39 02c2 f73b 757f aa3b b7fa 573d
00000030: 1bcb 873a 762a 8f3c d244 4fbc adce 00bd
00000040: e930 bd3c f488 3b3c 1323 733c 1be2 79bc
00000050: cad6 89bc b114 1dbc 2127 a7bc af50 a6bc
00000060: c192 c73c 721f eeba e189 ef3b baf6 a13a
00000070: ecd1 0d3c feb8 003d 1e95 cbbc c715 ac3b
