Supervised/00_exercises/lab_10/lightning_logs/version_3/checkpoints/epoch=19-step=7800.ckpt (torch, 146116 bytes, 66 tensors)

rnn.weight_ih_l0 f4 [32, 10]
00000000: 8903 803c 101a 943d 6f56 f8bc b8f2 083e
00000010: 17b4 a33c de88 423d 583e 08be f911 fcbd
00000020: 10a4 1d3b 1a5a d43d 708f b2bd bec3 5cbd
00000030: 63f4 babb 9627 a3bd 92ce 26bd ed58 0e3e
00000040: d2aa be3d 176f 083d 4436 5abd 3ca5 7a3a
00000050: d2ba 90bc 1914 87bd 4360 04be d88e 05be
00000060: 055b 7f3d df69 72ba 4b84 053d 7c26 973d
00000070: 4f2f efbd b5fe bd3d 7bc9 c33d 7b55 aa3c
00000080: 5b8d 2bbb fee7 dd3d b704 183d bde3 0ebc
00000090: 6a14 833d ba94 ce3d 37fe c2bd cdd3 473d
000000a0: a4b8 dcbd ac4b b8bd 3729 d9bc 5b71 d3bd
000000b0: 9003 4b3d c901 c83d 69c0 e6bd 9e98 1ebe
000000c0: 20f9 923b d8d8 0abe 7b7b ffbd 571c b23d
000000d0: 0911 9b3d 08c0 c23d 0fc3 febb 8e7e d4bd
000000e0: b3bb 833d 8bc5 723d c16a dd3c 2a6f f43d
000000f0: 6ca2 a7bd 628a b63d d84d d03d e24d ffbd
00000100: c191 9e3d 5672 bebd 52aa af3d 5751 27be
00000110: 658b 193d e69b 12be 0455 b33d 27dd 7c3d
00000120: 7148 7cbc f725 ccbd 8bb4 0a3e 9301 853d
00000130: 1afb bebd 0d34 553d 7692 913b d43a 493d
00000140: cf7f 883d 8684 9bbb 46ff b23d f0e7 95bc
00000150: 5069 2a3d 6846 403d d770 743d de6e e43d
00000160: d961 b13d 7807 b23c 1f90 7a3d 6507 11be
00000170: 5854 46be b4f9 c2bc 8e5c a1bc ae53 0a3c
00000180: a547 2abe bde7 ddbd 5172 91bc 071e 973d
00000190: 6079 c1bd fc0f 093e 9f34 d93c 772c 58bb
000001a0: 8251 53bd df44 01be d668 743d 381c 98bb
000001b0: 63ac 493d 70d4 b4bd 6e63 613d 2576 01be
000001c0: 4cd0 913d 3378 e5bc ab4f eebd 2842 80bd
000001d0: c700 48bd f3fa bebc 9598 a2bd aaf6 1f3d
000001e0: 0299 593b 4aac c4bd 180f b33d 462e 843d
000001f0: 4af0 87bd dba3 9ebd ae4c 023c 3810 70bd
00000200: 4a69 14be 95ae b2bd 0616 1d3d 0796 c4bd
00000210: 6c22 e93a 7a32 80bd 4044 503d e95f 193d
00000220: d360 02be 0093 e7bd 2a7d 43be 61e3 74bd
00000230: 93ab efbd 5255 c43d 156e 65bd 69a7 9eba
00000240: 2560 963d a980 95bd 8d08 16bd 00d2 dbbd
00000250: 80c4 f6bd b928 6f3d 1d2e 933d 2624 82bd
00000260: c2d7 32bd 38e1 983c 919b 083c 5e6b b43d
00000270: 35f0 88bd 407a 143d 8dec 2bbd 71f2 31bd
00000280: 8041 eb3c 7593 c3bd ae91 f6bd 19ef 01bd
00000290: f309 293c 75b0 613d ecc6 633d 44b5 4cbb
000002a0: c5fc 0f3d 371f 90bd dbad 413d 5546 61bd
000002b0: 2282 abbd bc24 a5bd 45ec 95bd aaab 1cbe
000002c0: 2c1f 38bd ead9 d03d b85a 48bd a4c2 833d
000002d0: 8a39 ba3d 562a 163e 1ed6 55bd dc99 d33d
000002e0: 647e ed3d 9d09 27bd f25a 503d 8f50 c53d
000002f0: 5a23 60bd f81e fd3d 4650 293d a8a5 aebc
00000300: 3dd7 833d defa 49bd 78f0 9c3d e802 a03c
00000310: 2df9 203d 987b b03d 41dc 883c d845 a3bd
00000320: e78a 053e da37 5ebd d078 c5bd aabc 243d
00000330: 061d 87bd 0b4f cd3d ea2a f6bd 8a0a c03d
00000340: b773 873d 032d 53bc 3aa8 803c 05a0 f53d
00000350: 3f33 15bd 0432 de3d d1ed 143d b12a 41bd
00000360: 71d1 a53d 10e6 70bd d232 cabc 7427 533d
00000370: f66d bf3d 53aa a53d 3d88 b9bd 511e de3d
00000380: 9faf df3d 2bd0 a53d 001a 31bd cd38 99bc
00000390: c555 c1bb ec95 f03d 3d9e 4b3c cd8f a23d
000003a0: 0a5d 173c 1206 b13d 7434 95bc e173 37bb
000003b0: f3d4 7b3d 7843 8bbc cd79 ac3d 69ec 77bd
000003c0: 3945 c8bd 57ff 90bd 38a1 c2ba b9b8 d7bd
000003d0: 6015 833c 0bb4 d23c e001 e9bc 0472 143e
000003e0: c64a e53d f908 9d3d c0fd b2bd 10da f43d
000003f0: 9e35 11be 076c f3bd 9508 d73b f60a 453d
0.015626686 0.072315335 -0.030314652 0.1337384 0.019983334 0.047493808 -0.13305032 -0.123081155
0.0024054088 0.10368748 -0.08718765 -0.05389761 -0.0057054027 -0.07966535 -0.040724345 0.1390111
0.09309925 0.03330907 -0.053274408 0.0009561365 -0.017667208 -0.0659563 -0.12927346 -0.13042772
0.062342662 -0.00092473434 0.032596868 0.07380387 -0.11678945 0.09277097 0.09559914 0.020792713
-0.0026176784 0.108352646 0.03711387 -0.008721289 0.06400378 0.10086961 -0.09521144 0.048785973
-0.10777405 -0.08998808 -0.02650891 -0.10324355 0.049563944 0.097659655 -0.11267168 -0.15487906
0.0044852644 -0.13559282 -0.12474724 0.08696812 0.075716086 0.09509283 -0.0077747176 -0.10375701
0.06432285 0.059270423 0.027028443 0.11935265 -0.081852764 0.08913113 0.101710975 -0.12466027
0.07742644 -0.092991516 0.08577408 -0.16339622 0.037486453 -0.14317283 0.0875645 0.061734345
-0.015398131 -0.09968179 0.13545434 0.06494441 -0.093252376 0.052051593 0.0044425083 0.04912837
0.066650026 -0.0047460226 0.08740096 -0.018299073 0.04160434 0.046942145 0.059677925 0.11153959
0.08661241 0.021732077 0.0611726 -0.14162977 -0.19368112 -0.023800708 -0.019697454 0.008442802
-0.16628893 -0.10835216 -0.017754706 0.07378774 -0.094469786 0.13385004 0.02651435 -0.0032985487
-0.051591404 -0.12623928 0.05967029 -0.004642036 0.049236666 -0.08829582 0.055026464 -0.12642725
0.071198076 -0.028011417 -0.11636289 -0.06262618 -0.048828866 -0.023313021 -0.07939259 0.039053597
0.0033202772 -0.09603174 0.08743113 0.064541385 -0.066376284 -0.07746097 0.007952852 -0.058609217
-0.1449329 -0.08724705 0.03835108 -0.09598928 0.0017786748 -0.06259628 0.05084634 0.037444983
-0.12732248 -0.11307335 -0.19090715 -0.059787158 -0.11702647 0.09586586 -0.056013186 -0.0012104335
0.07342557 -0.072999306 -0.03662925 -0.10733414 -0.12049198 0.058388446 0.0718653 -0.06354551
-0.043662794 0.01866208 0.008337871 0.08809541 -0.06686441 0.0362494 -0.04197364 -0.0434441
0.028717756 -0.095496096 -0.12039505 -0.031722162 0.0103173135 0.055099923 0.05560963 -0.0031235972
0.03515317 -0.07037204 0.047284942 -0.054998714 -0.0837443 -0.08063647 -0.073204555 -0.1529986
-0.044951603 0.10197814 -0.04891464 0.06433609 0.09093006 0.14664587 -0.05220615 0.10332081
0.11596373 -0.040780652 0.050867982 0.09634506 -0.054721214 0.123594224 0.04133632 -0.021319225
0.06437538 -0.04931151 0.07663053 0.019532636 0.039300133 0.08617324 0.016706588 -0.07972306
0.13041268 -0.054252483 -0.09642184 0.040218987 -0.06597333 0.10024842 -0.12019904 0.0937701
0.06613868 -0.01288915 0.015705217 0.11993412 -0.036425825 0.108493835 0.036359612 -0.047159854
0.080965884 -0.058813155 -0.024682436 0.051551297 0.09347145 0.080891274 -0.090591885 0.10845626
0.10922169 0.080963455 -0.043237686 -0.018703843 -0.005900117 0.11747345 0.012427864 0.07937584
0.009238491 0.08643736 -0.018213488 -0.0027992653 0.06148238 -0.016999945 0.08421669 -0.060528193
-0.09778828 -0.07079952 -0.0014849072 -0.1053328 0.016001403 0.025720617 -0.028443277 0.14496619
0.111959025 0.07667727 -0.08739805 0.119556546 -0.1418061 -0.11885839 0.0065623024 0.048106156

rnn.weight_hh_l0 f4 [32, 32]
00000000: 0244 e13d 3552 8abd 328d ccbc 0b78 22be
00000010: 0213 18be c70a 94bc 11c1 cb3d 2983 533d
00000020: c28c 30bd f6be 203e db30 0d3a d1b5 113e
00000030: 485d 72bc 02d1 78be 3f91 033e a8d9 d93d
00000040: 9dc8 b33d 8c49 dd3d cd2a 1a3e 5ed3 b6bd
00000050: 5ffb 84bd 342c dc3d ab01 84bd e34c 8abe
00000060: 4ce9 0bbe c568 1bbd 1836 6ebd c05d 223e
00000070: 84f2 073d 42ca a63c 89be c63d 47a0 a6bd
00000080: ac91 f8bd 0324 003d 13f4 f4bb 45b4 1abe
00000090: ff99 f7bd 60c4 e43d 8558 dc3d 664b 2b3c
000000a0: 464d 8abd 1f1d ca3d 94a3 2bbe bb08 603d
000000b0: d1a9 b53d 9d77 eb3d 83ac b1bd 9d6f 0b3e
000000c0: 62f1 d9bd 43fb 133d 7589 f63d bfa3 d63d
000000d0: a41a 043e 1c6c 2ebd 749c deb9 d2b6 3e3d
000000e0: cace c13d a349 22be 1d45 fb3d 5bec dabb
000000f0: cc4a 8c3d 5596 61bd 738b a43a 912d 22bc
00000100: 8151 09be c5f5 663d bca4 9cbb 4353 b43c
00000110: e38d d0bc ee1e 2dbe 0414 cabd a740 093e
00000120: 1c8d 9f3c e456 2c3d e826 d53b b2b2 de3d
00000130: 36a7 96bd c758 adbc 895d 2e3e 90ac d8bd
00000140: b4dd ac3d 0021 e53d 91f5 43bd 5694 b4bd
00000150: 37be 6dbd bc3d 2fbe cc90 35be 0c2d 81be
00000160: 59f8 fbbd 023d e8bd ba3c cb3d ccb9 8cbd
00000170: d786 9cbb ffc0 b5bd 3398 e5bd 098a 0bbd
00000180: 6d90 bcbd 920e a4bd 0398 95bd e880 1d3e
00000190: fb55 763d 6e8c cbbd 9720 0abd 5018 07be
000001a0: 816c e73c 8117 a0bd a7ab 17bd 4202 823d
000001b0: 5ad6 4dbe 6b8b 8c3d 6351 9c3d 246c 1dbb
000001c0: 6a72 023e de86 b9bb 69f5 1ebd 520c 9fbd
000001d0: 5bbd 21bd 4dc6 89bd 5d49 1cbe b5d0 febd
000001e0: c530 b3bd 24cd cabc 0307 86bd 37a6 a5bd
000001f0: 54c1 5ebe 5097 4a3d 88ce 023e 84c4 3fbe
00000200: 0692 97bd 2812 9fbd 0393 cd3d e146 f1bd
00000210: db16 533e 7477 2dbe 755d 56be fa7b eb3d
00000220: 89e0 313d a864 71bd 6074 be3d b58e 583b
00000230: a8ad f2bc dd7d 493e e86f 223e 56ea 9fbc
00000240: c508 d13b fa85 e63c 37fa 15be 4449 3ebc
00000250: 801a ad3d cf3c 92bd be7d 60bd e23a 503d
00000260: 0799 3fbe ed0e 1f3e a9cb 913d 722a b7bd
00000270: 96dd 0fbe ad42 323e bb6c 1fbe 9819 983d
00000280: dca3 563e d498 813a aed1 e03d e24b c2bd
00000290: 233b e73d 37d8 b7bd 13dd b4bd 7d56 863d
000002a0: fadc 9c3d 8863 17bd 99e3 143e 86df 12be
000002b0: 4784 863d 33c2 40bc d94e 3a3e 8c36 69bd
000002c0: ec45 25be 2327 25be bff8 c3bd 9fa8 303e
000002d0: e97d f13d e273 b9bd 7a37 933d 169f 00be
000002e0: 4334 7b3c 4e00 80be 46a9 7d3d a503 0abe
000002f0: 9726 f5bc cde3 2dbe 2fe9 e43c f2d6 21be
00000300: d417 11be 2ce6 1b3e e14f 23be 3320 0fbe
00000310: e6e6 003e 5015 963d f1bd 05be bdcb 253e
00000320: 974b 16be e424 8a3d 8c34 593e 445e 263e
00000330: d02c 19be ab33 b33d 75fc bf3d c1e8 d83d
00000340: 2cf1 cf3d 0fe5 67be 82c0 c43d 23eb fc3d
00000350: 0586 1c3e a55a 053e 86e0 fabc c96e d6bd
00000360: cf7e 1f3e 3230 e13c 7d08 bbbd 14da c63d
00000370: b866 773d 0dc9 24bd 490f aabd 002a 333e
00000380: f47e 963c 28d8 e9bc 4c61 ca3d 12cf 59bd
00000390: 4b3e d5bd 73ef a13d 97c7 b63d 1d44 a83d
000003a0: 981e 5a3e 2762 7f3d a144 f4bd ae18 da3d
000003b0: 896d 073e d8e4 b7bc 6f5d d83d d05f 963c
000003c0: 659e 8c3d 8d8f fdbd 7f8d c83d 1dca 653d
000003d0: 50a9 903d c670 77bd 4932 553d 6eda 14be
000003e0: f36c 87bd a915 323e 4d10 9b3d adc0 cfbc
000003f0: 1d1a 053e e24c f2bd a150 603e 875e 95bc
0.109992996 -0.06753961 -0.02496967 -0.15866105 -0.14851001 -0.018071545 0.09948934 0.051638756
-0.043102987 0.15697846 0.0005386003 0.14229514 -0.014792748 -0.2429848 0.12848376 0.10637218
0.08778498 0.108050436 0.1505539 -0.08927034 -0.06493258 0.107506186 -0.06445631 -0.27011785
-0.13663214 -0.037941713 -0.058157057 0.15856075 0.033190265 0.020360116 0.097043104 -0.08136039
-0.1213716 0.031284343 -0.007475385 -0.1510783 -0.12089919 0.11170268 0.10759071 0.010454988
-0.0675302 0.09868836 -0.16761619 0.054695826 0.088702805 0.11497424 -0.08675482 0.13616796
-0.10641743 0.036128294 0.120379366 0.10480451 0.12900788 -0.04258357 -0.00042459706 0.04656107
0.0946327 -0.15848403 0.12269042 -0.006681008 0.06850204 -0.05507501 0.0012553766 -0.009898559
-0.13409998 0.056386728 -0.00478038 0.022012359 -0.025458282 -0.1690633 -0.09867099 0.13403569
0.019476466 0.042075053 0.006504882 0.10873927 -0.07356112 -0.021160496 0.17027868 -0.10579789
0.08440724 0.11187935 -0.047841612 -0.08817355 -0.05804273 -0.17113394 -0.17731017 -0.2522968
-0.12303228 -0.11339761 0.09923692 -0.068713754 -0.0047768163 -0.08874702 -0.1121067 -0.034067187
-0.092072345 -0.080105916 -0.073043846 0.15381205 0.06014059 -0.09938894 -0.033722486 -0.13192868
0.02824998 -0.07816983 -0.037028935 0.06348087 -0.201013 0.06862529 0.07632711 -0.0024020756
0.12738958 -0.0056618294 -0.03880826 -0.07766022 -0.039487224 -0.06727276 -0.15262361 -0.124421515
-0.087495364 -0.024756022 -0.06544306 -0.080883436 -0.21753436 0.04946071 0.12774098 -0.18727309
-0.07400899 -0.07767135 0.10037806 -0.11781097 0.20614187 -0.16940099 -0.20934089 0.11498256
0.043427024 -0.058933884 0.092995405 0.0033044044 -0.029623821 0.1967692 0.15863001 -0.01952092
0.0063792192 0.028140057 -0.1464623 -0.011614148 0.0845232 -0.071405046 -0.054807417 0.050837405
-0.18710719 0.15533037 0.07118923 -0.08943643 -0.14049372 0.17408247 -0.15568821 0.074267566
0.20960945 0.0009887465 0.10977493 -0.0948713 0.11290576 -0.089767866 -0.08831229 0.06559465
0.076593354 -0.036960155 0.14539947 -0.1434308 0.06568199 -0.011765051 0.1819414 -0.056936786
-0.16139954 -0.1612821 -0.09568929 0.17251824 0.117915936 -0.09055306 0.07188316 -0.12560686
0.015332284 -0.25000232 0.06192901 -0.13477953 -0.029925628 -0.1698143 0.027943222 -0.15804651
-0.14169246 0.15224522 -0.1594844 -0.13977127 0.12588081 0.07328284 -0.13060738 0.16191001
-0.14677273 0.067453176 0.21211451 0.16246897 -0.14958501 0.08750089 0.09374324 0.10591269
0.10153422 -0.22645973 0.096070305 0.12349536 0.152855 0.1302286 -0.03062464 -0.10470349
0.15575717 0.027488802 -0.091324784 0.09709564 0.060400695 -0.0402308 -0.08303697 0.1749649
0.018371083 -0.028545454 0.09881839 -0.053175993 -0.10412272 0.079069994 0.089247875 0.082161166
0.21300733 0.062349465 -0.119271524 0.106492385 0.13225378 -0.022447988 0.10564696 0.018356234
0.06866149 -0.12380896 0.09792613 0.056100953 0.07063544 -0.060410284 0.05204991 -0.1453645
-0.06612577 0.17391075 0.075714685 -0.02536043 0.12998243 -0.118310705 0.21905757 -0.01823355

rnn.bias_ih_l0 f4 [32]
00000000: 281b 4b3d 845f 773d 0b06 123c b6aa 14bd
00000010: 306c f73d db5e fa3d 0e60 813d 1c5d c8bc
00000020: b2ae 9a3d d86a 653d 3672 cb3d bf00 a33d
00000030: 8535 6a3d f128 d9bc c283 d83d e8fc febd
00000040: 4238 703d 06a7 8dbc 32d3 ca3d e728 28be
00000050: 88f6 9d3d 6339 05be 126e 24bd 36fc b43c
00000060: b562 00be 08a1 71bd 4abe 073d c35a fdbd
00000070: adb2 c93d 9f12 8dbc 633c ecbd df7b 0abd
0.049586445 0.060393825 0.008912574 -0.036295615 0.12081182 0.122251235 0.06317149 -0.02445846
0.07552852 0.056010097 0.099338934 0.07959127 0.057179946 -0.02650878 0.10572006 -0.12450582
0.0586474 -0.017291557 0.099035636 -0.16421853 0.07713038 -0.13010173 -0.040144034 0.02209292
-0.12537654 -0.058991462 0.03314046 -0.12370827 0.09848533 -0.017220793 -0.11534955 -0.03380954

rnn.bias_hh_l0 f4 [32]
00000000: f252 c6bc b8a0 93bd b1f9 de3d 9e6f 983d
00000010: 410d 2a3e 8897 b43c a434 e13c f2e1 efbc
00000020: 3290 18be b216 ef3d fbdd bbbd f33a 833d
00000030: d47f 0e3e 885e 033e b42a 99bd 4ef8 e63d
00000040: f1f5 48bd 12f9 503d 2fab b7bd 222d 263e
00000050: 2552 f6bd 4716 e03d 4d44 b43c e5c1 bcbc
00000060: 61bd 043e d454 123d 407a d7bd c8bb 1cbc
00000070: 56b2 62bd 635e c43d 07fb 873d 8779 4d3c
-0.024209473 -0.07208389 0.108874686 0.07443164 0.16606618 0.022044912 0.027490921 -0.029282544
-0.14898756 0.11674251 -0.09173199 0.06407728 0.1391595 0.1282903 -0.07478848 0.11277829
-0.049062673 0.051018782 -0.089681976 0.16228154 -0.120273866 0.10941749 0.022005225 -0.023041675
0.12962867 0.03572543 -0.10521364 -0.009566255 -0.055345856 0.09588315 0.066396765 0.012541181

rnn.weight_ih_l1 f4 [32, 32]
00000000: a074 333d 3978 30be c7e8 e9bd c7ec 9ebd
00000010: 16f0 3dbe e9cb 11bd 6d3b 813d df15 983d
00000020: abe5 8bbc f077 50be c48a c73d 5ccb ca3d
00000030: 3bfd ccbd f691 d23c 8557 33bd 2cad f0bd
00000040: fa80 b3bd cac3 f5bd 2837 33bd a242 bdbb
00000050: f502 273b c0f0 93bd 744a 193e bbb1 4e3d
00000060: aed1 5fbd 854d 4cbb 6d3c da3d f615 0fbd
00000070: ba8e 92bd bab4 a43c 8923 d7bc 0c13 7cbd
00000080: 6b25 debd 3833 9b3d ec00 b2bd 801d f93c
00000090: 185a d0bc 39ad 26bd 1222 6fbd 8da7 6ebd
000000a0: 8abd 113e 5ede 493d 2295 aebc e71b d8bb
000000b0: fd0b 253e ad41 01be 76e7 d9ba 3085 d4bd
000000c0: 21f3 cabd d63f 913d 18e4 283d 0c44 da3b
000000d0: 98d7 85bd e379 b63d 4f00 d13d b3df 84bc
000000e0: 697c 123e 8fb4 be39 16c3 c53d 5e3c 823c
000000f0: 3096 0f3e 1fa4 a2bc 1531 3bbb 2566 a83d
00000100: dcfc 773d 73d3 5f3d c1f4 d33d 4cd8 5e3d
00000110: 93a3 393e ca5b b93d 5f9c 53bc 4d4c e2bd
00000120: 2066 b13d 3ae9 3ebc 14b4 0ebd 67fe 48bd
00000130: a9f2 e13c 00c0 d4bd 4684 e63d b613 923c
00000140: 8cfd 6fbc a0e8 0abd 8ba6 04be 5e36 a53d
00000150: 5533 4a3d 1df8 0a3e 1d61 8c3c 3f91 dc3c
00000160: 9d1d ca3c f86a 4cbd 1e31 a7bd 16f8 84bc
00000170: a9c1 2abd abc1 c8bc 1ad6 433d 8a97 01be
00000180: 4228 31be 22d5 3dbd 8239 d83d b1ca fcbd
00000190: b17e cc3c 7ba2 29be 43b2 0bbe 6248 0bbe
000001a0: e73f 42bd 2b57 193e e11c 713d bd57 063e
000001b0: 2f3c a33d 123e de3c f4d9 3e3d 5c2b b4bd
000001c0: 5ea4 313e b1a0 33bc 4713 abbd d670 20bc
000001d0: 08b7 10be ec2a 5b3d 4097 193d 5dc0 24bd
000001e0: 328c bfbc e30f 113d 2a2a 843d a6fc bd3d
000001f0: 1a63 fd3d e638 0b3d da16 70bc fd15 42be
00000200: 3e5e 5f3d 238a ea38 fd16 79bc 205c a73d
00000210: a218 2a3e bc11 b43d a963 6dbd 6772 89bd
00000220: 72a7 343d 194b b43d 281c 92bd d689 123e
00000230: 54b5 873d 4c1d a93d 172e 723c feb3 f9bd
00000240: 4f97 90bd 33a2 013d 609f 433d 799e 213e
00000250: 433b d3bd 4a19 eebd 35a3 dbbc a1e0 1b3e
00000260: 0c57 dc3d 08d4 7abc ebee fd3c b674 7bbc
00000270: 817c f5bc 44d1 043d fc90 f33d 98f3 08bd
00000280: 7eef 1f3e 24e4 a73c f708 fa3d fc57 123e
00000290: e751 9c3d 76cb 2d3e c796 53bc dab3 8c3c
000002a0: 7268 8d3d b05e a93c 4636 df3c 4879 583d
000002b0: 1b07 6bbd aa5a 35bd 31e6 c1bd abd8 bb3d
000002c0: fd46 8b3d 208c 27bd f2c6 d2bd f541 37be
000002d0: d352 413d 8008 8cbd e33f 18bd 6eef a53d
000002e0: 5251 93bd 91c4 9f3d 4071 d4bc 7f26 8b3d
000002f0: 7c15 15be 3eb4 c53d 12cb 233e 9c4d 74bd
00000300: 3691 963c bacb 593a b394 a23d fcb8 0f3e
00000310: fb89 593d 019c ccbc 8462 f03d 036a 1f3d
00000320: 2b1f bb3d 763d 05be 5a2a 13be 097a c3bd
00000330: 4cbd b53d 96a0 23bd 5521 903d 7dca edbd
00000340: 5db6 883d 15cd 483d d82e d5bd 1355 1a3d
00000350: 6951 09be effa d43d d3f8 a73d ee73 0b3e
00000360: bbdc dcbd 2ebd bc3d 42ad aa3d eeeb 67bd
00000370: 414e 0f3e eaf4 6fbd 10b5 97bd ce4e b3bd
00000380: d567 e23c b27e 063e 485c 213c 7dbe 8c3d
00000390: 9898 5cbb c508 f6bd 7880 b13b bd22 9d3c
000003a0: 782a 3a3d 3f88 81bd 4a17 1e3e dcee 123d
000003b0: f4cc b03c fb48 443d 6586 a5bc 29ff 05be
000003c0: 2bd9 00be 9a2f 83bc 5d24 17be fa4e 9f3d
000003d0: bef0 803c cfd0 bd3d 07c7 ea3d afbc 6bbc
000003e0: f4ad 1fbe 1f7e 11bd 05de 27bc 7cb9 0cbe
000003f0: 54f1 14be 0772 f5bb ef18 aabd 11ff 12be
0.043812394 -0.17233361 -0.11421352 -0.077600054 -0.18548617 -0.035594855 0.06310163 0.074260466
-0.017077288 -0.20358253 0.09743264 0.09902069 -0.100092374 0.025704365 -0.043784637 -0.1175178
-0.08764835 -0.120002344 -0.043753773 -0.0057757655 0.002548394 -0.07223654 0.14969808 0.050462466
-0.054643326 -0.0031174135 0.106560566 -0.034933053 -0.07156129 0.020105708 -0.026262062 -0.061541602
-0.10846981 0.075781286 -0.08691582 0.030409575 -0.025433585 -0.04069254 -0.0583821 -0.058265258
0.1423246 0.04928433 -0.021311346 -0.006595123 0.16117854 -0.1262271 -0.0016624767 -0.10376966
-0.099096544 0.07092254 0.041233152 0.006660944 -0.06535262 0.08909967 0.10205137 -0.01621995
0.14305271 0.0003637415 0.0965635 0.015897926 0.14022136 -0.01985365 -0.002856319 0.082226075
0.06054388 0.054645013 0.103494175 0.054405496 0.18128805 0.090507105 -0.0129157 -0.110497095
0.08662057 -0.011652285 -0.034839705 -0.049070742 0.02758153 -0.103881836 0.11255698 0.017831665
-0.014647853 -0.033913255 -0.12954156 0.0806701 0.04936536 0.1357121 0.017136151 0.026924727
0.024672324 -0.0499067 -0.08163665 -0.016231578 -0.041688595 -0.02450641 0.047811605 -0.12655464
-0.17300513 -0.046345837 0.10557844 -0.12343348 0.024962755 -0.16565888 -0.1364222 -0.1360183
-0.047424223 0.14974658 0.05886543 0.13119407 0.079704635 0.027129207 0.046594575 -0.08797333
0.17347857 -0.010963605 -0.08353286 -0.009792527 -0.14132321 0.05350773 0.03749776 -0.040222514
-0.02338228 0.03541554 0.06453355 0.092767045 0.12372418 0.03398981 -0.014653886 -0.189537
0.054533236 0.000111837195 -0.015203235 0.08171868 0.16610959 0.08792445 -0.05795637 -0.06711274
0.044105 0.08803386 -0.07134277 0.14310393 0.066263825 0.08257541 0.0147814965 -0.12192534
-0.0706011 0.031648826 0.047759414 0.15783109 -0.10314038 -0.11625917 -0.026811222 0.15222408
0.107587904 -0.015309341 0.030997714 -0.01534765 -0.029966595 0.032426134 0.11892888 -0.033435434
0.15618703 0.020494528 0.12208741 0.14291376 0.07632809 0.16972145 -0.012914366 0.017175604
0.06904687 0.020675033 0.02724756 0.052850038 -0.057379823 -0.044275917 -0.09467734 0.091721855
0.06800649 -0.040905118 -0.10291852 -0.17896254 0.047198128 -0.06837559 -0.037170302 0.08102308
-0.07193245 0.07801164 -0.025932908 0.06794452 -0.14558977 0.09653519 0.15995434 -0.059644327
0.018379789 0.00083082507 0.079385184 0.1403541 0.053110104 -0.024976732 0.1173754 0.03891946
0.09136804 -0.13011727 -0.14371625 -0.09544761 0.08873996 -0.03994807 0.070376076 -0.11610887
0.06675408 0.049023706 -0.10409325 0.03767879 -0.13409962 0.10399424 0.08201756 0.13618442
-0.107842885 0.09215771 0.083338276 -0.056621484 0.13994695 -0.058583178 -0.07407582 -0.08755265
0.027637402 0.13134268 0.009848662 0.0687227 -0.003366029 -0.120133914 0.005416926 0.019181604
0.045450658 -0.06324815 0.15438572 0.035872325 0.021582104 0.047921162 -0.020205686 -0.13085617
-0.12582843 -0.01601391 -0.14759965 0.077787355 0.015739795 0.09268343 0.11463743 -0.014388247
-0.15593702 -0.03552067 -0.010245805 -0.13742632 -0.14545184 -0.0074903998 -0.08305537 -0.14355113

rnn.weight_hh_l1 f4 [32, 32]
00000000: 2b0e 4fbc ccf1 583d 868c c9bc 57dc 3d3d
00000010: 14fd 133e 095a f1bd c066 72bd 746f a93d
00000020: ff08 a93c 7d0a 74be 297d f8bd 358c 4eba
00000030: d6a5 2bbe c3e9 7f3d 70f9 3f3d 8898 1abd
00000040: 12a0 b2bc 40f1 113d 175e 083e 8d53 183d
00000050: 0097 05bd f54c a9bd 3668 8b3d 8524 373d
00000060: 0c88 ad3d 5391 14bd b5c4 cb3d c451 90bc
00000070: 6314 b53d bf51 043c b277 b2bd b550 a5bd
00000080: 0338 c1bd 44b4 67bd 33c8 72bd e3ad 87ba
00000090: 3e8b 19be d730 dfbd bedf 0dbe f01e 01bc
000000a0: f08d 023e f4c3 62bd 56f0 dcbd 5665 b13d
000000b0: ff56 0ebe 8ea8 3b3e 4d51 a73d a010 2abe
000000c0: aa7f 8a3d 7e80 1c3c f1bd 31be a253 13be
000000d0: da70 ac3d 89df 4b3e fe67 1fbe 8599 073e
000000e0: bcbf 86bd dbab 9ebc 3be1 2a3e 1de8 b63d
000000f0: 959a 1fbd 8a15 b7bd b004 da3b f842 fe3d
00000100: 11b6 f4bd 67bc 853d 2050 313e be94 e83c
00000110: 7020 103d 04c3 713d 5915 a8bd ac5f 463e
00000120: 027c c2bc dbd1 c13d cc1f 213e 0305 893d
00000130: bbe5 abbd 2581 a6bc 4d72 adbc 588b 18be
00000140: 16b8 993d 6c5e 20be 5031 30bd a185 09be
00000150: 708e f83d 2fa9 d8bd f1ce e23d 0feb af3d
00000160: be6b 4cbe 9a9a e7bd f650 bc3d e82f 2abd
00000170: c36d 443c 0736 833d 6f48 1d3e db99 aa3d
00000180: 71ba 94bd 843f 06bc e45b 28be f95d 7a3d
00000190: 03f6 da3d 1d78 3fbe 8e63 cebd 11eb 48bc
000001a0: a58b c13c e48e 3e3c bfd8 90bd e773 4e3e
000001b0: 05a1 b03b 96ca 85bd 1042 5bbe 4864 26bd
000001c0: 5c00 233e 1bb1 4a3e 7045 a03c 8a1a 5f3d
000001d0: e9eb 68bb 6c20 433e 8daa 41bc 51cd 763d
000001e0: 28d0 883e 5f91 26bc 4932 7a3d 72c3 9d3d
000001f0: fc67 93bd ed4b f13d 5251 e53b 297d 0abe
00000200: 7cd3 c63d 675a a43d 89b5 ad3d 6c81 03bb
00000210: 8e07 04be 8c11 ae3d 36d2 043e 08a8 0bbe
00000220: bab8 febd 708a 573e 0232 42be 3b14 2abe
00000230: 0ab3 3ebd ccb3 5d3d deed cb3c b308 073e
00000240: 43d1 3e3e b820 b7bd 5988 693d b919 cbbd
00000250: b291 033c 23bf 633d e15a 373e 0d41 01be
00000260: 8e86 f0bd 147f 69bd 1887 923d 0975 aabd
00000270: 872a 5fbd 18b8 a73c b10d dc3d 55e3 b83d
00000280: 48ee 4b3b d2e7 d93c f426 f93d b8cc e3bd
00000290: be78 373d f274 693e 0947 1e3e 561c 44be
000002a0: 79ad 033c f517 083e aecc 903d abdd a9bc
000002b0: 2ad7 a13d da04 1ebe 166e 36bc dda6 e1bc
000002c0: 45be 943b da34 cabd 2eda 4a3e e23a 693d
000002d0: 14f7 263e 5c66 1ebe 5d67 4e3d 5a70 0bbe
000002e0: b145 25be 27d0 d83c 5dac 30be 59e7 e13c
000002f0: 6603 febd e81b 933d 7772 48be be7f e8bd
00000300: 0761 dd3d ee54 f6bd 7e2b bb3d fd0a 4e3d
00000310: 2d6e 94bd f7e9 f93c de1a 713c ba58 f23d
00000320: d217 6d3c d0d9 ec3d 5799 523d 8fb1 993d
00000330: 48c8 9c3d 694e b1bd 82b4 593d 2121 47be
00000340: 0c7b c9bc bede dbbd 98c6 1c3d 90f7 c6bd
00000350: db5f 023d ce76 9f3d 1916 3cbe 55f1 34bc
00000360: f0e8 4fbd 98d5 c6bd f47b 0b3e 6e84 ddba
00000370: aa70 25be 468a 203e 67b4 443e 52d7 10be
00000380: 246a 7f3b d736 aa3c 8fb9 1ebe d7bc 4fbd
00000390: c89b 773d 33df 2b3e dcbe 98bd b05e 9ebd
000003a0: d5e5 c03c 588b edbd 1335 8ebd 2f04 9a3d
000003b0: 4fc7 2c3e e9b7 1e3d 2cac aabd 211c bdbd
000003c0: dafd 093e 44ec eebd bb37 993b 9b41 94bd
000003d0: 959d eb3d ba41 333d 6abc 503d 7510 0bbe
000003e0: 5256 aa3c 04e6 d23d 5da9 bc3b 6ead 37be
000003f0: 67e6 4fbe e1d0 8b3d 6e6f 993d 761d 92bc
-0.012637655 0.05296497 -0.02460314 0.04635271 0.1445201 -0.11784751 -0.05918002 0.08273211
0.020634172 -0.23832126 -0.121332474 -0.0007879169 -0.1676248 0.062478792 0.04686874 -0.03774312
-0.021804843 0.035630465 0.13317142 0.037189055 -0.032614708 -0.082666315 0.06806986 0.044712562
0.084732145 -0.036271404 0.09949628 -0.017617114 0.08841779 0.00807613 -0.08714236 -0.08072034
-0.094345115 -0.0565684 -0.059272956 -0.0010351505 -0.14994523 -0.10897987 -0.13854882 -0.007880911
0.12749457 -0.055362657 -0.10788028 0.086619064 -0.13900374 0.18326017 0.08169804 -0.16607904
0.06762631 0.009552119 -0.17357613 -0.14387372 0.08419962 0.1990949 -0.15567014 0.13242157
-0.06579539 -0.019369056 0.16687481 0.08930991 -0.03896578 -0.08939655 0.006653391 0.12415117
-0.11948789 0.065300755 0.17315722 0.028391238 0.035187185 0.059023872 -0.08207197 0.19372433
-0.023740772 0.09463855 0.15734786 0.06690409 -0.08393427 -0.020325253 -0.021172667 -0.14896905
0.07505815 -0.15661019 -0.043015778 -0.13429882 0.12136543 -0.10579144 0.11074627 0.08589756
-0.19962975 -0.11308785 0.091951296 -0.041549593 0.01198906 0.06406789 0.15359662 0.08330127
-0.072621234 -0.008193854 -0.16441303 0.061124776 0.10691454 -0.18698163 -0.10077582 -0.012263075
0.023626158 0.0116307475 -0.07072591 0.201614 0.005390289 -0.06532781 -0.2141192 -0.04062298
0.15918106 0.19794123 0.01956436 0.05446867 -0.0035541004 0.19055337 -0.011820448 0.0602544
0.2672131 -0.010166495 0.061083112 0.07703294 -0.07197568 0.1178206 0.0069982195 -0.13524307
0.09708306 0.080250554 0.08481891 -0.0020066155 -0.12893507 0.084994406 0.12970814 -0.13638318
-0.124375775 0.21048903 -0.18964389 -0.1660928 -0.046557464 0.054126546 0.024893697 0.13186912
0.18634515 -0.089417875 0.057014797 -0.099170156 0.008030342 0.055602204 0.17905761 -0.12622471
-0.11744414 -0.057005957 0.07154673 -0.08323104 -0.054483917 0.020473525 0.10744799 0.09027735
0.0031117368 0.026599798 0.12165633 -0.111230314 0.044792883 0.22798517 0.15456785 -0.19151434
0.008036965 0.13290389 0.070702896 -0.020735582 0.079023674 -0.15431538 -0.011134645 -0.027545387
0.0045392835 -0.09873362 0.19809791 0.05694092 0.1630519 -0.15468735 0.050391544 -0.13617077
-0.16139866 0.026466442 -0.17253251 0.027576135 -0.12402992 0.07183057 -0.19574915 -0.1135249
0.10809522 -0.12027918 0.09139155 0.050303448 -0.07247577 0.030507071 0.014715878 0.118333295
0.014471011 0.11564982 0.051415768 0.0750457 0.07655388 -0.08657534 0.05315066 -0.19446231
-0.024594806 -0.10735844 0.03827533 -0.097151875 0.031829696 0.07786332 -0.18367805 -0.011043866
-0.050759256 -0.097087085 0.13621503 -0.0016900429 -0.16156259 0.15677747 0.19209443 -0.14144638
0.0038973177 0.020778103 -0.15500472 -0.0507172 0.0604513 0.16784362 -0.074582785 -0.07732904
0.023547092 -0.11598843 -0.06943717 0.07520329 0.16872905 0.03874961 -0.083336204 -0.09233881
0.13475743 -0.11666158 0.004675833 -0.07239076 0.11504666 0.043763854 0.050960936 -0.13580497
0.020793114 0.10297778 0.0057574944 -0.17937252 -0.20302735 0.0682695 0.07491957 -0.017836314

rnn.bias_ih_l1 f4 [32]
00000000: 41fe e53d 566e 96bd 6fd8 31bd f465 8abd
00000010: 3beb d0bd 7a19 e3bd 0810 fbbc d397 99bd
00000020: 9248 9d3c 066b 10be 5b20 f5bc 6935 b9bd
00000030: 6611 75ba b2e5 86bd c398 25be 0e94 f93d
00000040: c081 993d f814 0fbd 48b7 a1bc bda1 833c
00000050: f022 983d f32b 0f3e 5545 a23c 234b fabd
00000060: 60f8 b33d 09dc 453d b075 16be 9c3c 99bd
00000070: 8fff d63c 60f5 a7bd cfd1 0fbe 4738 ec3d
0.11230136 -0.07345264 -0.043419298 -0.06757727 -0.10201117 -0.11088844 -0.030647293 -0.07499661
0.019199643 -0.14103326 -0.029922655 -0.0904339 -0.0009348601 -0.0658678 -0.16171555 0.12186442
0.07495451 -0.034932107 -0.019740716 0.016068334 0.07428539 0.13981609 0.01980845 -0.122213624
0.08787608 0.048305545 -0.14693332 -0.074822634 0.026244907 -0.082010984 -0.1404488 0.115341716

rnn.bias_hh_l1 f4 [32]
00000000: 7ce1 83bc d243 df3d 90db b4bd 68fe 4ebd
00000010: 1cb7 2abd e59b 243b 2813 c83d c38b 9d3d
00000020: ad33 923d 93bc 753d b976 cb3b d9d7 cd3d
00000030: 490d e83b 5daa b43c e2f6 ea3d cb61 04be
00000040: 3f6e 89bd f46d bebd 8da1 843c 19d7 7a3d
00000050: cab1 ad3d e3d8 56bd bd16 9abd 0fd6 e23d
00000060: bf27 b1bd 7d5d babd e536 d33d ea38 203e
00000070: 4a2a ee3c f5d8 8b3d ffc4 123e 1019 fe3d
-0.01609873 0.109016076 -0.08830941 -0.05053559 -0.041678533 0.0025117334 0.09769279 0.07692673
0.071387626 0.05999429 0.006209221 0.10050935 0.007081662 0.022053892 0.114728704 -0.1292793
-0.06710481 -0.09298316 0.016190315 0.06124029 0.08481176 -0.052452933 -0.07523868 0.11075985
-0.08650159 -0.09099863 0.10313205 0.15646711 0.0290729 0.06828491 0.1433296 0.12407124

rnn.weight_ih_l2 f4 [32, 32]
00000000: 1f38 bbbc aef3 6cbd 5881 523d a7a5 c2bd
00000010: db6b 563b 63da c3bd e835 603e 067a 84bd
00000020: bbcc c83d e25d 3cbd 0dbb a33c 9e58 e73d
00000030: cb19 b53d df62 df3d a478 02be 56c9 57bd
00000040: fea7 d73c 5ea9 063e c4f1 46bd aaa2 083d
00000050: caf2 713d e39e 9d3d 81a3 ab3d 0565 d23c
00000060: 8371 f4bd cb4d 34bd 5791 a93d 90fa f93c
00000070: 348a 6abd ba62 183e af4c 48be bad1 b03d
00000080: 0253 f1bd 7181 12be a18e 1b3d ec8f 18be
00000090: afd9 883d 1b7b 3bbc 1ba7 1bbe 820f fe3d
000000a0: 67d3 aa3c 51f4 41be 4157 283e 3153 75bd
000000b0: ece5 51be e560 413e ae14 46bc 6ec6 a5bc
000000c0: 52c8 3e3a 9897 b93d 9a64 073d 0642 303e
000000d0: fc8e dbbd 1c7b 30bd 45af e03d 5d25 043d
000000e0: f01c aabd 7a7e 4b3c 618a 343e 642f af3d
000000f0: ec7b 47bd a5b3 9c3d 7d34 003e d836 95ba
00000100: 9606 993d 8b9a 603d 5bd7 bbbc 9578 0e3e
00000110: d480 323e 01bf c5bd 52ff a03d e64e f1bd
00000120: e860 44be 3293 fdbb 1ab2 b93c a0d4 45bc
00000130: 398e b33c 36e8 c7bd bf34 65bd 631b 6cbe
00000140: 412e f63a 5bef c9bd f80c 01be 6424 b8bd
00000150: e402 c5bd 676f e43d de41 ba3d be7f 073e
00000160: 56c0 3a3d de99 a43c 50df be3d c445 c0bd
00000170: 8f33 f1bb 84b2 eb3d 2bc3 87bd 916a 513c
00000180: 5b5e 1f3e 62bc babd 299b ee3d 038a bdbd
00000190: 06f8 3f3c 8e72 21be 1f32 bc3d 66a8 a5bd
000001a0: 12a8 1b3d 311e 1cbd 7129 6ebd 7a3b 083e
000001b0: 9d68 213e 3c2d 85bc 5798 4c3e b214 b23c
000001c0: c8a6 193e c692 5b3c 9248 f73c fe74 d2bc
000001d0: 30c4 96bd 3148 d33c 988b 21bd e314 ee3d
000001e0: 473d d8ba 4036 da3d d5ba fa3d cb9b 9e3d
000001f0: 248a 843d a7f4 30be fb07 15bd 176a 2abc
00000200: c9d6 17bd 441e 1ebe c51e 4b3d 39a6 b4bd
00000210: 200a c63d c009 333e 37be e93d b58d 133e
00000220: ac5c c8bc b8fd c0bc 9384 dabd 1b2a c93d
00000230: 39a2 343d 396b 133e 72eb fb3c 369b 153e
00000240: 4159 c7bd 8485 7b3e 0b0f 61bc ea49 003d
00000250: e253 7cbc 3fab 9e3d 4a90 433d 9aad 1d3e
00000260: cc09 e73c bb90 013e 519d 68bd 1ecd e3bc
00000270: 2637 b13d 7e72 443e c8aa e73c baa7 06be
00000280: 549a 9f3d 6692 fabc 7254 a2bd 24d0 12be
00000290: d729 643c e389 e9bd d56a c2bd ec1c 973d
000002a0: c8f9 9bbd ba3c 17bd a7b6 b1bd 2f36 bf3d
000002b0: d178 f53c 708e 163e 3665 8f3d 0c7c f5bd
000002c0: 6aab f73d 3658 19be c48b 0d3e 562c 173e
000002d0: a97c 833d ac92 c3bd beb5 37be 3563 e83d
000002e0: 67c0 823d 3fff 22bd 7df4 e33d 5f00 4c3e
000002f0: 7d3d 083e fe26 bdbd 1b3b b43c 641c bf3d
00000300: ed54 943d 0be7 203e dea9 96bd cbae 903c
00000310: 9672 6f3d fcb5 aebd 19d8 2ebd 12dc a5bc
00000320: cab1 2c3e 5835 a73d 9806 d9bd 343b a3bc
00000330: 2b41 dbbd 5b04 e3bd e406 983d 9a4d 953d
00000340: bb70 833c 9958 13be 143d 40bb a0a2 43bd
00000350: e015 a5bd 7e92 d4bd 3748 d9bb ff9a ddbb
00000360: 6bd4 00be 64ba ea3d fdb6 d53b ffaf 363e
00000370: bf0c c1bb c418 e3bd f9a7 40bd 797f 11be
00000380: 6331 cb3d ef30 4b3d 6b87 3c3d d577 233e
00000390: 1f44 65bd 3493 133d be3b 27be aa51 663d
000003a0: ee8d 133d ed7f ea3d 239b a33d 62e5 6e3d
000003b0: 3cde 933d 1e85 91bc 9f66 f93d 7f09 fd3d
000003c0: 22c5 a7bd 9d04 91bc 563f ebbd 5548 ba3c
000003d0: 073c 123d 024c 613d 6b23 04be 5d88 213e
000003e0: 0376 c0bd 8cc2 1ebd 370b fd3d 9f51 1d3d
000003f0: 946d 363d 4218 eabd 333c c13d f952 aa3d
-0.022853909 -0.05784958 0.051392883 -0.09504252 0.0032718095 -0.09563138 0.21895564 -0.064685866
0.09804674 -0.04598797 0.019986654 0.11296199 0.0884281 0.1090753 -0.12741333 -0.052682243
0.026325222 0.13150546 -0.04857041 0.033358254 0.059069432 0.07696321 0.08380795 0.025682935
-0.11935713 -0.0440195 0.082796745 0.030514985 -0.057260707 0.14881411 -0.19560502 0.08633752
-0.117834106 -0.1430719 0.03797782 -0.14898652 0.06682145 -0.011442925 -0.15200464 0.12405302
0.020852758 -0.18940856 0.16439535 -0.05989379 -0.20497864 0.18884619 -0.012089891 -0.02023622
0.0007277775 0.09062117 0.033054926 0.17212686 -0.107206315 -0.043086156 0.1097093 0.032262195
-0.08306301 0.012420291 0.17630912 0.08553961 -0.048702165 0.07651452 0.12520023 -0.0011384143
0.07471959 0.054834884 -0.022929838 0.13913186 0.17431957 -0.09655572 0.078611985 -0.11782627
-0.19177592 -0.0077384943 0.022667933 -0.0120746195 0.021918403 -0.097610876 -0.055958506 -0.23057322
0.0018782095 -0.098601066 -0.12602603 -0.08991316 -0.09619692 0.11154061 0.090945944 0.13232324
0.045593582 0.0200929 0.09319937 -0.09388307 -0.0073608826 0.115086585 -0.06629022 0.012781755
0.15563338 -0.091179624 0.11650688 -0.09254839 0.011716848 -0.15766355 0.09189247 -0.0808876
0.03800208 -0.03811473 -0.05814499 0.13303939 0.15762563 -0.016256921 0.19979988 0.021738384
0.15005028 0.013401693 0.030185971 -0.025690552 -0.073616385 0.02579126 -0.039439768 0.116250776
-0.0016497754 0.106548786 0.12242667 0.07744559 0.06471661 -0.17280827 -0.036384564 -0.01040127
-0.03707007 -0.15441233 0.04958989 -0.08820767 0.096699 0.17484188 0.11413234 0.14409526
-0.024458252 -0.023558483 -0.10669818 0.09822484 0.04410002 0.14396371 0.030751918 0.1460999
-0.09733821 0.24562651 -0.013736497 0.03132049 -0.015400859 0.07747506 0.047745027 0.15398255
0.028202914 0.12652867 -0.056790654 -0.027807768 0.08653097 0.191843 0.028279677 -0.1314992
0.07793108 -0.030587386 -0.07926263 -0.14337212 0.013925991 -0.11403253 -0.09493033 0.07378563
-0.07616001 -0.036923148 -0.08677416 0.093365066 0.029964836 0.14702773 0.07001726 -0.11986551
0.120932415 -0.14975056 0.13822848 0.14763007 0.064202614 -0.0954946 -0.17940423 0.11347047
0.06384354 -0.039794203 0.11130617 0.19922017 0.13304706 -0.09235953 0.02200084 0.09331587
0.07242761 0.15713136 -0.07356618 0.017661473 0.058458887 -0.085308045 -0.042686556 -0.02024654
0.16864696 0.081644714 -0.10596961 -0.019925691 -0.10705789 -0.11084815 0.07423189 0.07290192
0.016044965 -0.14389266 -0.002933328 -0.047762513 -0.08060813 -0.10379504 -0.006630923 -0.0067628617
-0.12581031 0.114613324 0.006522058 0.17840575 -0.005891412 -0.11088708 -0.04703519 -0.14208783
0.09921529 0.049607214 0.046027582 0.15963681 -0.05597317 0.036029056 -0.16331384 0.056230225
0.036024027 0.11450181 0.07988574 0.058324225 0.07220122 -0.01776367 0.121777765 0.12355327
-0.08191897 -0.017702395 -0.1148669 0.022739569 0.035701778 0.055004127 -0.12904136 0.15774675
-0.09397509 -0.038759753 0.12355655 0.038407918 0.044538096 -0.11430408 0.0943531 0.08316607

rnn.weight_hh_l2 f4 [32, 32]
00000000: 1b5f 4c3d 70a3 8b3d 6867 aebd 537c 0a3e
00000010: 0cdb b5bd 5e87 013d 8b8a 03be f577 133d
00000020: 48c1 c63d 34bf f03d 06f7 de3d 915d 933c
00000030: 56fd 2c3d c6e2 083e 669b ca3d 71e0 e43d
00000040: 1d05 133e 0b79 543d aa7d 133d 52c0 c83c
00000050: d131 d33d d84e dd3c e61d 14be 0e73 cdbd
00000060: 2538 363e 56eb 4abd 5c93 233d aa78 d0bd
00000070: 0e38 0f3c 5845 b53c b768 013e e911 aebd
00000080: ae9a ffbc 1813 223e 548a 7a3d 2110 4f3e
00000090: 67be 82bd 3ae2 60bd 6183 07be 4dc6 d33d
000000a0: 908c c6bd 1afb 013e 90a4 f63d 0da1 eb3d
000000b0: 2734 bbbd 840f 22bd 7c51 67be 6c32 043e
000000c0: 4505 f13c 9775 93bd bc97 b83d b2d3 9fbc
000000d0: a038 9dbc 18c3 ab3d 7a52 fd3d 4a1e 48be
000000e0: d2aa cabc 53f0 6f3d 1616 5e3d 9726 15be
000000f0: 1d00 05bc 5850 09be 8165 7dbd e199 bc3d
00000100: ae42 b5bc 6aa0 993e fee2 09bc 2f88 b03d
00000110: fc4a d9bd ad00 9f3d 046c f4bd f5c4 d2bd
00000120: b2c9 7cb9 07a9 6e3e 1ba9 d6bd 81f6 a7bd
00000130: c947 da3d d590 9bbe ea5e d73d 62ab 29bd
00000140: 85c0 973c f182 d8bd 1577 21be 5e5c 99bc
00000150: 566b e33d dcf1 40be ca35 d1bd ae85 b0ba
00000160: ee73 b33d 0ff5 d03d 5732 c8bb ad8c 153e
00000170: af16 b2bd 9f5e 2dbe 7a48 0ebe aa14 a43b
00000180: 4118 133e eab8 dfbc d090 413d 81c9 f5bd
00000190: 6c7d 14bd d670 dabc 70d8 b93d 29e3 8d3d
000001a0: 121e 19be 015e 903d bd0a 593d b988 1ebe
000001b0: cbfb 12be 4f51 10be 042c 8c3d 317c 30be
000001c0: 404e 4a3d f1e9 36be 5bae c23d 9caa a1bd
000001d0: db76 6fbd 29b2 0bbe a1d5 273e ab6d 62bd
000001e0: 0fbe e1bc 5741 b63d 1d60 063e 0266 15be
000001f0: 7550 683d 238b ec3b 8416 b4bc fad6 643e
00000200: 3f1d 0abd 55d8 1f3d 3ca1 2b3c 0bcb 2e3e
00000210: fda5 55be a9a6 1abe 86f3 09be 72eb b13d
00000220: 5808 993d e4fc c93d a8b3 29be dcb0 c63d
00000230: 2d63 083e 4a9f 873d 163f 10bd 687f b13c
00000240: 0051 493d dbb8 293e 12fa 03bd 0138 7abe
00000250: 5287 613d 47c6 e0bd 3048 2f3d 98fa a7bd
00000260: 17c1 a63d 2e4e 3a3e cf5a 263c f4b7 c63d
00000270: 8263 3abe 0f3b e53d 473e e63d 9bd5 283b
00000280: 2baf b1bd 5c07 a13b e9fc 263c 33ad 083c
00000290: 92ed debd 1fc2 be3d 371b dcbc dfbb f43c
000002a0: 595f 903c 6f73 07be 4e99 5abd a84b 0d3e
000002b0: 2fa0 293e f93f 6d3c 42de cb3d 1e21 fd3d
000002c0: ee80 7fbc 5236 4a3c 9aa4 d4bd a188 33bd
000002d0: 37fb f2bd 74d2 c33c f952 073d 39ac 133e
000002e0: 65b4 223e cf5a 033d e174 263e 3bb5 08bd
000002f0: 12ae 97bd 0a0e d43d 741a fcbb fc1b 27be
00000300: 9ae3 04be 1851 50be 89e1 f73d a0ed 043c
00000310: c03f 0cbe c08a 2dbe adae 03bd fc02 fbbc
00000320: ac46 a53d dc97 1cbe 7832 083e 016d 1b3e
00000330: b058 50bb a464 eebd ee0a 203e 853f a0bb
00000340: aa8d 0f3c 4cd6 ab3d a436 3a3e 58cf f1bd
00000350: 3d58 f0bc 7ff0 ad3d 7c85 0d3e c847 ec3d
00000360: 46d8 49be bd63 213e c306 473d 817d 0ebb
00000370: 5c26 0bbe e6a0 98bc 1e97 243e 010e 9b3d
00000380: dc2b 843d 6444 d63d e1cc 1d3e a379 283e
00000390: 358b 9cbd ea5b 40be e70e f0bd 4736 47bd
000003a0: 47f3 ea3d 4d62 48be 75fa db3d b217 87bc
000003b0: 1716 163e 1bcc 88bd 93f2 403c 549a 983d
000003c0: 865e c33d c02b 33bd cf6b 9cbd 9c60 073e
000003d0: ed9a 87bd f7e6 343e ca0a 183e d57c 9f3d
000003e0: e784 80bd 717c 04be c2de 19be f7ab b0bd
000003f0: 4251 b13d ed23 633d d753 f3bd 2703 dbbd
0.049895387 0.068182826 -0.08515817 0.13523988 -0.088796705 0.031623237 -0.12845819 0.03600307
0.09704834 0.11755219 0.1088696 0.017988952 0.042233787 0.13367757 0.09892921 0.11175621
0.1435742 0.051873248 0.036008514 0.024505768 0.10312236 0.027015135 -0.1446453 -0.100317106
0.17794855 -0.04954084 0.039935455 -0.10179265 0.008741392 0.022127792 0.12637602 -0.0849951
-0.031201687 0.15827596 0.061167076 0.20220996 -0.063839726 -0.054903246 -0.13233711 0.10340557
-0.09694779 0.12693444 0.120431066 0.115053274 -0.09140807 -0.039565578 -0.22589678 0.1290986
0.029421458 -0.07200163 0.09013316 -0.019510124 -0.01919204 0.083868206 0.12369247 -0.19542804
-0.024739657 0.0585788 0.05422028 -0.14565502 -0.008117703 -0.13409555 -0.06186438 0.092090376
-0.022126522 0.300052 -0.008415936 0.08619725 -0.10610005 0.07763801 -0.11934665 -0.10291473
-0.0002410773 0.23306666 -0.10481473 -0.08201314 0.10658223 -0.30383936 0.1051615 -0.04142321
0.018524418 -0.1057185 -0.15768082 -0.018720802 0.11104457 -0.18842262 -0.102153376 -0.0013467574
0.08762346 0.10202991 -0.0061095166 0.14604445 -0.08695733 -0.16930626 -0.13894835 0.005007346
0.14364721 -0.027309854 0.047257245 -0.120013244 -0.036252424 -0.026665132 0.09074485 0.06928093
-0.14952877 0.0704918 0.052988756 -0.15481843 -0.14353864 -0.14093517 0.06844333 -0.17234875
0.04939103 -0.17862679 0.09505912 -0.07893869 -0.05846296 -0.13642181 0.16390087 -0.05528037
-0.027556447 0.08899181 0.13122602 -0.14589694 0.056717355 0.007218735 -0.021983393 0.22347632
-0.033719297 0.03902467 0.010475453 0.17069642 -0.20864101 -0.15102638 -0.13471803 0.08687486
0.074722946 0.09862688 -0.1657244 0.09701702 0.13319083 0.06622179 -0.035216413 0.021667197
0.049149513 0.16574423 -0.032220908 -0.24435426 0.055060692 -0.109753184 0.042793453 -0.08202094
0.08142298 0.18193886 0.010153486 0.09703055 -0.18202022 0.11192905 0.11242347 0.0025762084
-0.08675989 0.0049142074 0.010192134 0.008342075 -0.10885157 0.093143694 -0.026868446 0.02987474
0.01762359 -0.13227628 -0.05336886 0.13798392 0.16565011 0.014480584 0.09954502 0.12359832
-0.015594704 0.0123420525 -0.10382958 -0.04383147 -0.11864322 0.023904063 0.033038113 0.14421166
0.15889128 0.032069024 0.16255523 -0.03337596 -0.07406248 0.1035424 -0.007693583 -0.16319269
-0.12977448 -0.20343435 0.12103564 0.008113295 -0.13696194 -0.1694746 -0.032149006 -0.030641071
0.0807012 -0.15292305 0.13300502 0.151783 -0.0031791143 -0.116402894 0.1562917 -0.0048903846
0.008761803 0.08390483 0.18184906 -0.11807126 -0.02933895 0.084931366 0.13820451 0.11537129
-0.19711408 0.15760703 0.048590433 -0.0021742287 -0.13588852 -0.01863141 0.16073272 0.075710304
0.06453678 0.10462263 0.15410186 0.1645265 -0.07643739 -0.18785062 -0.117215924 -0.048635747
0.11472183 -0.19568749 0.1074113 -0.016490791 0.14656864 -0.06679555 0.011776584 0.07451311
0.09539513 -0.043742895 -0.0763775 0.13220447 -0.066213466 0.17666231 0.14847866 0.07787482
-0.06275349 -0.12938096 -0.15026382 -0.0862655 0.08658077 0.055454183 -0.118812256 -0.10693961

rnn.bias_ih_l2 f4 [32]
00000000: f07d 09be 06da 883c fb0a 363d 989e f6bc
00000010: 3393 893d aa38 e8bd df5d f1bd 3702 28bd
00000020: 8614 b2bd 8bd8 083e b343 973d a0c2 a3bd
00000030: 8cf4 ef3d 872a b7bd 6766 c63d 0730 e8bd
00000040: 41df dc3d 860a 4ebd a3a5 f23d 0d54 953c
00000050: 4344 6e3c 647e 263d 8fc1 223e a9d7 08bd
00000060: 728c 8bbc a679 b2bd dee4 083e e979 f6bb
00000070: 0046 8fbd 49d4 92bc 221c 193c 921d fe3c
-0.13426948 0.016705524 0.044444066 -0.03010492 0.06717529 -0.11338933 -0.117854826 -0.041017737
-0.08695321 0.13363855 0.073859595 -0.07996106 0.117165655 -0.08943658 0.096875004 -0.113372855
0.1078477 -0.050303005 0.11847999 0.018228555 0.014542642 0.04064788 0.15894149 -0.033408795
-0.017034743 -0.08714609 0.13368556 -0.007521857 -0.06995773 -0.017923491 0.009345086 0.03101996

rnn.bias_hh_l2 f4 [32]
00000000: 4056 de3d 1f1a 7f3c 94ed f23d 9ac7 a8bd
00000010: f04e b03d 670f 803d b54c 8fbd 95af 0c3c
00000020: 81b9 eb3c 3b0f 9fbd a74e 813d 8377 01bd
00000030: d55f a13d 1530 debc 5f06 f93d ffb4 9ebc
00000040: 712d 22bc b88e 3ebc 7753 6bbd 1de6 65bd
00000050: acf2 c43c 91e2 4a3c 5387 21be 4178 333d
00000060: 4730 0bbe 2ba9 a33d a630 f0bd 53fe b0bd
00000070: 5d5a d7bb 01c0 e83c 2407 07bd 5519 04bd
0.10856295 0.015570193 0.11861721 -0.08241196 0.08608806 0.06252938 -0.069970526 0.008586784
0.028774979 -0.07766577 0.0631383 -0.031608116 0.07879607 -0.027122537 0.12159418 -0.019373415
-0.009898529 -0.0116307065 -0.057452645 -0.056127656 0.024041496 0.012383119 -0.15774278 0.043815855
-0.13592635 0.079912506 -0.11728029 -0.086422585 -0.0065720514 0.028411867 -0.032965794 -0.03225072

rnn.weight_ih_l3 f4 [32, 32]
00000000: 8b4a f1bd 8de8 8c3c d1c5 2f3d 4aa3 b7bd
00000010: 4a7e eabd 0e39 1dbe 3a93 d1bd a41a 053e
00000020: 198f 57bd fa6d 0c3d 3833 013d aaa2 e53c
00000030: ba80 b83d 0e5f a23d 3f0a a5bd 7b48 78bd
00000040: f954 94bc 9967 ba3b 5ec0 c43c efe1 ebbc
00000050: 8bcb d7bd c5e5 0ebe 4052 0fbd cb82 1dbd
00000060: 6d91 273e 52e8 d0bc 33ca b63d c13a de3d
00000070: dd58 3dbe f76d b43d c1ac fcbc 332a fe3d
00000080: d091 363c bfda a2bd 3644 17be 5738 373d
00000090: e50a 12be 55b8 bfbb 2f26 6dbd e210 2bbe
000000a0: 950e 5bbd 3a49 d13b 81b4 97bd c595 733a
000000b0: 8027 d3bd 0c6f 86be 70b5 c7bd e576 2cbd
000000c0: e199 40be fcaa 45bd 8da1 243d 8f56 efbd
000000d0: 2f29 083e 7b20 983d fb11 9dbc 2e38 fe3d
000000e0: 2a48 b4bd 43f6 0bbe fdfb c8bd dad4 a1bd
000000f0: 78af 71bd 1167 fdbd d900 82bd 8773 cf3a
00000100: 96e3 493d 2e06 33bc 20ed 2b3e e978 9f3d
00000110: 3036 1fbd d94e f9bd 90d4 95bd 1bc4 5d3d
00000120: 8e5b 9abd 3756 ebbd 9303 b8bd a1a5 b23c
00000130: 4b09 90bd 7798 0c3c 021f 44be 65a5 ccbb
00000140: baff 56be c1b9 a9bd d004 b93d 9107 433e
00000150: 77a7 523d 44b8 32be 699b 2cbe 120a 203e
00000160: 1466 f13d 990a e5bb c889 04be de9d 1e3e
00000170: 4845 46bd 4137 34be bdcb d73c e115 15be
00000180: 06dc 023e ca3e fcbb 84e6 ecbd f6e8 02bd
00000190: c0ce 2d3e a482 94bc 583a 1ebd 36d9 413e
000001a0: 8e5c d43d 24df 0d3c 2174 183e 20ae 973d
000001b0: bd33 23bc ca24 04bb 8a9c 97bc 22da dc3d
000001c0: 2481 44bd b873 523e 62e7 ddbd 131b a0bc
000001d0: 7ec8 3bbd 297b 6bbd d591 fb3d 6b2a 2e3c
000001e0: 1c5a a7bc 8059 163d f974 5b3b 1501 cdbd
000001f0: 1b3b a0bd 207b d43d 2b72 68be fe31 67bc
00000200: bd0f 82bd bda5 3abe b82a 853d c536 113e
00000210: 2035 073e 5331 c93d d7b2 bf3d acb0 ce3d
00000220: acd2 68bc 13b6 033e eec7 81bd 8327 46bd
00000230: 38fa ba3d 8f86 d3bd 85d6 4abd 36ef 05bc
00000240: 3f3f 9ebd fa02 f1bd 3a20 42bd 9780 e63c
00000250: 2987 2e3d ce4c a23d 6ce7 103e 58dc 223e
00000260: 7f8f fbbd 91d3 213e b2ad 1c3d 7808 c4bd
00000270: 1129 1ebe fe8e 0cbe c595 38bc 3fc8 27be
00000280: 83c0 e03c 85f0 0cbe 3bf8 6e3c ed86 b63d
00000290: 4773 443d e912 a4bd f62a 823d d897 47bd
000002a0: f41f aebc 2ed7 f23c 3f31 7abc ea57 1f3e
000002b0: c669 233d 440e ecbb 96ac 0c3e 6cb5 0cbe
000002c0: 51d7 d53d 5c8f 083e 2c32 023e 188b ee3d
000002d0: a4fa 82bb e8d0 b7bd 2dcd d8bc 5302 43be
000002e0: 5c6b e73c 2208 9a3c 53d2 e1bb 48d4 0a3e
000002f0: 792f e43d 0d1e 443d a19f 00be b782 bbbb
00000300: 05d0 523d 2f64 98bd 996e 3dbc 99dd c33d
00000310: 85f1 913d 4cc7 97bd afb1 c53d 54fd d7bd
00000320: 1b73 ba3c ec49 df3d 78e7 e33d 871c ed3c
00000330: 7e0f 1abe e7b5 133e 3305 f7bd d0c4 dabb
00000340: ade7 afbb a7cb a1ba 6289 323d 2b08 f2bd
00000350: 7395 473c 02d0 533d 5306 b13c 309f e53c
00000360: fefc 7ebd d24d e1bd 0539 083e 1085 803d
00000370: fca7 efbd 5b93 32be 58dd 78be 38a7 1cbe
00000380: f6c7 0a3e 3056 02be d45f de3d 7673 07be
00000390: 5c47 013e bfe3 67bd 2da5 21be 3498 f03d
000003a0: 553b 2c3d 6b36 cf3b 55fa 0f3c 3f60 a9bd
000003b0: 0b35 003e 4065 74bc 554a 0fbe cf9f e23c
000003c0: 7f96 35be 98a2 fa3d c03e 01be 2fed bc3d
000003d0: 001c df3c a8ed a7bd 171e 063d 3f40 bc3d
000003e0: 8ed4 f43d a254 0dbe a5ee 403e ed70 03be
000003f0: 2f9e 3b3e f0ea b6bd 6d91 bdbd aa8c 97bd
-0.11781796 0.017200733 0.04291326 -0.08966692 -0.11449869 -0.15353796 -0.10233159 0.12998444
-0.052626703 0.03428457 0.031542987 0.028031666 0.09008928 0.079282865 -0.08058595 -0.060615998
-0.018106924 0.0056886193 0.02401751 -0.028794257 -0.105368696 -0.13954838 -0.03499055 -0.038454812
0.1636407 -0.025501404 0.08925285 0.1085105 -0.1849093 0.08810037 -0.030844094 0.124103926
0.011143163 -0.07951879 -0.14772114 0.044731464 -0.14261968 -0.0058508315 -0.057897743 -0.16705659
-0.053480703 0.006386903 -0.07407475 0.0009292032 -0.103102684 -0.26256597 -0.09751403 -0.042105574
-0.188087 -0.048258767 0.04019313 -0.116864316 0.1329696 0.0742807 -0.019173613 0.12413059
-0.08802827 -0.1366816 -0.09813688 -0.07901926 -0.05900523 -0.12373174 -0.06347818 0.0015827277
0.04928931 -0.010926766 0.16789675 0.07786734 -0.038870037 -0.12173242 -0.07315934 0.0541421
-0.07536994 -0.114910536 -0.08985057 0.021807494 -0.070330225 0.008581272 -0.19152454 -0.0062453025
-0.2099599 -0.08287383 0.09034121 0.19045855 0.05142924 -0.17453104 -0.1685616 0.15628842
0.11787048 -0.0069897887 -0.12943184 0.15489909 -0.048405915 -0.17599203 0.026342267 -0.14559127
0.12779245 -0.0076979147 -0.11567405 -0.03196045 0.169734 -0.0181287 -0.03862986 0.18930516
0.10369216 0.008659158 0.1488805 0.074062586 -0.009961066 -0.002016353 -0.01850726 0.10783793
-0.04797472 0.20551956 -0.108351484 -0.01954416 -0.0458455 -0.0574905 0.12283675 0.01063023
-0.02042871 0.036706448 0.003348647 -0.10009972 -0.078237735 0.10375047 -0.22699802 -0.01411104
-0.06350658 -0.18227287 0.065022886 0.14181049 0.1320386 0.09823861 0.09360283 0.10092291
-0.014210384 0.12862425 -0.06336962 -0.048377525 0.09129757 -0.103283994 -0.049520988 -0.008174708
-0.07726907 -0.11768146 -0.047394015 0.028137488 0.042609368 0.079248056 0.1415078 0.15904367
-0.12283229 0.15803362 0.038251586 -0.09571928 -0.15445353 -0.13726422 -0.011266177 -0.16384982
0.027435547 -0.13763626 0.01458555 0.08912454 0.0479615 -0.08011419 0.063558504 -0.048728794
-0.02125547 0.029643621 -0.01527053 0.1556088 0.039895795 -0.007203849 0.13737711 -0.13741082
0.10441459 0.13335937 0.12714452 0.11647624 -0.003997164 -0.089753926 -0.026465023 -0.19043855
0.028249435 0.018802706 -0.0068915277 0.13557541 0.11141867 0.04788022 -0.12560894 -0.0057223695
0.051467914 -0.074409835 -0.011562013 0.09563751 0.07126144 -0.0741106 0.09653031 -0.105463654
0.022759965 0.10902771 0.111281335 0.028944267 -0.15044972 0.14424859 -0.120615385 -0.006676294
-0.005368194 -0.0012344018 0.04358805 -0.11817964 0.012181628 0.051712044 0.021609461 0.028030008
-0.06225299 -0.11001171 0.13303001 0.0627538 -0.11701962 -0.17439024 -0.24303186 -0.15298164
0.13552842 -0.1272819 0.108581215 -0.13227639 0.12624878 -0.05661368 -0.15785666 0.117477804
0.04204877 0.006323626 0.008787711 -0.082703106 0.12520234 -0.014916718 -0.13993199 0.027664093
-0.17733191 0.122380435 -0.12621593 0.09224927 0.027235031 -0.08199626 0.03274354 0.091919415
0.11954604 -0.13801816 0.18841036 -0.12836047 0.18322061 -0.089315295 -0.092562534 -0.073998764
