Supervised/00_exercises/lab_10/lightning_logs/version_5/checkpoints/epoch=19-step=7800.ckpt (torch, 582846 bytes, 246 tensors)

rnn.weight_ih_l0 f4 [32, 10]
00000000: b209 8e3d d19a bdbd bdd3 ec3c dd3a c8bd
00000010: bdd5 013d 7466 373d 746c a33d 6f37 f73b
00000020: bad3 d83c 78e1 8abb 7159 c3bd c014 c1bb
00000030: e7c6 11bd 0455 993c 8c37 0cbe 87cc c7bc
00000040: 4a23 e3bb 3ba2 2abe cded 77bd 4af9 a0bd
00000050: 1200 b23c c757 c2bc afcc 8abd b148 1dbd
00000060: 137b debd 1b1d 573c bbaa b4bb 8810 e2bd
00000070: bc42 9a3d 13bf dc3d 782d b43d 2a6e 9a3c
00000080: db49 64bd 6ae1 303e a608 483e 7173 1c3e
00000090: eb55 29be 4c02 e93d 25ef 27be 7da2 b03d
000000a0: 4294 453e cee4 32be 4dd1 1b3e 987f 94bc
000000b0: 1222 e43c 1537 31bd c2f2 65bd 0eec f33d
000000c0: 107c eebc 3a9a 21be a14b 18bc 60f6 c53d
000000d0: d594 b83d 3178 353d b5a7 5f3d 36c1 d3bc
000000e0: adf4 aabd 6cf4 d2bc e7c1 5bbb 58b6 263d
000000f0: e854 a0bc 80f4 10bd 72de b3bd 94f6 05bd
00000100: fd4b eabc a0ec de3c 2b3a c23d c4d6 a2bd
00000110: 05e5 153e cd81 17be 7511 0cbd 03c4 233e
00000120: 2727 623d 8635 f53c 8470 383e d905 59bc
00000130: 711c 7abd 027e bb3c 684b cd3d c0e5 083e
00000140: 9384 6a3c 9fd9 d13d 2642 b43d 372d 74bc
00000150: 411e 133e e209 6abd d397 c7bd 7b89 cbbc
00000160: fcd9 97bd 0e6f 8c3d 3fe5 e73e 666f e1be
00000170: 3524 f53e 3197 02bf 8ef5 02bf 6404 fcbe
00000180: 665b b43e e2f0 e33e b934 d83e 52bb e3be
00000190: 43dd c839 37d1 01be 8122 e1ba bc69 12be
000001a0: 389e 00be 6b74 14bd 32f8 dd3d 65b6 2a3d
000001b0: 11d1 69bd 675c ffbd c381 2abe 037c 8bbc
000001c0: 945d 473d b897 faba da32 2f3e 077e d8bd
000001d0: 77db dcbd b166 35be e6d5 39be 01f5 44bd
000001e0: 93c6 273e 9c68 39be 8fec 593d 1955 713d
000001f0: e9d3 ecbd 3d3c d53c 50e3 52bd 7e8d bc3d
00000200: ada7 0f3e dc9f 02bc a02e b9bd 6f83 343e
00000210: 15e4 3fbe dfa0 7c3e c1dd 5a3e 61d5 443e
00000220: c463 95bd 1343 733c 93ab 07be 7a77 383e
00000230: a7fd edbd 0ed5 813e 7549 b3bd 75ce 9a3e
00000240: 5de3 623e 2aa4 433e 71f6 0abe fe76 c1bd
00000250: c927 cdbd ba2d 603e da8c 41bb 9d8e 1b3e
00000260: 6715 12be 31b1 fa3c b838 543e def4 c73d
00000270: 75d5 323c 97d1 4fbc 720c 12be 88a2 2b3e
00000280: de3d 83bd e61a 013e 5475 5c3b 0ccc 3d3e
00000290: 9702 c23d b6ed 59bc 7dcf bc3c 2b38 84bd
000002a0: cafe 15be f281 853d 23e1 a23e 3719 40be
000002b0: 0334 903e ba7e 95be 7fed 92be a7fb 33be
000002c0: e637 ba3e 3e03 ca3e 0475 b33e 313f 43be
000002d0: 9bdc 28be 4be6 1d3e 6b97 dabd c280 2b3e
000002e0: 17f5 553e c9ba 883e 51a0 90be bf89 12be
000002f0: 2a12 49be 334f 2b3e de01 02be aa20 0c3e
00000300: 45e0 17be cde2 553d b728 0a3e ff90 533e
00000310: fe6f 22be 736b 93bd 0fab e7bd 7bf3 3c3e
00000320: 5b98 c3bd a09a 99bd b20b db3a 196c efbd
00000330: e031 e43d 4b14 403c 6e28 c3bd 8974 c5bd
00000340: 3d4c a63c 35a6 6ebd fc61 923e 3dde debe
00000350: bccf 573e a8ce c7be b91f b5be 8da2 ccbe
00000360: c78b 923e fa8a 9b3e ba9d a43e 507a d1be
00000370: 5b7a 6dbc ba46 d93d 748e 4abe c8ad 363e
00000380: ab66 693e d76b 413e 55fb 38be b240 79be
00000390: 414f 41bd dca0 7e3e d122 273e e7b1 b83c
000003a0: ca78 8fbd 1f83 803d c062 e1bd 9222 7ebc
000003b0: d3ae d23d 1827 b23d e44f 063e 0646 5dbc
000003c0: b77c 573d f3d0 69be 32e2 ea3d 2580 9fbd
000003d0: ee1c 18be e892 68be 5b14 713e d1bc 053e
000003e0: a575 5b3e 1f6f 0dbd cf12 2abc 538a 20bd
000003f0: 897d 15be 9e02 d03c 982b 4bbd 1542 343e
0.06935443 -0.092580445 0.028909558 -0.09776852 0.031697977 0.04477544 0.0797967 0.00754445
0.026468147 -0.0042383038 -0.09538544 -0.005892366 -0.03559008 0.018717296 -0.13693064 -0.024389518
-0.006931697 -0.16663449 -0.06052952 -0.07860048 0.02172855 -0.023723496 -0.067773215 -0.038399402
-0.10863318 0.013129498 -0.0055135167 -0.11038309 0.0753226 0.10778632 0.08797735 0.018851358
-0.055734497 0.17273489 0.19534549 0.15278412 -0.16536681 0.11377391 -0.1639982 0.08624742
0.19294837 -0.17470095 0.1521656 -0.018127248 0.027848277 -0.04326542 -0.056139715 0.11910258
-0.029111892 -0.15781489 -0.009295375 0.09666133 0.090127625 0.044304077 0.054603297 -0.025848966
-0.083474495 -0.025751315 -0.0033532323 0.04070124 -0.019571736 -0.035389423 -0.087826625 -0.03270586
-0.028600687 0.027212441 0.09483751 -0.079511195 0.14638145 -0.14795609 -0.034196336 0.15992741
0.05521312 0.029932749 0.18011671 -0.013246023 -0.06106228 0.022887234 0.10024148 0.13368893
0.014313835 0.10246586 0.08801679 -0.014903358 0.1436701 -0.05713833 -0.09745755 -0.02484583
-0.07414624 0.068571195 0.45292088 -0.44030303 0.47879186 -0.5101195 -0.51155937 -0.492221
0.3522598 0.44519717 0.42227724 -0.44478852 0.00038311825 -0.12677465 -0.0017176421 -0.14298147
-0.12560356 -0.036243837 0.10838355 0.04167785 -0.057084147 -0.12468796 -0.16651063 -0.017026907
0.048673227 -0.0019118702 0.17109242 -0.10570913 -0.10784047 -0.17714955 -0.18148002 -0.048085216
0.16384344 -0.18106312 0.053204115 0.058919046 -0.11563856 0.0260297 -0.051486313 0.09206675
0.14028807 -0.007972684 -0.09042096 0.17628263 -0.1873935 0.24670742 0.21373655 0.19222023
-0.072944194 0.014847535 -0.13249044 0.18014327 -0.11620646 0.2535786 -0.08754245 0.3023564
0.22157045 0.19105592 -0.13570572 -0.09446524 -0.10017354 0.21892443 -0.0029533417 0.15191121
-0.14265977 0.03060207 0.20724761 0.097635016 0.01091515 -0.012684247 -0.1426256 0.1676122
-0.064082846 0.12607917 0.003363927 0.18534869 0.0947315 -0.013301304 0.023048157 -0.06456026
-0.14647976 0.06518926 0.3181239 -0.18759619 0.28164682 -0.29198247 -0.2869682 -0.17576467
0.36370772 0.394556 0.35050213 -0.19067074 -0.16490404 0.15419881 -0.10673412 0.16748336
0.20894276 0.26705006 -0.28247312 -0.14310358 -0.19635835 0.16729431 -0.12696025 0.13684335
-0.14831646 0.052218247 0.13492094 0.2066078 -0.15863034 -0.07198229 -0.11311924 0.18452255
-0.09550544 -0.075001955 0.001671186 -0.1169054 0.111423254 0.011723588 -0.09529196 -0.09641368
0.020300025 -0.058263976 0.2859038 -0.4352893 0.21075338 -0.39024854 -0.35375765 -0.39967766
0.28622267 0.30379468 0.32151586 -0.4091363 -0.014494504 0.10609193 -0.19780904 0.1783973
0.22793071 0.18888794 -0.18064626 -0.24341086 -0.047194723 0.2486605 0.16321875 0.022545768
-0.070054606 0.06275009 -0.11005163 -0.015511172 0.10287251 0.08698863 0.13116413 -0.013505464
0.05260917 -0.22833614 0.114689246 -0.077881135 -0.14854786 -0.2271229 0.23542921 0.13060309
0.21431597 -0.0345298 -0.010380461 -0.039194416 -0.14598669 0.025391873 -0.04960212 0.17603333

rnn.weight_hh_l0 f4 [32, 32]
00000000: d16d 243e db1e 49bc e0a4 073d f42e 173e
00000010: dd15 ebbd 8c58 863d 292f fc3d 0bba e3bd
00000020: f7d1 4ebe 9372 303e 3371 ad3d f175 eb3c
00000030: 8069 2c3c 8685 023e b629 a73c 00f0 ef3d
00000040: b6b0 803c f96f f6bd 821a 39bd f2f6 143e
00000050: 6d69 8d3d 3bd8 4ebe bfcf 923c 0257 dfbd
00000060: eacd e6bd 0768 36be b491 38be 5534 303e
00000070: cea0 4b3e d410 9b3d c0e6 55bd 30b3 28be
00000080: f3de 113e f64c 6dbd da73 973d abc6 953d
00000090: f6b3 74be 8b43 3abd 6a0b 5abd 2cfa c43d
000000a0: 7b27 f9bd 9096 fdbd 872f d53d 49f1 3a3d
000000b0: 554d f13d 7493 2e3e f54a 503e 5e90 633d
000000c0: 5a92 fb3c c42b e8bd 06d2 483e c2c8 84bd
000000d0: b0bf 12be a3f6 973d 27fa 523d d156 bd3d
000000e0: 341a e0bd 3c5d e33d 7598 383d 928f f1bd
000000f0: f5e2 443d f722 abbd 7ef2 f3bd cce8 be3d
00000100: 5e2f c93d aa77 ec3d da62 babd e8b1 5cbd
00000110: b3c4 9f3c 6c33 a83c 73b8 e1bc f757 a73d
00000120: 512c 37be b5dc 283d f0de b03d 16bf 26be
00000130: 58b9 113e 1da3 50be 0175 f13d adfb 31bb
00000140: 5672 64be 10b5 65bc af6c 0f3e 35f0 eabc
00000150: d40e ffbd ebb2 07be 93bb 0e3d 18e9 2dbe
00000160: eb3e febc f135 65bd a8e8 10be 1c17 cebd
00000170: d9f7 253d 7148 3dbd ff37 20be 8b34 1dbe
00000180: 622c 133e 2726 313e 0baf 1fbe be08 bebd
00000190: b4cb 073b b85a 5bbd ac67 383e 931d 16bd
000001a0: 23f1 d93c 3fdc 183c cc2a c7bd 5a8c 27be
000001b0: 2abf 253d be35 8fbd 6c47 01be e44e a83d
000001c0: 0b9f 60be ea0d a03d e2ae ccbc 44bd a13d
000001d0: e7e0 1abe e93b 1e3d 5141 77be 70cd 30be
000001e0: 387d 423e 1b33 b3bc 2727 1ebc 64bc 7cbd
000001f0: 6d22 353d 1cdb ebbc 4955 ecbd 5b47 afbc
00000200: ec87 a2bd 01c7 2dbe 1984 7c3d ba83 523e
00000210: 1554 0fbe 5481 f8bc c863 543d 9a23 273e
00000220: 5ebc 563e 9b2d 99bd 95fc 143e 8bbd 263e
00000230: cecf 5ebe a8e3 f63d e2e8 c0bc 6028 7a3d
00000240: 903c 083d 8670 22bd 6d6f 293e 4953 a03d
00000250: a445 463e 1eac 12be 535c db3d 544c 923d
00000260: db61 c13d fe63 2f3e 087d ef3d f06a 70bb
00000270: 60e4 8d3d cad3 483e aea0 2f3e 1da6 3b3e
00000280: ba0f 943d 5255 8b3d bd2b ddbd caf7 123e
00000290: dbf9 163c 5def aebd a5f8 cb3d 0235 e1bd
000002a0: 54fc a13d c5b6 853b 7aba 06be 2ac6 f13d
000002b0: 24c9 d8bd febe 34bd dc8e 373e 1fd4 983d
000002c0: c15e 143e 88ba bebd fd3a 643d c25e 27be
000002d0: 28da 3b3e a70e 123d eb2a a4bd 5b5d 003e
000002e0: 2374 a0bd 01da 5a3d c709 d6bd 54d2 51be
000002f0: c42e 31be 26e2 15bd 909b 293e ed1a e6bd
00000300: 9f64 dfbd 51e4 ff3d 03b8 283e ce0b 00bd
00000310: 5a74 94bc c00d 3ebe f84f fb3c 9134 b13d
00000320: 0eae 2c3e 87b2 dabd 8f95 f73b f602 d23d
00000330: f33b bfbd 465c 92bc ac4f 413e d8a2 1a3e
00000340: a575 4d3e ff18 52be 4ce8 9d3c c569 353e
00000350: 7fa7 183d 0e40 23bd 6a8d 223e c703 1c3d
00000360: 0342 3bbd 47e1 393e 10b6 c83d 79d1 81be
00000370: 437f 4b3e f458 713e 2ed2 d9ba 5204 033e
00000380: 40d8 a43d f425 c2ba b4a1 133d e889 60ba
00000390: 805c 373e 0638 b539 378a 85bd c92c 3abd
000003a0: e0e6 f53d 9cd6 083e 9e9b 33be 97aa 43be
000003b0: 87a0 44bb 0019 8dbd 2e05 833c e488 07be
000003c0: 03a6 813d 83e7 653c 5922 0dbe 9f1b 94bd
000003d0: da8b 2abe 3e2e 2d3d 7acd e4bd 137a 29be
000003e0: 2fa0 5c3c efc2 dabd 2f63 0c3e d82b 7c3c
000003f0: 519b b43b 3b98 b93d ea45 87bc 8b8c 56be
0.16057517 -0.012275423 0.03311622 0.14764005 -0.114787795 0.06559858 0.123136826 -0.11119469
-0.20197283 0.17231207 0.08468857 0.028742762 0.0105232 0.12746248 0.020405632 0.11715698
0.015709262 -0.12033076 -0.045191295 0.14547327 0.06904874 -0.20199673 0.017921327 -0.10905267
-0.11269744 -0.17813121 -0.18024331 0.17207463 0.19885561 0.07571569 -0.052222013 -0.16474605
0.14245205 -0.057934724 0.07395144 0.073132835 -0.23896775 -0.04547457 -0.05323354 0.09618029
-0.121657334 -0.12382233 0.10409456 0.045640264 0.11782328 0.17048436 0.20341094 0.0555576
0.030709434 -0.11336473 0.19611368 -0.06483604 -0.14330935 0.07420089 0.051508095 0.092450745
-0.10942498 0.111017674 0.04506727 -0.11794962 0.048068006 -0.083562784 -0.11911486 0.09321746
0.09823488 0.115462616 -0.09100886 -0.053880602 0.019502973 0.020532332 -0.027553773 0.08171075
-0.17887999 0.041226108 0.08636272 -0.16283831 0.1423086 -0.20374723 0.11789895 -0.0027158067
-0.2230924 -0.014020219 0.14006303 -0.028678993 -0.12454 -0.13251846 0.034846853 -0.1698345
-0.031035861 -0.055959646 -0.14151251 -0.100630015 0.04051957 -0.046211664 -0.15646361 -0.15352075
0.143724 0.1729971 -0.15594117 -0.09279011 0.0020720782 -0.053553313 0.18008298 -0.036649298
0.02660424 0.0093298545 -0.0972496 -0.16362134 0.04046551 -0.069926724 -0.12624902 0.08218172
-0.2193567 0.07815154 -0.024985734 0.07897428 -0.15124856 0.038631354 -0.2414601 -0.17265868
0.1899308 -0.021874955 -0.009652889 -0.0617031 0.044222284 -0.028791003 -0.11539704 -0.02139633
-0.07936081 -0.16970445 0.061649416 0.20558062 -0.13996918 -0.030335106 0.05185297 0.16322175
0.20970294 -0.07479402 0.14549477 0.16283242 -0.21758959 0.12055141 -0.023548547 0.06107366
0.033260882 -0.039658092 0.16546412 0.078283854 0.19362503 -0.1432347 0.10710969 0.07143465
0.094424926 0.17127988 0.1169377 -0.0036684833 0.06928325 0.19612041 0.17151138 0.18325086
0.07229562 0.06803383 -0.10799358 0.14352337 0.009214844 -0.08541749 0.099595346 -0.109964386
0.07909456 0.0040806257 -0.13157073 0.11805375 -0.105852395 -0.044127457 0.1792559 0.07462334
0.14489271 -0.09312922 0.055720318 -0.16344741 0.18344939 0.035658505 -0.080159985 0.12535612
-0.07834651 0.05343056 -0.10451084 -0.2049039 -0.17302996 -0.036592625 0.16563249 -0.112356044
-0.10907864 0.1249472 0.16476445 -0.031261258 -0.018121887 -0.18559933 0.03067778 0.08652604
0.16863272 -0.10678583 0.0075556706 0.10254471 -0.09337606 -0.017866265 0.18878049 0.15101182
0.20064409 -0.20517348 0.019275807 0.17716129 0.03726911 -0.03985601 0.15874258 0.03808954
-0.04571725 0.18152343 0.09800351 -0.25355127 0.19872765 0.23569089 -0.0016618425 0.12794617
0.08049059 -0.0014812336 0.036042884 -0.00085654715 0.1790638 0.0003456475 -0.06520503 -0.045452867
0.120069265 0.13363117 -0.17539832 -0.19108044 -0.0030002908 -0.06889534 0.01599368 -0.13235813
0.06330492 0.0140322475 -0.13782634 -0.07231831 -0.16654912 0.042280428 -0.11172004 -0.16550474
0.013465925 -0.10681712 0.1370971 0.015391313 0.005511679 0.09062239 -0.01651283 -0.2095205

rnn.bias_ih_l0 f4 [32]
00000000: 4c76 38bd 2d63 e9bc 850d 89bd 5723 fe3d
00000010: 94ab 0abd 5c50 823c 0905 ea3d dacc f73d
00000020: 27eb 18be ceab ac3d 6b00 c1bb 8429 833d
00000030: 7ae8 453d a147 553d 67a8 84bc 22a8 11be
00000040: 2966 453e 08d2 17bc 11d3 cbbc 812d 06be
00000050: 973f 993d a5f3 743d d467 953d 5b23 a5bd
00000060: 4071 d3bd 7c16 debd d71f e33d ac27 253e
00000070: ae62 8a3d 4646 d5bd 04e7 163e 55a6 1fbe
-0.04503469 -0.028489674 -0.06692032 0.12409084 -0.033855036 0.015907459 0.11426742 0.12099619
-0.14933454 0.08431207 -0.0058899424 0.06404403 0.04831741 0.052070264 -0.016193582 -0.14224294
0.19277252 -0.009266384 -0.024880918 -0.13103296 0.07482832 0.05980267 0.07295194 -0.08063384
-0.10324335 -0.10844132 0.11090057 0.16128415 0.06757103 -0.10413794 0.14736563 -0.15590794

rnn.bias_hh_l0 f4 [32]
00000000: bdf6 f73d e1d0 f53d 6300 f6bd 37e3 c9bd
00000010: ed22 bebd 0e6d 24ba 074e ffbd 9a96 05be
00000020: ded7 b7bd 3746 963c 2e1d 0d3e ac15 b8bd
00000030: 1c0c 58bd 3cfb 153e 5baf 30be fa52 0dbe
00000040: 4f96 f5bd aaae 2abd bd87 383b 4584 febd
00000050: 57f8 d73d 94b4 163d 435d 193d ae0f b13d
00000060: c5cd 313d 46db 1ebd 27bf 983c cbe5 c2bb
00000070: e25d e8bd 563d 103e 00f0 283e fd80 ba3d
0.121076085 0.12002731 -0.120117925 -0.09857791 -0.09284005 -0.0006272354 -0.124660544 -0.13045731
-0.0897672 0.018344028 0.13780662 -0.089885086 -0.052745923 0.1464662 -0.17254393 -0.13801184
-0.1199156 -0.04167048 0.0028157078 -0.12427572 0.10545414 0.036793306 0.037442457 0.08645569
0.043409128 -0.038783334 0.018645836 -0.0059478036 -0.11346032 0.14085898 0.16497803 0.09106634

rnn.weight_ih_l1 f4 [32, 32]
00000000: 1955 27bd c331 1e3e 5ee1 01be e544 103e
00000010: 346d a93d 593f c8bd be27 0fbe 1715 e8bd
00000020: 3fbd c8bb a307 0dbf f609 b8bd 1a2d b63d
00000030: 51e0 1dbe 918e 2d3e da9c 673e 0b44 93bd
00000040: 0fe4 12be 3574 b3bd 19bc 94bd 7866 523e
00000050: 5605 1f3b 7496 79be 1034 073d c6f8 23be
00000060: 6f48 6bbd be6e 233b d7ac 283e b4f7 4dbd
00000070: 8585 ac3e b136 d53d 0c2e 2e3d aa45 cd3d
00000080: 090d a2bc 0729 58bd a4e9 5b3e ed43 32bd
00000090: d100 6abc 46c7 523d c8eb 343e 40ab f03b
000000a0: be19 c83d fdc3 a2bd 8f2f 8f3d a53a 963d
000000b0: 7e33 a5bd 4749 83bd 92de 303e 4759 073c
000000c0: 6afc 9cbb 01bf d73d c0ed cebd 9654 85bd
000000d0: 3e52 e8bd 0334 363c da9f 283e 57ac 82bc
000000e0: bcbe 183e b41a 0a3e 0de9 2ebb b682 c2bd
000000f0: 4ff4 7bbd de18 32be faf4 27bd bb34 193e
00000100: 737c 193e fe55 16bd 4c08 2bbe 2c5f 2ebe
00000110: e22e 5bbd ec44 e13d 685d 2bbe 313c e93d
00000120: 5a1d 4abe 2c95 46be f4dd 9f37 4ca5 cabd
00000130: 0bd3 89bd e64e 0ebe 3bb4 b2bc 698a 573d
00000140: 0e94 7dbd 01a7 fcbd 4a1b bfbd 1567 e63d
00000150: 9e1e 103c f893 703c 15ac 153e af25 943d
00000160: 8055 163e dab1 77be 2ded d3bd 5db8 313e
00000170: 910d 42bd 534d e1bd 50eb 1f3e dbf0 f4bc
00000180: c907 2bbd c3c0 1b3e fa94 d8bd 8c90 39be
00000190: a283 d1bd 18c9 e8bd 86ce 13be fe6d 4cbe
000001a0: 0432 c63d 8c95 4ebe 97ac 0abe fb5c be3d
000001b0: 38a4 923d 88ea 873d 3f28 d73c fa82 103e
000001c0: e0df cdbd 6ccb 113d 2cf2 4e3d 1f77 023e
000001d0: 79ed bd3d 3636 bdbd c1b9 8d3d 0db1 a53d
000001e0: 7fef 223d a2cb 20bb a7e8 34bd 70b9 a03d
000001f0: 893d 073d 5e07 23be fb43 cc3d 69a9 d9bd
00000200: 191a 843c 53fe 1b3d d017 91bd 1717 183d
00000210: 8693 a83d db87 553a ae57 f7bb 25fa ad3d
00000220: 64c5 123d ec41 15be 74c0 59bc d3ac 00be
00000230: 7c01 5e3d bc30 a83d b6c3 c1bd b6d2 28be
00000240: e355 bd3d fd9f 22bc a5e8 26bd e332 bf3d
00000250: 6efe c23c 9cb4 7dbd a094 a03d adb0 0d3e
00000260: c47e 56bd 8329 653d 1573 08be 25ff 323d
00000270: f922 213e 38a5 86bd 7b2d de3b f2c6 d2bd
00000280: c7aa 263e 238c f2bd e0fe 04be 5345 29be
00000290: db86 d0bc 6be4 e13d 79ed aa3d b115 0fbd
000002a0: 1f77 a4bd 70b5 b53e 12b7 08be 89a9 bc3d
000002b0: adeb 383e 9b7c af3c 2865 253d ace7 2e3e
000002c0: 8d2b 053e f8c7 703e 9981 14be 31fc 253e
000002d0: bfd0 1cbe 3d86 9c3e 1a60 523d dac5 1e3e
000002e0: 51a7 ee3d e7c0 d1bd de9d 47be 20b4 71bd
000002f0: 7b84 81be 0874 d4bc 1d94 2abe ae0c 283e
00000300: 53f8 1bbe 0ded 56bd 9031 06be e302 243e
00000310: c4ce 8fbc 0a22 343e 676d 2ebe 0ad8 1ebd
00000320: a5cb e2bd d9bd 58bd c4a5 4dbe 54d4 8abc
00000330: 9cdc 00be 6f0a 603e 763e 31bd c05e 143e
00000340: 2a75 c13d ce3e bdbc 91bd b83c 17c6 d6bd
00000350: 2eb9 12bd adff 35be 3197 2e3e ab02 993d
00000360: e582 92bd 13c1 0d3b 1554 693e 16bf 353d
00000370: 82b4 033d e71c 9cbd cebb ccbc 1cf6 333e
00000380: 7149 d6bd 57ed dd3d 6160 37be 3210 e33d
00000390: bf7a 7ebd 3a55 dabd 4dd1 10bd 2d11 663d
000003a0: e0ba e53d 7ed3 31be 7c58 57be e4f9 30bd
000003b0: a994 0dbe 004b 28be bbe6 8e3e c989 aabd
000003c0: b547 a5bd b92c 21be b066 113e d0d4 7e3e
000003d0: 892f 29bd 1fdf 07be dfac 0e3e 4be8 3dbc
000003e0: 379d e7bd 07c2 203e 51e1 c4bd 5fd2 7dbd
000003f0: cfff 0dbc 38ba eebd 8760 3cbe 9462 003e
-0.04085264 0.1544867 -0.12683627 0.14088781 0.08272782 -0.097777076 -0.13980004 -0.113321476
-0.0061260755 -0.5508978 -0.08986275 0.08895321 -0.15417601 0.16948916 0.22618428 -0.071907125
-0.1434481 -0.08762399 -0.07262439 0.20546901 0.0024264655 -0.243738 0.033008635 -0.16012868
-0.057442125 0.0024937834 0.16472183 -0.050285056 0.33695617 0.10410822 0.042524382 0.10023053
-0.019781606 -0.0527735 0.21475846 -0.04352181 -0.014282421 0.051459573 0.17668068 0.0073446333
0.09770535 -0.07947538 0.06991493 0.07335404 -0.08066462 -0.06410461 0.17272404 0.0082610315
-0.0047908323 0.10534478 -0.10103941 -0.06510274 -0.113438115 0.011120799 0.16467229 -0.015951319
0.1491651 0.13486749 -0.0026689202 -0.094975874 -0.061512288 -0.17392299 -0.041005112 0.14961521
0.1498888 -0.036703102 -0.16702384 -0.17028493 -0.053511508 0.10999474 -0.1673485 0.11388434
-0.19737759 -0.19392842 1.9057632e-05 -0.09894809 -0.067297064 -0.13897285 -0.021814456 0.052622233
-0.061908774 -0.12336541 -0.09331377 0.1125013 0.008796362 0.014683716 0.14616425 0.0723375
0.14681053 -0.24188939 -0.10347972 0.17355485 -0.04737622 -0.110010765 0.15617108 -0.029900005
-0.04175547 0.15210252 -0.1057529 -0.18121547 -0.10230185 -0.113664806 -0.14434251 -0.19963834
0.096775085 -0.20174235 -0.135424 0.09295078 0.071602285 0.0663653 0.026264308 0.14112464
-0.100524664 0.03559439 0.05052392 0.12740754 0.0927381 -0.092388555 0.06920195 0.080904104
0.039779183 -0.0024535437 -0.044167187 0.078478694 0.03301767 -0.15920779 0.09973904 -0.106280155
0.016125726 0.03808434 -0.0708462 0.037131395 0.08231263 0.0008145549 -0.007548294 0.08494977
0.035832778 -0.14575928 -0.013290513 -0.12565927 0.054200634 0.0821242 -0.09461157 -0.1648663
0.09244897 -0.0099258395 -0.04074921 0.09335878 0.023802962 -0.06193982 0.07840848 0.13836928
-0.052366987 0.05594779 -0.1332515 0.043700356 0.15735997 -0.06574482 0.006780324 -0.10291852
0.16276084 -0.11843135 -0.12987852 -0.16530351 -0.02545493 0.110298954 0.083460756 -0.034932796
-0.08030533 0.35489988 -0.13351086 0.09212024 0.18058653 0.021421721 0.040379673 0.17080563
0.13004895 0.23513782 -0.14502563 0.16209485 -0.15314005 0.30571166 0.05136118 0.15505162
0.11653007 -0.10241871 -0.19493815 -0.05900967 -0.25296387 -0.025934234 -0.16658063 0.16411087
-0.15231447 -0.052472163 -0.13104844 0.16016726 -0.017554648 0.1759111 -0.17033921 -0.03878025
-0.11073998 -0.052915428 -0.20082766 -0.016946949 -0.12584156 0.2187898 -0.043272458 0.1448927
0.094461754 -0.023101237 0.02255133 -0.104870014 -0.035821132 -0.17773314 0.17049862 0.07471212
-0.071538724 0.0021629974 0.22785981 0.044371687 0.032154568 -0.076227 -0.024991896 0.17574352
-0.104632266 0.108362846 -0.1790786 0.110870734 -0.06212878 -0.10660787 -0.035355855 0.056168724
0.11217284 -0.17365834 -0.21029848 -0.043207064 -0.1382624 -0.1643486 0.27910408 -0.08327062
-0.08070318 -0.15739717 0.14199328 0.24885869 -0.0413051 -0.13268708 0.13933133 -0.0115910275
-0.11309283 0.15699016 -0.09613288 -0.061968204 -0.008666947 -0.11656612 -0.18396197 0.12537605

rnn.weight_hh_l1 f4 [32, 32]
00000000: 3901 cbbc 2305 483d 6b46 cbbd 9b3d e5bd
00000010: 850b 3fba 1756 b1bc 8aa4 fbbd e3d6 27bc
00000020: 0054 1e3e c9d1 36bd 27b8 8f3d 4a45 15be
00000030: b593 203e 36e1 d93c 989e 16be 32fc 203d
00000040: c472 fe3d 512a 093e 7258 fd3d b441 9ebd
00000050: 6373 453c aa96 eabd 0892 28be d4ff 05be
00000060: 8b81 04be db46 bbbd 4c95 0abd 0ac8 12be
00000070: 65af 1a3e d576 963c 687a 213c 2a31 d53d
00000080: 60e1 8cbc f2b6 7bbd 50e6 643d d0c8 243e
00000090: d63a 3d3d 173f 31be 58eb 16be aec4 353e
000000a0: f152 833e f13b 083e 7d8a 90be 1225 d33d
000000b0: 7b6d 973c 2220 8cbd 6880 843d f62b e7bd
000000c0: 15e8 f63b fcbd 633e acd9 993e 65e7 03bd
000000d0: 147c 003e 2f33 e3bd d732 61bd c627 2abe
000000e0: 37f9 6abe 2c09 ecbc 6d77 1ebe e929 fc3c
000000f0: 6a65 2fbe 219e f9bd 9a0d 873e 0eb0 cf3d
00000100: 216b d63c 46d0 02be 5af0 253e 3df4 d5bd
00000110: dc3f d1bc 4d8c 35be d8a9 8c3e 1932 43be
00000120: 88e3 6ebe fd00 ef3d 1637 f1bc a0e2 05be
00000130: 611a a93d 663c 143e c14f 87bd cfa1 debd
00000140: 7c8a 013e 2f14 4cbe b377 27be be30 1dbe
00000150: 459f ccbd ae2f 70bd 4178 5dbe 2262 103c
00000160: 520b 953e 0265 023e fc12 1e3e d87c 93bb
00000170: 773d 743e 19c2 383e 076a 3abe f98a 35be
00000180: e2c0 b3bc 7575 6e3d 67e8 8e3d e2c4 9cbd
00000190: 2ac1 8dbd 33f8 333e a1a6 48be 4804 ca3d
000001a0: ec24 043e 2c14 97bc 8f78 233c d8ce ff3d
000001b0: 44e9 fcbc 7f0f d33d 4a41 af3b 3683 e1bc
000001c0: 6413 eb3c c32f 9a3d 8293 513e f6b8 27be
000001d0: 5785 373d e845 a3bd f7f5 22be df06 ed3d
000001e0: 5889 02bc c980 6abe 52ef 023d 18d3 85bd
000001f0: 8157 ca3d edb8 bebd a014 263e e6fb 8a3c
00000200: c3ed 093e f6e3 873e 19cb 88bc 707b fa3d
00000210: b911 7e3e 7aa3 ffbd 6813 1a3b e1f4 11bd
00000220: 27a8 203e 9c83 733d 6269 5fbd 8453 62bd
00000230: 7c3e 233e 72dc 293e 5e09 c0bd 4e7e 443d
00000240: 5464 0e3e 868c 8dbd b97d 3d3e c5a3 82be
00000250: 5653 483e 698c 733e da49 803d 3f10 003e
00000260: 4f4f 403b 1de0 92bd 50a5 b13d 1ca5 4e3e
00000270: 9bfc 4abe ceeb 433d e436 0b3e 2a20 153e
00000280: 27b0 cabd 0ea9 813d d705 4e3e 2797 dabd
00000290: 7658 f83c 49b5 723e 5f0c b4bd 4f33 b9bc
000002a0: 6cd6 afbd 2aeb a03b 2681 ff3d ce14 943d
000002b0: 55ed 95bd 4214 cdbd 9ea7 0cbe ab86 0bbd
000002c0: b6ec d8bd 4dde ed3d 8463 84bd f80c df3b
000002d0: 00ed bc3c e36d 5dbe 3e26 d63d 3f6d 353c
000002e0: f05b abbd e21a 1e3e f3b3 473e ef76 f13d
000002f0: 8509 89bd a216 893d 91c0 8f3c 389b 30be
00000300: b8c3 08be 1537 37be a655 dcbc b4b9 cabd
00000310: 593b cabd 5c75 ffbb 15a6 263e c829 1fbe
00000320: 0c04 893d c9dd 4cbe 05f2 5c3d c07e 283e
00000330: 436a 343e 24d2 ae3d c611 bbbd 4290 1dbe
00000340: cd88 1fbe b8e6 c93c a338 20bd 5b1d 923c
00000350: 99ad 00be cc8c 4ebe f65b eebd c0c2 df3c
00000360: 743c 1e3e c9ce 4e3c e590 18be 9fb7 b53d
00000370: 5e25 dcbb 30df 953e 6209 b23d 2f87 c03d
00000380: 234c d73c d53c 38bd 2eac 12bd f1ca 10be
00000390: ca3f ccbb 86d6 01bd 3e67 3abe a892 993d
000003a0: 4f42 023d 1ac2 83be 8b95 f73d d3f4 1f3c
000003b0: 9553 f73d 5649 8a3e 34c1 62bc 9256 963b
000003c0: c5e6 f8bd 67bb 83bb 0687 1a3e 62a7 003d
000003d0: dd68 f93d de10 55be dc92 2dbe 66d4 46bb
000003e0: 16ab 79bd 8a1b 153d 5a89 1dbc 217b aabd
000003f0: d521 d6bd ae49 13be 4dd3 313e 9a62 05be
-0.024780856 0.048833024 -0.099255405 -0.11193391 -0.00072877883 -0.021647496 -0.12287243 -0.010244104
0.15461731 -0.04463366 0.07017546 -0.14577213 0.15681346 0.026596647 -0.14708936 0.039303012
0.124242336 0.13395049 0.12370385 -0.077273756 0.012051436 -0.11454518 -0.16461957 -0.13085872
-0.12940042 -0.09144374 -0.033833787 -0.14334121 0.1510597 0.01836721 0.009855844 0.10409768
-0.01719731 -0.061453767 0.055883706 0.16092229 0.04619869 -0.17309223 -0.14738214 0.17750809
0.25649217 0.13304116 -0.28230658 0.10309805 0.018484822 -0.06842066 0.06469804 -0.11287682
0.0075349906 0.22240442 0.30048883 -0.032203097 0.12547332 -0.11093747 -0.054980125 -0.16616735
-0.2294663 -0.028812967 -0.15475245 0.030781703 -0.1712853 -0.12188364 0.26377565 0.10141002
0.02617413 -0.12774763 0.16204968 -0.104469754 -0.025543146 -0.17729302 0.2747333 -0.1906208
-0.23328984 0.116701104 -0.029445212 -0.13074732 0.082569845 0.14476165 -0.06607009 -0.10870706
0.12650484 -0.19929574 -0.16354255 -0.15350625 -0.09991316 -0.05863922 -0.21627904 0.008812459
0.291102 0.12733844 0.1543693 -0.0045009665 0.23851572 0.18042792 -0.18204509 -0.17728795
-0.02194256 0.058217485 0.06977921 -0.0765474 -0.06921609 0.17575149 -0.19594814 0.09864098
0.1290471 -0.018442236 0.009977474 0.12490624 -0.030872948 0.1030569 0.0053483592 -0.027528387
0.02869577 0.07528641 0.20466426 -0.16379151 0.044804897 -0.07972318 -0.1591414 0.11573576
-0.007967316 -0.2290069 0.031966515 -0.065344036 0.09879971 -0.093126155 0.16218805 0.016965818
0.13469605 0.26541108 -0.016698407 0.12230575 0.24811448 -0.124823526 0.0023510102 -0.035633925
0.15689145 0.059451684 -0.05454386 -0.055255428 0.15941805 0.16588 -0.09376787 0.047972016
0.1390546 -0.06911568 0.1850499 -0.2551557 0.1956304 0.23784031 0.06264086 0.12506197
0.0029344147 -0.071716525 0.08674109 0.20180172 -0.19822924 0.047832303 0.13595158 0.14563051
-0.0989688 0.06331073 0.20119415 -0.10673361 0.030315619 0.23701967 -0.08791422 -0.022607474
-0.085858196 0.0049108462 0.12475805 0.07230531 -0.07320658 -0.100136295 -0.13735816 -0.034063976
-0.10592024 0.11614666 -0.064642936 0.006806966 0.02306223 -0.2162395 0.10456513 0.01107341
-0.08367145 0.15439942 0.19502239 0.11790263 -0.06691269 0.0669377 0.017547878 -0.17246711
-0.13355911 -0.17892106 -0.02689631 -0.09898701 -0.09874601 -0.0077959727 0.16274293 -0.15543282
0.06690225 -0.2000648 0.053941745 0.16454601 0.1761866 0.08536175 -0.091342494 -0.15387061
-0.15579529 0.024646148 -0.039116513 0.017836263 -0.12566222 -0.20170897 -0.11638634 0.027314544
0.15452749 0.012622544 -0.14899023 0.088729136 -0.0067183217 0.2927184 0.08693196 0.09400784
0.026281422 -0.04497989 -0.035808735 -0.14139916 -0.00623319 -0.031698726 -0.18203446 0.074986756
0.031801518 -0.25734025 0.1208907 0.0097629605 0.12076489 0.27009076 -0.0138400085 0.0045879567
-0.12153391 -0.004020143 0.1509057 0.03140963 0.12178204 -0.20807216 -0.16950554 -0.0030339002
-0.060954176 0.036403216 -0.009615267 -0.08324266 -0.10455672 -0.14383575 0.17365761 -0.13025895

rnn.bias_ih_l1 f4 [32]
00000000: 848f 9e3d 0088 ebbd c566 ffbd 63ac c63d
00000010: de83 443d a869 143e 956f 083e 1432 963d
00000020: 5f28 c0bc c239 ea3d b92d 8ebd 0113 343e
00000030: fb09 8dbd f1ec 7abd 77f0 75bd b4bb 2a3d
00000040: 4bae 203e 2551 cfbd a05a abbd 18fb d53d
00000050: b075 3cbd a458 913d ded8 dc3d cfd5 083e
00000060: 1809 e13d 47e1 be3d 9539 173e a906 04be
00000070: b064 023e eea3 7dbc f629 c83d 41d0 7b3d
0.07742217 -0.11500549 -0.124707736 0.09700849 0.04797732 0.1449343 0.13323815 0.073337704
-0.02345675 0.11436798 -0.06942315 0.17585374 -0.06886669 -0.06126112 -0.06004378 0.041682914
0.15691487 -0.10122899 -0.08366895 0.10448283 -0.046010673 0.07096985 0.10783552 0.13362812
0.109880626 0.09320312 0.1476806 -0.12893166 0.12733722 -0.015480978 0.097736284 0.061477903

rnn.bias_hh_l1 f4 [32]
00000000: 41b7 d6bb 0430 033d 9bc3 083d c5ff 71bd
00000010: 2648 a1bd 6943 39be 1b5f 15bd 5e52 753c
00000020: 31b7 003e 2e36 e13d 7fdf 2fbd f8a6 033e
00000030: 3afd 603c 95b8 34bd 4c1c febc be0b 82bb
00000040: a9bc 523d 4990 2c3d 6301 0bbe 021d 2bbe
00000050: f1de 9abd d888 e73b 50fa aebd eeb3 273e
00000060: 18d1 ee3d ebe8 2f3a c7d1 f0bd fb90 263d
00000070: 13ad 13bd df2a 293e 5221 ee3d bda0 853d
-0.0065526073 0.032028213 0.03338967 -0.05908181 -0.07875089 -0.18092121 -0.036467653 0.014973251
0.12569882 0.10996662 -0.04293775 0.12856662 0.013732249 -0.044121344 -0.031019352 -0.003968685
0.05144945 0.04212979 -0.13574748 -0.16710284 -0.07562054 0.0070658736 -0.08543837 0.16377231
0.11660975 0.00067104277 -0.11758762 0.040665608 -0.03605373 0.1652026 0.11627449 0.06524799

rnn.weight_ih_l2 f4 [32, 32]
00000000: 1927 293e 862c 073b 741d 163e 9f20 f2bd
00000010: 7ed0 6bbc 9b34 bcbd fee0 ebbd b13b 263e
00000020: ecbc 1abe 2620 f6bc 658b 513c 96b0 02bc
00000030: 2b64 9abc 6b27 fdbd 6992 4bbc fa3a 04be
00000040: 5698 bcbc 6551 6abd 05d0 243e a9b4 a93d
00000050: 4d05 163c ca9d d73d 0f54 193e 3369 50bb
00000060: fe68 39bb 1ed6 95bd 6c05 d2bc 0e33 943c
00000070: 4904 193d c76e 32be e498 a9bc 01fa 27be
00000080: 8b52 343e 53b6 50be fb1b 3c3e 7773 74bd
00000090: 6c86 48be 860d 9abd 1628 11bd 97f8 8abd
000000a0: 5526 b6bc 6f18 163e ff92 d9bd dd26 2bbd
000000b0: 350f c23d aa74 45be 13bd 763c 230b 4b3e
000000c0: 9947 033d 5be6 3a3e 56c0 213c 9cfe 853d
000000d0: 74f9 103e 38b5 ab3d 33cd 99bd 927e 38be
000000e0: 9b7e 70bc 302b fb3d 0aaa 733d 500e 5f37
000000f0: a069 30be 0af3 213d 3a88 32be 7b46 253d
00000100: c1ad 943d c3bd 203e b6b1 16be 32f5 1a3e
00000110: d7f5 5d3e 9192 debd ad3b 973d db26 fc3d
00000120: bcad 43be 677c db3d fe60 1bbe 92b8 8cbd
00000130: 1ab6 fabd 272f 88be 1f41 643c f0ca 8fbd
00000140: babe 78bc 1017 fc3d f389 a3bd c0ce 053e
00000150: 87d8 433e edbf 773d 8f04 263d b5e3 f8bd
00000160: 4209 083e 35b2 c6bd c1cc 74bd e5fe fbbd
00000170: 8e54 4fbe 0170 4cbe 2742 95bc c6b5 2fbd
00000180: 3105 c23d 2369 85bc 454b ef3d e3cd abbd
00000190: d6f6 26be 875e 86be 7999 573e f56e c13d
000001a0: 6c61 59be 155d 853c bdfe 9f3d fc29 26bc
000001b0: d919 10be 3077 cfbe f32d 853d 5b4a 2f3e
000001c0: 123f 493e 2c67 583e c687 c93d 0db6 85bd
000001d0: 3884 dd3d d713 9bbd 53c3 0e3e e894 4bbc
000001e0: a640 f6bd 3bd7 4fbd 3f1e dbbd 92e6 c5bd
000001f0: 610b 25bd 4a70 0d3e 6e51 22be 9d8e acbd
00000200: 1913 133e a50d e93c 31fd bf3c cfc5 8fbd
00000210: 96b4 30bd e16a b5bc 3bdf 143e 8b12 013e
00000220: c4d7 28bd 0055 12bd 2ca7 123e badc b03b
00000230: 4a17 5b3e 6f7b 35be 866b 03be 7fb7 a5bc
00000240: 042a 143e 4d35 413e 717a f43d f133 0b3e
00000250: 954d 873d 3ced 59be 61d5 c1bd d0cb c13d
00000260: 6733 56bc 3a40 363e 72d9 97bc a010 8d3d
00000270: 8a11 4bbe 9ec9 08be 42e3 30be 465a c63d
00000280: 20dd f2bd 0a66 e0bd dd66 9cbd bfdf f1bd
00000290: 2d47 6e3d aa5d 0f3e abdc 663d 85f0 5c3e
000002a0: a54e 013e 2b74 4b3d 7f56 c23d e7b4 31be
000002b0: b8fb b03d ef4d ccbd 0c98 abbd 234b 5fbe
000002c0: 36f0 91bd 0803 ad3b 9b23 0b3e 2f13 823c
000002d0: 9f6b f0bd 4014 10bd 0d56 eabd b02f ff3d
000002e0: 22b3 113e bc9c be3c 69ae e1bd e2eb b7bd
000002f0: b73a cdbd 2950 bf3d 4789 15be 6ed4 383d
00000300: 885f 393e 4482 cdbc 5187 16be 96bf 62bd
00000310: 5fe0 c43d 7024 ce3c 0da8 0c3e 49ac 643a
00000320: 65f3 68bc b330 06be dca1 c83a 2c57 cebd
00000330: 9953 4f3e dd1e 453c a2d5 bfbd 4c72 b43d
00000340: adaa f2bd d3a9 0ebd 73a7 f6bc fad5 debd
00000350: fcf7 acbc 8d09 d13d 7e6a 203e ddd8 10be
00000360: 6ab2 e43d 75d4 97bd 2f67 05bc 7a9e 5b3e
00000370: 5ef5 cebd 7435 18be 25f9 9fbd f054 f53d
00000380: cb59 d13d ad8a e13a 277f fbbd 67d4 2fbe
00000390: 6d99 053e 0d16 adbd 2634 be3d 92a1 3a3e
000003a0: e0d8 6bbd 510f 3e3e 89fb aa3c 4155 413e
000003b0: 48c0 703d 27d2 95be 8099 443e 350d 2e3e
000003c0: d2a7 96bd 1054 723c 114c bf3d 582c ccbd
000003d0: 6bdf ebbd ac63 95bc 7f00 c93d f21f 503d
000003e0: 214d 20be 9506 dfbd 612c ae3d aa65 1abe
000003f0: e00e f6bd 08ad 14be 7c7a de3d 80aa 13bd
0.16518821 0.0020625903 0.14659673 -0.11822628 -0.01439297 -0.09189721 -0.11517523 0.16233708
-0.1511113 -0.030044626 0.012789582 -0.007976672 -0.018846592 -0.12361034 -0.012425044 -0.12913123
-0.023021858 -0.05720653 0.16094978 0.08286411 0.009156537 0.10528143 0.14973472 -0.0031800985
-0.002829134 -0.0731623 -0.025637351 0.018090751 0.037357602 -0.1742507 -0.020702787 -0.16403963
0.17609613 -0.20382051 0.18370049 -0.05968043 -0.19582528 -0.07522111 -0.03543862 -0.06785696
-0.022235075 0.14657758 -0.106237404 -0.04178511 0.09475557 -0.19282785 0.015059727 0.19828467
0.032050703 0.18251936 0.009872517 0.065427035 0.14157659 0.08384174 -0.07509842 -0.18017033
-0.014678623 0.12264097 0.059488334 1.3295168e-05 -0.17227793 0.03953842 -0.17434779 0.04035042
0.072597034 0.15697388 -0.14716229 0.15132597 0.21675812 -0.10867799 0.07384429 0.123120986
-0.19109243 0.10717087 -0.15173718 -0.068711415 -0.12241764 -0.26598474 0.013931542 -0.07021129
-0.0151821915 0.12309086 -0.07985296 0.1306715 0.19125567 0.06048577 0.04053169 -0.12152807
0.13284782 -0.09701959 -0.05976558 -0.12304477 -0.20247099 -0.19964601 -0.01822002 -0.042897962
0.094736464 -0.016285485 0.116842784 -0.08388879 -0.16305098 -0.26243994 0.21054639 0.094449915
-0.2122857 0.016279737 0.07812259 -0.010141846 -0.1407236 -0.4052062 0.06502905 0.17118208
0.19652966 0.21133107 0.0984035 -0.06528864 0.10816234 -0.075721435 0.13941698 -0.012425639
-0.120240495 -0.05074237 -0.10699128 -0.096631184 -0.040294055 0.13812366 -0.15851375 -0.08425639
0.14362754 0.028448889 0.02343616 -0.07020151 -0.04314097 -0.02214569 0.1453828 0.1260473
-0.041221395 -0.035725594 0.14321584 0.0053974064 0.21395603 -0.17722867 -0.12833986 -0.0202291
0.14469153 0.18867989 0.11937416 0.13594033 0.066065945 -0.21281904 -0.09464527 0.09462702
-0.013073779 0.17797938 -0.018536303 0.068879366 -0.1983091 -0.13358161 -0.17274192 0.09685187
-0.118585825 -0.109569624 -0.07636807 -0.11810254 0.058173347 0.14000574 0.05636279 0.21576126
0.12627657 0.049671333 0.09489154 -0.17354165 0.086417615 -0.09975802 -0.0837861 -0.21806006
-0.07125895 0.0052799024 0.13587801 0.015878288 -0.11739277 -0.035175562 -0.11442194 0.124602675
0.1422849 0.023268096 -0.11019594 -0.08980538 -0.100209646 0.09341461 -0.14603148 0.045124464
0.18102849 -0.02508653 -0.14700057 -0.05535849 0.09613108 0.02516386 0.13735981 0.0008723182
-0.014218186 -0.13104515 0.0015307027 -0.100752205 0.20246734 0.012031284 -0.09366919 0.08810863
-0.1184896 -0.034829926 -0.030109143 -0.108806565 -0.021114342 0.102069 0.15665624 -0.14145227
0.11166842 -0.0741357 -0.008142277 0.21447173 -0.10105394 -0.14864141 -0.078111924 0.11979091
0.10222205 0.0017207466 -0.12280112 -0.17170869 0.13046809 -0.084514715 0.0928729 0.18225697
-0.057579875 0.1856053 0.020871894 0.18880178 0.058777124 -0.29261896 0.1919918 0.16997226
-0.07356228 0.01479055 0.093406804 -0.099693954 -0.11517223 -0.018236004 0.09814548 0.050811715
-0.15654422 -0.10889927 0.08504558 -0.15077844 -0.12014556 -0.14519131 0.10863206 -0.036051273

rnn.weight_hh_l2 f4 [32, 32]
00000000: 20a2 d7bc 4342 753b 9b6b 0fbe 4690 2a3e
00000010: 90a8 82bc 9780 e63d 1235 f6bd 4bd8 2fbd
00000020: f97e d23d 3045 ba3d 0ed0 023e 1bfc 7cbd
00000030: 00aa 453c ca99 c13d ec2c 9c3e 48a0 41be
00000040: 55c2 d73d 4705 153e 3f51 d03d 025f 3dbe
00000050: f68e 1e3e 7719 ca3d d9b9 b7be d268 c53c
00000060: bf99 bf3d aa10 6e3d 5134 61be 50a2 dd3c
00000070: a718 70bd f82d 5cbd 4ebd ff3d 282a a73e
00000080: 31c3 173e 24ae 0b3e 3c40 6ebe 52e6 533c
00000090: 456f 93bd aeb7 17b9 6490 92bd 1d32 e4bc
000000a0: db86 2ebe cda1 5f3e fd84 1d3e 4435 c9bd
000000b0: 19ac 91bd 289d fdbc ccc2 733d 11a0 13bd
000000c0: a142 2bbe e793 08be 715e 853c ee5a eebd
000000d0: 24b2 d33d fbec 303e 3ab1 14be 1535 8e3c
000000e0: e203 383d 2af1 013e 5c77 3c3d 394b 53bc
000000f0: 21c7 c2bd 82f7 263d cca4 e4bd 4f98 e1bd
00000100: 8872 dbbd ce27 2b3d fcf3 81bd fe4a 0abe
00000110: 035e 77bd 11dd 9f3b 1a26 dfbd 639e 88bd
00000120: 0392 523d 6584 db3d e66b d43b 2ca2 dfbd
00000130: fb9f 54bb 073f 1a3e 8d3c 443d d348 3abd
00000140: bd86 94bd a5ed 443e b60d ad3d 70f7 ba3d
00000150: 3dc5 fcbc 5cea 453e edd0 89be ed34 633b
00000160: e396 10be 5492 c6bb c8c1 63bd 91b9 0abe
00000170: cf8d 1bbe 3af9 013e c0f9 ec3d f42c 433e
00000180: 0de3 7dbc d3c4 a13d bd62 3abc 1e9c 38bd
00000190: 2519 01be c0cb 83bd 2906 ffbd 0350 953d
000001a0: e787 0c3e cb7a 403e 5f27 513b c60b 04be
000001b0: 6680 a5bd a66b 2539 5ce8 da3d 3f5d 0a3e
000001c0: b2f8 00be efa2 d1bd 9740 80bd ecca f0bd
000001d0: 00d6 0bbe 31a7 1a3e 736e 3bbd d1fc 9d3c
000001e0: d06f 19be c428 833d e159 0f3e 7b80 53be
000001f0: a8c7 d43d 1759 18be f3df bb3d 4461 733d
00000200: 4396 3ebe dff2 b4bd ca70 3fbd a4ff 673d
00000210: 1a5d ef3d f108 ee3d 9aba 92bb 895d c0bd
00000220: 3313 5b3d 1f9f dabc 41d2 f1bd 2d18 5bbd
00000230: 52e6 cf3d b498 5d3d df0d 023d 0521 853d
00000240: 498f d0bd 06c1 583e 95a5 f5bd 32e7 253d
00000250: 669e c9bd 7059 103c 4b5d 1ebe a3de 253e
00000260: 0a9f d93d a050 03be bfe2 283e cd4a 16be
00000270: 1b1e 1bbe 0836 2dbe 31cb 343d 481b ebbd
00000280: 7160 133e 055e 8a3e 8cd4 3cbe 2d53 afbd
00000290: 508d 25be 50e1 95be 63a0 f3bd 3daa 44be
000002a0: 441a a1bc 5b90 fcbd 78f3 d7bc 9712 113d
000002b0: 95e8 193d c374 403e 2a8c 0abe 0468 eb3d
000002c0: cf10 96bd ffc9 fa3d a74d 6bbe 2c09 143e
000002d0: 48fe bb3d e01b cebc 9ae2 5c3d 2f6a d6bc
000002e0: 1d5d 083d 52b0 97bd d796 1e3e 1f7b d2bd
000002f0: 5ff7 4f3e e82c b43d bf97 e03d 12b7 c9bd
00000300: 61f1 433e 8c9e 66bd 7de7 293d 8b97 1a3e
00000310: fde1 d43d 3bc8 a23d fe80 18be ca3d 59bd
00000320: 5245 0b3d 9e5b 073e 7355 063d ec49 aebc
00000330: 127e 3dbd 7d4a 42be 5de6 123e be4f c6bd
00000340: d2c9 8d3e bc45 ab3d 7fdb 01be 42f9 4c3b
00000350: 11f9 c73d cc6d 7738 0494 7bbe 5717 0f3e
00000360: 1229 543e 4aab 9a3e 92fc c3be 5f61 e53d
00000370: a98c f03d 8d16 93be 8dea 7dbd 2977 913e
00000380: aee2 61bd bc84 09be 31d3 573e 3051 2cbe
00000390: 8a8c cbbc 743b 263e 07c5 11bc 72e4 613e
000003a0: 47a1 c53e 68ea bcbd 4f62 223d 6e43 413e
000003b0: 80eb d3bd 247b 3a3d 454a a7bd 4015 e63d
000003c0: 7072 48bd 74f0 cc3d c4e0 913d 78ed 6c3e
000003d0: e874 3bbe f8f4 edbd dab5 d13d 9084 47bd
000003e0: c0a7 2e3e ffa1 1ebe 51d7 db3d 43ec 1cbd
000003f0: df0f 99bd 7817 26bc ef3e c23d d72e f93d
-0.026322424 0.0037423528 -0.14005892 0.16656598 -0.015949517 0.11254995 -0.12021841 -0.042930882
0.10278124 0.09095228 0.12774679 -0.061763864 0.012064457 0.09453161 0.30503023 -0.18908799
0.10535113 0.14552794 0.101717465 -0.18493274 0.15484223 0.09868138 -0.35883978 0.024097834
0.093554966 0.05812136 -0.21992613 0.027054936 -0.05861726 -0.053754777 0.12487279 0.3264935
0.14820553 0.13640648 -0.23266691 0.012933331 -0.07198957 -0.00014468908 -0.071564466 -0.027855927
-0.17043631 0.21839066 0.15382762 -0.09824613 -0.07112903 -0.030958727 0.059511945 -0.036041323
-0.16724636 -0.1333767 0.016280385 -0.11638437 0.10336712 0.17277901 -0.14520732 0.017359296
0.044925578 0.12689653 0.046012267 -0.012896352 -0.09510637 0.040763386 -0.11164245 -0.11015379
-0.107152045 0.041786008 -0.063453645 -0.1350517 -0.06039239 0.004878648 -0.10895939 -0.06670835
0.05140878 0.10718612 0.006482589 -0.10919604 -0.0032443989 0.15063106 0.04790931 -0.045479607
-0.07252262 0.19231279 0.08449881 0.09129226 -0.03085577 0.19327682 -0.2691721 0.0034668997
-0.14120059 -0.006059924 -0.055604726 -0.1354735 -0.15190814 0.12692729 0.115710735 0.19060117
-0.015496028 0.07898869 -0.01137608 -0.04507076 -0.12607248 -0.064353466 -0.12452347 0.07290652
0.13723718 0.18796842 0.0031914336 -0.12895116 -0.08081131 0.00015775728 0.1068885 0.13512133
-0.1259487 -0.10236155 -0.062623195 -0.11757454 -0.13655853 0.15102841 -0.04575963 0.019285591
-0.1498406 0.0640426 0.1399913 -0.2065448 0.10389644 -0.14877735 0.09173574 0.05941893
-0.18612008 -0.088353865 -0.046738423 0.056640282 0.116876796 0.11622799 -0.004477811 -0.093928404
0.053485107 -0.026687203 -0.11807681 -0.053489853 0.10151352 0.054100707 0.03175151 0.065004386
-0.101835795 0.21167383 -0.11994473 0.04050369 -0.09844665 0.008810386 -0.15465276 0.1619821
0.106260374 -0.12823725 0.16492747 -0.14676972 -0.15148203 -0.16915143 0.04413909 -0.11479813
0.14392258 0.27024856 -0.18440455 -0.085607864 -0.16167188 -0.29273462 -0.11895826 -0.19205566
-0.019665845 -0.12332221 -0.026361212 0.03541812 0.037575323 0.18794541 -0.13530031 0.11494449
-0.07327425 0.12245559 -0.22978841 0.14456624 0.0917936 -0.025159776 0.05392704 -0.02617368
0.033291925 -0.07406677 0.15487228 -0.1027739 0.20309208 0.08797628 0.10966443 -0.09849371
0.19135047 -0.056303546 0.04148053 0.15096872 0.10394666 0.07948347 -0.14892957 -0.053037442
0.034001656 0.13218543 0.032796334 -0.021275483 -0.04626281 -0.18973728 0.14345689 -0.09683178
0.2769304 0.0836291 -0.12681387 0.00312765 0.097643025 5.8991645e-05 -0.24568182 0.13973747
0.20718792 0.30208808 -0.38278633 0.11200213 0.11745579 -0.28728142 -0.061991263 0.28411224
-0.05514782 -0.1342954 0.21076657 -0.16827846 -0.024847288 0.16233617 -0.008897073 0.22059801
0.38599607 -0.09224397 0.039644536 0.18873379 -0.103476524 0.045527592 -0.08168463 0.11234522
-0.04893726 0.100068 0.07122949 0.23137462 -0.18306315 -0.1161899 0.102397636 -0.048710406
0.17056179 -0.15491484 0.10734428 -0.038311254 -0.0747373 -0.010137431 0.0948466 0.12167137

rnn.bias_ih_l2 f4 [32]
00000000: 8ed8 073d b488 a53d 2210 42be 11d2 bcbc
00000010: 6262 4ebe ae1d 2fbd 991e 3cbd 1295 fa3d
00000020: 76a0 1f3e 6f81 0d3e 3d00 deba 61da 25be
00000030: d81c ba3d 602e 443d 8d45 87bd 85f4 bebd
00000040: eeae 2cbe 2061 14be 21d1 24bc 84a1 f5bd
00000050: 25fb b6bc 67d0 333e fdbe 233e c795 09be
00000060: 3595 bdbb a4e2 fb3d 7ff6 9ebd 3d30 273e
00000070: 6616 5a3b d880 95bb 49ac 253e 79fe 353c
0.033165507 0.08082715 -0.18951467 -0.023049386 -0.20154718 -0.042752914 -0.045927618 0.12235464
0.15588555 0.13818906 -0.0016937327 -0.16196586 0.09087533 0.04789579 -0.06605063 -0.09323982
-0.16863605 -0.14490175 -0.010059626 -0.11993697 -0.022336552 0.17559968 0.15990825 -0.13436042
-0.005785609 0.12299088 -0.07761859 0.16326995 0.003327751 -0.0045624785 0.16179003 0.011108034

rnn.bias_hh_l2 f4 [32]
00000000: f031 11bb 46bd 073e d465 a73d 0a0c 943d
00000010: 2af7 29be 040c 12be d579 883d 91f7 bbbd
00000020: e995 2bbe bbb6 dc3c 4beb 033e 63e3 e6bd
00000030: 9655 c1bc 7b65 04be e563 dcbd ea92 8d3d
00000040: 7a3b cdbd 0ae7 2f3d 1721 1c3e 8569 c4bd
00000050: 9035 fbbd fba2 08bd f5f5 223e 0b5a 74be
00000060: 258f c9bd 7294 29be b78d 0c3e 5c27 6e3e
00000070: 4aa3 d4bc 1e74 473e 785f 08be 9cec 88bd
-0.002215501 0.13255796 0.08173719 0.07228859 -0.16598192 -0.14262396 0.066638626 -0.09178079
-0.16756405 0.026942601 0.12882726 -0.11273839 -0.02360038 -0.12929337 -0.10761241 0.06912787
-0.1002111 0.042944945 0.15246998 -0.09590439 -0.122660756 -0.033358555 0.15914138 -0.23862474
-0.09841756 -0.16560534 0.13725935 0.23257202 -0.025956769 0.19477889 -0.13317668 -0.06685755

rnn.weight_ih_l3 f4 [32, 32]
00000000: 5580 9dbd 2324 603d 2534 5dbe a064 5ebb
00000010: feaf 2abd 9d39 8d3d cfb0 15be 8b66 66bd
00000020: 2824 853c ba3f 193b 365f 083e 7889 08be
00000030: 2557 3e3d 5db5 b13d 196e 313e c98a 31bd
00000040: d1cc b03d 98b0 08be 47ae 7f3d 6e37 213e
00000050: 52ed 233e b104 eabd b20a cc3d 2611 b2bd
00000060: d9e7 ed3d 67c7 fc3d a242 d0bd 9f34 db3d
00000070: f178 ef3d 8e4b 103e 9519 b3ba 1f8a 4fbd
00000080: bfc0 debd 9944 41bd d199 d9bb ea5c 8ebd
00000090: a53c 39be de5f 6c3d 08f3 05be 64c1 e53d
000000a0: e107 48be e778 183e c282 373e 7795 05be
000000b0: e968 be3c f8df 04be 816d 7dbc a115 ab3d
000000c0: 5210 56be 906a 9dbc 34ac 78bd 3463 d9bb
000000d0: 7cc0 50be 3d02 d73c bd20 683e a47e 13be
000000e0: f4ec 253e 5d15 cabd bbc1 a3bd d932 35be
000000f0: b90b 503e a4bf 473e 13b8 8abb daf0 70bc
00000100: 9843 463e 48bf b6bd cc22 9d3c 1f22 e1bd
00000110: cf43 eabd 926d 15be e705 1fbe a0cc 78bd
00000120: 2701 393e 1102 753d c1ae b83b 0caa 033e
00000130: 4df6 e5bc ffbf c53d 53c6 2bbe 9faa c8bc
00000140: 1146 3d3e cc44 1ebc 0f6a f8bd 05ad d33d
00000150: 1533 cc3d dabe dcbd ea70 09bb 57b6 2a3e
00000160: 2610 04be 51a3 dcbd 323b 11be fb30 f1bc
00000170: 8c36 eebd 7695 a43c 3dab 11bd 1c04 0a3e
00000180: 6b7f 43bd d563 f4bb 2937 acbd 7fb9 90bd
00000190: 89ec 51be d540 cebc f329 c73d 1aec 1dbe
000001a0: e28a de3c 9525 303e 436f 9a3d f333 48bd
000001b0: 6a3d 4a3e 51fa 3ebe f62a 1bbe de92 5ebd
000001c0: 58db eb3d 4329 a3bd 549a 4b3b 7382 1e3d
000001d0: 21a1 c0bd 88d4 6b3d 9ba5 3ebe a529 143e
000001e0: 9050 5ebd 47d6 3c3c b839 a03c c0e2 1f3e
000001f0: 1939 193e a786 1ebe 0535 993c dd3f 4a3d
00000200: 2e5d 053e 860d 013d ece3 f8bd 0d19 dcbd
00000210: 12b9 c53d 89f4 b6bd 4c8c db3d 0755 fc3b
00000220: 92dc 623e e4c8 453e 56c9 debd 46f6 dbbd
00000230: 9eaa 03be 8b2a b0bd 59c6 b13d 82c5 8e3d
00000240: 79fd 4f3c ef99 1b3e 83bd 0abe 5c4b 1ebe
00000250: a26e 80be d9c4 523d 07b6 a03c 64d7 be3d
00000260: 3ec9 a1be 0cc2 b83d d991 2d3e fcd8 23be
00000270: 2099 423e f85d 3b3e d91f 453e aee4 b53d
00000280: 2793 bfbc c80b 903b f5fb 54bd 09e9 debd
00000290: 09fa f93d 40b9 78bd 2e26 d03b 1b9a 5f3d
000002a0: 6697 4ebe dee7 92bd 6a98 0d3c 9d91 4e3e
000002b0: c428 443d 9b2f 993d f22b ea3d 026c c03c
000002c0: bef0 da3d e26e 113e 752b 183e 6717 53bd
000002d0: 1ef9 e0bd 9f27 cc3d 6a84 4bbd 404a d3bc
000002e0: 3412 8b3d c235 51bd ef7d 6fbe 5c18 9ebc
000002f0: 402b d9bb 6a5b 50be b8be 023e 7cf9 7c3e
00000300: 6042 0e3e 8511 623e 9716 383e 9578 ec3d
00000310: f46a cebd b84e 63bd 1e84 84bc e8e0 8f3d
00000320: ff20 3a3b 6265 193e 440e 05bc 5cbb 8bbc
00000330: c5d4 663d 9a20 be3d 8048 5ebb 6a16 0bbe
00000340: 8b2e 3f3e c534 8d3d 15fe 133d e075 dcbd
00000350: b9a4 03be e117 f83c 8769 4bbe 5931 3a3e
00000360: 94a5 e33d 2c16 07bd 287f 9abd 0349 f8bd
00000370: 92af ca3d 6d5e df3b e289 08be e645 05be
00000380: 90e4 0b3e 0115 6dbc c92d 9f3d f6ac 56bd
00000390: 2d10 063e 3c64 5d3e f888 863d 6af4 c53d
000003a0: a6c7 25be 881a e83d 7cee 143d 9254 3c3e
000003b0: 08e1 eabd 67eb b9bd 02fe 0fbe 9030 bbbd
000003c0: 0303 3fbc 9bb9 b73d 7eb9 ba3d 9eda dabc
000003d0: 39ec ba3d 3e7b 27bd fc1d 183e 966e 7b3e
000003e0: 702b 4bbd 7a85 bd3d 49d9 86bd 2612 103d
000003f0: 99a6 da3d 9ca9 21be 9751 f53d 3cf1 97bd
-0.07690493 0.054721963 -0.21601923 -0.003393449 -0.041671745 0.068957545 -0.14618228 -0.056250136
0.016252592 0.0023383931 0.1331757 -0.1333369 0.046469826 0.086771704 0.17327155 -0.043345246
0.08632816 -0.13348615 0.062422063 0.15743801 0.160085 -0.11426676 0.099629775 -0.08694677
0.11616487 0.123427205 -0.10168959 0.10703396 0.116929896 0.14091322 -0.001366424 -0.050668832
-0.10876607 -0.04718456 -0.006640651 -0.06951316 -0.1808954 0.057708614 -0.1308099 0.11218527
-0.19534256 0.1488987 0.17920974 -0.13045298 0.023243384 -0.12976062 -0.015468002 0.08353735
-0.20904663 -0.019215852 -0.0607111 -0.0066341404 -0.20385927 0.026246184 0.22668739 -0.14403778
0.16203672 -0.09867356 -0.079959355 -0.17695178 0.20316972 0.19506699 -0.004233369 -0.014705861
0.19361722 -0.08923203 0.019181632 -0.10992836 -0.11438715 -0.14592579 -0.15529595 -0.06074202
0.18066846 0.059816424 0.0056360667 0.12857836 -0.028071547 0.09655761 -0.16774873 -0.024495421
0.1848376 -0.009659957 -0.12129604 0.10335735 0.099706806 -0.107785895 -0.0020971843 0.1667112
-0.12896785 -0.10773338 -0.14182737 -0.029442301 -0.11631498 0.0200908 -0.035563696 0.1347813
-0.047728937 -0.00745819 -0.084089585 -0.070666306 -0.20500387 -0.025177399 0.09724798 -0.15422097
0.027165834 0.17201836 0.07540753 -0.048877668 0.1974999 -0.18650176 -0.15153107 -0.054339282
0.11516446 -0.079668544 0.0031067329 0.038698625 -0.09405733 0.057575732 -0.18617861 0.14469011
-0.05427605 0.011525697 0.019558772 0.15613842 0.14963187 -0.15481053 0.01870204 0.04937731
0.13023826 0.031507038 -0.12152848 -0.107469656 0.0965444 -0.0893336 0.10720119 0.0077005657
0.22154453 0.19314915 -0.108782455 -0.10740332 -0.12858054 -0.086018644 0.0868041 0.069712654
0.01269471 0.1519544 -0.13548855 -0.15458435 -0.25084406 0.05145726 0.019618047 0.09318426
-0.31598848 0.090213865 0.16950168 -0.16000742 0.19003725 0.18297565 0.1925043 0.08881508
-0.023385597 0.0043959357 -0.051998097 -0.10884292 0.122058935 -0.060723543 0.0063522076 0.054590326
-0.20174941 -0.071731314 0.008642295 0.20172735 0.04789044 0.07479783 0.11434163 0.023489002
0.10690449 0.14202455 0.14860328 -0.05153599 -0.10985015 0.099684946 -0.049686827 -0.025792241
0.06790581 -0.051076658 -0.23387884 -0.019298725 -0.0066274703 -0.20347372 0.12768066 0.24704546
0.13892508 0.22076996 0.17977367 0.11546437 -0.100789934 -0.055494994 -0.01617628 0.07025319
0.0028401015 0.1498008 -0.008121077 -0.017057113 0.056355257 0.09283562 -0.0033917725 -0.13582769
0.18670098 0.068948306 0.036130983 -0.1076467 -0.12855805 0.030284824 -0.19864474 0.18182887
0.11115566 -0.03298013 -0.075437844 -0.12123301 0.09896769 0.0068166764 -0.13333848 -0.13014945
0.13661408 -0.01447034 0.07772405 -0.052411042 0.13092108 0.21620268 0.065690935 0.09665759
-0.16189441 0.113331854 0.03636025 0.18391636 -0.114687026 -0.090781026 -0.1406174 -0.09140122
-0.011658433 0.08970948 0.09117411 -0.026715573 0.09127087 -0.040889017 0.14855188 0.24553904
-0.049601972 0.09253974 -0.065844126 0.035173558 0.10676307 -0.15787357 0.11978453 -0.07419059
