Supervised/00_exercises/lab_10/lightning_logs/version_2/checkpoints/epoch=19-step=7800.ckpt (torch, 146116 bytes, 66 tensors)

rnn.weight_ih_l0 f4 [32, 10]
000000 75 bf 21 bd 91 9c c3 bd 32 39 1d bd ca 2f f5 bd
       -0.03948923 -0.09551347 -0.038384624 -0.11972006
000010 2a 44 c3 bc ec aa 8e bd 29 d8 1b bd 5c 81 84 bd
       -0.023836214 -0.069661945 -0.038047943 -0.06469986
000020 66 e8 cd bc 93 49 a4 bd a7 79 13 be 1a 46 c5 bd
       -0.02513523 -0.08021846 -0.14401875 -0.096325114
000030 a1 12 ea bd 45 1b 36 3c 6c 65 ed bd 7b 09 b4 bd
       -0.114293344 0.0111149 -0.1159161 -0.08790871
000040 5d a7 bb bd db 33 02 be cf 36 0e bd d5 07 0a be
       -0.091627814 -0.12715094 -0.03472024 -0.1347955
000050 4d f7 28 3d e6 a6 12 bc 4a 0e 21 3e 37 37 b5 3d
       0.04125147 -0.0089509245 0.15728107 0.08848422
000060 52 0b a8 3c ba f3 0d 3d a5 45 e2 3d ac 29 80 3c
       0.02051321 0.034656264 0.1104844 0.01564487
000070 d2 05 81 bd df 5b cc 3d 6f 16 6b 3d a2 41 e0 3d
       -0.06299938 0.099784605 0.05739444 0.109500185
000080 7d 1e 16 3c e8 30 03 be 52 e7 0c be 2f 5f cf bc
       0.009162542 -0.12811625 -0.13760117 -0.025313942
000090 a2 8e 2c bb 99 e2 68 bc d8 6f 01 3c af 6c 3b bd
       -0.0026330133 -0.014214181 0.007900201 -0.045757946
0000a0 ab f1 42 bc fa 1c 72 3d 7e 71 65 bd 1a 79 6a bd
       -0.011898438 0.059109665 -0.056016438 -0.057244398
0000b0 96 61 0a bd 18 4f c7 bd 88 52 1a bd 5c 02 80 3b
       -0.03378447 -0.09731883 -0.037676364 0.0039065313
0000c0 47 e9 e6 bd 21 03 04 be 6d 20 bd bb a1 62 e9 3c
       -0.11274963 -0.12891819 -0.0057716877 0.028489413
0000d0 56 47 0e be 75 42 df 3d eb 8d c4 ba ac 37 49 bb
       -0.138944 0.109013475 -0.0014995908 -0.003070335
0000e0 44 cd 3d bd 4e d2 81 3d 7a ad a0 bd 56 7a cf 3c
       -0.046338335 0.063389406 -0.07845588 0.025326889
0000f0 30 2b a8 3d ce 15 f1 bd 23 c6 22 bd ac 08 ec 3d
       0.08211362 -0.11771737 -0.03973974 0.115250915
000100 a1 4d ac 3d 3f f3 e5 3d 28 42 da bd 16 1a b8 3d
       0.08413244 0.11228036 -0.106571496 0.089893505
000110 0b 51 80 bd 90 02 44 bc cb 82 91 3d 81 0c 9b 3c
       -0.06265458 -0.011963502 0.07105025 0.01892686
000120 52 3a 86 3d da d2 01 be 1c 54 5f bd 9b 8b d7 3b
       0.065540925 -0.1267809 -0.054523572 0.0065779216
000130 15 49 06 3e 4c db 0b 3d ad 61 14 3e ec c9 3b 3b
       0.13113816 0.034144685 0.14490385 0.002865429
000140 2f e9 bd bd 23 cd ca bb d2 c0 5b bd 43 3a 16 bd
       -0.09272992 -0.006189005 -0.053650685 -0.036676656
000150 88 0c aa bd a0 2d 16 be f7 21 4b 3c f0 ee c7 bb
       -0.083031714 -0.14665842 0.012398235 -0.0061014816
000160 57 eb 20 bc dd a3 80 bd 61 47 9c bd 22 4e 14 bd
       -0.009821734 -0.062812544 -0.07630802 -0.036207326
000170 a8 b6 bc 3d 12 38 90 3c ec 96 5a bd cb 13 d2 3d
       0.092145264 0.017604861 -0.053366587 0.102576815
000180 e8 d1 e5 3d d5 33 08 3e 54 8c 11 3e 5e ba 09 bd
       0.11221677 0.13301022 0.14213687 -0.033625
000190 43 9e 2b 3e 21 66 a2 bd 23 99 93 bd c3 e7 19 bd
       0.16759591 -0.07929636 -0.07206943 -0.03757454
0001a0 e6 fe 29 3d 70 bb 54 3d e8 ab fe 3d 2b 7f f5 3a
       0.041502856 0.051936567 0.12435132 0.0018729916
0001b0 eb 71 c6 3d 47 10 e5 3d be 8f 65 bd f0 97 17 be
       0.09689697 0.11184745 -0.056045286 -0.14804053
0001c0 c9 8f 2f be a7 6c 08 be 36 7c ef 3d a2 e7 09 be
       -0.17144693 -0.13322698 0.11693613 -0.13467267
0001d0 ae e4 2d be af d4 88 3d 7f 6a 8e 3c 54 8c de bd
       -0.16981766 0.06681191 0.017384766 -0.10866609
0001e0 7b c8 b4 bd 13 10 af 3d 1a c1 3b bd 7c f2 6c 3c
       -0.08827301 0.08547988 -0.045838453 0.01446211
0001f0 c3 04 fa bd 3b 4d 97 bd 75 96 c5 bc c3 21 01 be
       -0.122079395 -0.073877774 -0.024119595 -0.12610535
000200 a0 c6 0c bc c2 7a a9 3c a1 1b be bc b4 64 db 3d
       -0.008592278 0.020688418 -0.023206534 0.10712567
000210 3c 01 18 bd 82 9a 92 3d d5 43 09 3d 37 2c 3d bb
       -0.037110552 0.07158376 0.033511955 -0.0028865465
000220 86 dc d5 3d 78 57 df bd aa 86 88 3d e3 b8 1b be
       0.10442452 -0.10905355 0.0666631 -0.15207247
000230 57 d9 80 bd 95 37 95 bd c0 24 c9 3d d6 67 8d 38
       -0.06291454 -0.07285992 0.09821463 6.742745e-05
000240 f8 c1 95 bd 33 bd 52 bd 2e a7 7e 3d b1 55 2e bc
       -0.07312387 -0.051449966 0.062171154 -0.010640548
000250 d4 b5 18 bd ae c5 82 bd 2d 1a ae 3d c2 ea 11 bc
       -0.03728278 -0.06385361 0.085010864 -0.008906068
000260 78 76 77 bd 45 35 a9 bd 7c b4 c6 bd 42 2a f1 bc
       -0.060415715 -0.082621135 -0.097023934 -0.029439095
000270 0e a3 06 be 14 b3 cf bd a4 a4 09 3e 4a 69 ec 3c
       -0.13148138 -0.10141578 0.13441712 0.0288588
000280 9b a3 68 3d 88 f9 a5 3c ba 82 9f bc 58 79 f7 3d
       0.05679665 0.020260587 -0.019471515 0.12083691
000290 1c 2d e0 bb 81 89 e9 3d ac 9b 35 bd af be f2 3d
       -0.006841315 0.1140318 -0.044337913 0.11852776
0002a0 b6 67 ea bd af 1c 46 3d 68 cb c3 3d 47 8c f0 3d
       -0.114455625 0.0483672 0.09560281 0.11745506
0002b0 f3 d6 e8 3b 2a 5d d2 3c 85 f3 af 3d 51 57 0d 3e
       0.007105702 0.02567919 0.085913695 0.1380284
0002c0 d0 c8 c6 3d 65 30 4f bd fa 59 7c 3d b2 27 0a bd
       0.09706271 -0.050583262 0.061609246 -0.033729263
0002d0 f8 00 a0 3c ff 01 a7 3d fb a4 e4 3d f5 3a 0f be
       0.019531712 0.081546776 0.1116428 -0.13987334
0002e0 3c 25 e6 3d 29 35 be bd d3 75 c8 bd f1 16 f5 bc
       0.11237571 -0.09287483 -0.09788098 -0.029918166
0002f0 63 63 e4 3d f7 f0 8e 3c 8c be 2a be 82 e0 04 3d
       0.11151769 0.017448885 -0.1667425 0.03244067
000300 32 ac 19 3e dc 88 04 bd 83 a0 0a 3c 2a eb 4a bd
       0.15007094 -0.03235708 0.008461121 -0.049540676
000310 11 e0 77 3d 97 80 d2 3d 49 54 4a 3d bd 55 dc 3d
       0.06051642 0.10278433 0.049396787 0.10758541
000320 1b 8b 3f 3e a8 1f 9f 3c df 04 13 3e 0e a6 2a 3d
       0.18705408 0.019424275 0.14357327 0.04166227
000330 36 05 b9 3c c3 49 4c 3b 97 0a 6d 3d 0e 39 0c bc
       0.022585493 0.0031171895 0.057871427 -0.008558525
000340 d3 c6 9e 3b 5e ac 67 3d a2 9b b0 bd 5e 4d e5 3d
       0.004845479 0.056560867 -0.086234346 0.11196397
000350 1c 13 14 3d 8b 4f d5 3d f3 6d 02 3e db d9 cf 3d
       0.036151037 0.10415562 0.12737255 0.101489745
000360 1b cf b0 bd 5b 2a 64 3d 44 ae bb bb bf 7d 31 bd
       -0.08633252 0.055704456 -0.005727561 -0.04333281
000370 a9 ae 55 bd d5 38 67 bd 73 bb d6 3c 64 b6 07 be
       -0.052168522 -0.056450684 0.02621243 -0.1325317
000380 ba 54 c5 bd 2c f1 e3 bd a0 92 a3 bd 19 c2 8a 3d
       -0.09635301 -0.11129984 -0.07986951 0.067753024
000390 02 bb 22 bc b6 ce a9 bd 0c 89 48 3c 91 d3 d3 3c
       -0.009932281 -0.0829138 0.012239706 0.025857719
0003a0 47 e1 ad 3d 8a 62 4b bd f2 b2 d9 3d a6 ce c5 3d
       0.08490234 -0.04965452 0.10629834 0.09658556
0003b0 1a 8b 03 3e 03 0b eb bd ad 57 04 bd 68 ba d5 3c
       0.12846032 -0.1147671 -0.032310177 0.026089862
0003c0 9a a0 0b be 5b 2b f9 3d 92 d8 f5 3d ee 01 01 be
       -0.13635483 0.121664725 0.12004198 -0.12598392
0003d0 13 cf 82 bd a8 30 54 3b 87 97 98 bd da 1a 18 3e
       -0.063871525 0.0032377634 -0.074507765 0.14853993
0003e0 d8 64 69 3d 82 46 9f bd 0d 9e 90 bd 08 60 70 bd
       0.056980938 -0.0777712 -0.07061396 -0.058685333
0003f0 38 b0 8a 3d d1 4b d4 bd 98 3d 84 3d 33 01 6d 3d
       0.06771892 -0.10366023 0.064570606 0.05786247

rnn.weight_hh_l0 f4 [32, 32]
000000 8d b6 ed 3e b8 42 1d 3e ee de 5f bd 2a e5 04 3e
       0.46428338 0.15357482 -0.05465596 0.12978044
000010 7c 1b 56 bd 00 d5 08 3e 19 3e 35 be 25 99 91 bd
       -0.052272305 0.13362503 -0.1769947 -0.07109288
000020 ef dd 48 3e 5e 36 29 3d 1e 31 e3 bd 8e 88 9e 3d
       0.19615911 0.041311614 -0.11093353 0.077408895
000030 47 9d 2e be af 5c 8d 3d 23 87 38 3e 76 51 10 bd
       -0.17052184 0.069024436 0.180203 -0.035233937
000040 40 2f 22 be 10 7e 9b 3d af a1 a1 bd bc 6e f1 3d
       -0.15838337 0.07592404 -0.07892167 0.11788699
000050 fa 3f 10 3e 12 0b aa 3d ef 85 8a 3e 75 b8 17 3d
       0.14086905 0.08302893 0.27055308 0.037041146
000060 6a 43 38 3e 7e e9 6e 3d 3a 62 b6 bc ad 17 bb 3e
       0.17994466 0.058328144 -0.022263635 0.365415
000070 85 98 9a bd 01 c3 db 3d a0 f2 91 bd 6d c7 7d 3d
       -0.07548622 0.107305534 -0.07126355 0.061957765
000080 a8 02 08 3d 64 ee 0a bc b7 9c 90 3c 68 9f df 3d
       0.03320566 -0.008479688 0.017652852 0.10919076
000090 af 8d 98 bd 6c 1a 94 bd 37 5f cb bc 87 5e 9a 3d
       -0.07448899 -0.07231602 -0.024825675 0.07537561
0000a0 20 eb 55 bd bf a4 ca bd 9b 6b 45 be 92 47 7c 3d
       -0.052226186 -0.09894704 -0.1927933 0.061591692
0000b0 c9 77 ed 3d 8b 68 4a be 74 3b 33 3e 32 d5 20 3e
       0.11595113 -0.19766442 0.17503148 0.15706328
0000c0 a9 f7 e9 bd 1a 3b b5 3d 15 f4 15 be 78 46 8b 3d
       -0.114241906 0.08849163 -0.14643891 0.0680055
0000d0 f6 55 51 3d f9 aa 45 3e d6 e7 4d bd f8 e6 a5 bc
       0.05110737 0.19303502 -0.050269924 -0.020251736
0000e0 73 1a b0 bd bd 58 a6 3d e8 8a b0 3d cd 66 5c 3d
       -0.08598795 0.08122394 0.08620244 0.053808976
0000f0 66 4a 94 bd 2d 12 53 bd 4c 88 7f 3d c0 99 d0 bc
       -0.07240753 -0.051531006 0.062385842 -0.025463939
000100 d1 b7 21 be 93 36 02 be 1b 9c b0 3d 72 94 d7 3d
       -0.15792777 -0.12716131 0.08623525 0.105263606
000110 57 13 29 3e cc 8f 41 3e 26 33 58 3d d0 b1 fb bd
       0.16511284 0.1890251 0.052783154 -0.122897744
000120 28 11 00 bd a3 e2 ae 3d 27 48 63 3e 0a 47 d6 bd
       -0.03126636 0.08539321 0.22195493 -0.104627684
000130 8c fe b1 3d d6 1d b2 bc 59 9e e8 bd 53 70 35 be
       0.08691129 -0.021742743 -0.113583274 -0.1771863
000140 b4 7b df bd 0f b3 28 bd 86 ce a8 bd e2 6b 08 3e
       -0.109122664 -0.04118639 -0.08242516 0.13322404
000150 a9 33 98 3c ae 27 1f 3e cc d6 88 bd 9f 16 ae 3d
       0.018579321 0.1554248 -0.06681594 0.085004084
000160 70 10 88 3c 7c e4 f5 3c fa 72 fa bc 95 e2 2a be
       0.0166094 0.030016176 -0.030572403 -0.16687997
000170 cb 2c 19 3e 11 d6 cb bd d3 66 a7 bb a1 13 b6 3d
       0.14958493 -0.09952939 -0.005108693 0.08890463
000180 67 ef 0a 3e 2f 29 51 3d ce 72 9c 3d 66 32 33 3e
       0.13567887 0.051064666 0.07639085 0.17499694
000190 41 3d 43 3d 5e 4f 15 bc 55 c8 18 be 02 fe af bb
       0.04766584 -0.009113161 -0.1492017 -0.0053708563
0001a0 35 a6 8c be 9b 3d 67 bd 3a bf 5d 3d f3 45 84 3d
       -0.27470556 -0.056455236 0.054137446 0.06458654
0001b0 73 78 59 bd 26 10 99 3d 3f 5d 3b be 0a 16 01 be
       -0.053093385 0.07473783 -0.1829729 -0.12606063
0001c0 fa 37 7c bb cd ff 2e bd a7 fd 7c bc d8 2a 15 3e
       -0.0038485513 -0.04272442 -0.015441335 0.14567125
0001d0 27 73 65 bd 7d c6 d1 bd 80 6d 05 3e 0d 17 d8 bd
       -0.05601802 -0.10242937 0.13030052 -0.105512716
0001e0 18 09 87 bd 87 e9 48 3d c4 c6 bf 3d 89 8f 22 3e
       -0.06593531 0.049050834 0.093640834 0.15875067
0001f0 a0 00 60 be 99 e8 9f 3d c6 a3 10 be b8 be 06 3e
       -0.21875238 0.07808036 -0.14124975 0.13158691
000200 c3 34 0b 3e 15 61 4e bd f7 7b 61 bd 5a 2e 3f bc
       0.13594346 -0.050385553 -0.055049863 -0.011668766
000210 79 88 f1 3c 90 6c 94 bd 1c 16 23 3e a4 55 08 bd
       0.02948402 -0.07247269 0.15926403 -0.0332848
000220 01 7f 3c 3e 2f c8 b3 3d 74 88 52 3d 82 4a 9f bd
       0.18407823 0.08778416 0.051399663 -0.07777883
000230 2b 4f 7d 3d a1 06 d9 bd 1a 47 de bd cf 05 4c bc
       0.06184308 -0.105969675 -0.10853405 -0.012452557
000240 31 19 b5 3d 36 30 8c bc 55 c5 45 bc c3 d0 bd bd
       0.088426955 -0.017112833 -0.012070973 -0.09268334
000250 e9 74 74 bd e5 5d 79 bc 6a 12 2d be 1b ab eb bd
       -0.059681807 -0.01522014 -0.16901556 -0.11507245
000260 90 b5 05 3c 7b 0d 5c bd 89 30 8a 3c ef 75 8b 3b
       0.008160964 -0.053723793 0.016868846 0.004256002
000270 c9 53 83 bd c2 7e ce 3d 91 fa e8 bd c1 a5 13 3e
       -0.06412465 0.10082771 -0.11375917 0.14418699
000280 0f f7 c7 3d b9 bf 18 3e c0 7d 24 be 2f e2 02 3e
       0.097639196 0.14916886 -0.16063595 0.12781595
000290 9f 96 96 3b 2d 53 24 3e 6c c4 9b 3d ae 2f 8d 3d
       0.004595592 0.16047354 0.07605824 0.0689386
0002a0 ad fc 3a be fd 6c 55 bd 0a 5b 84 bd a6 3a fe bd
       -0.1826045 -0.052105892 -0.06462677 -0.1241353
0002b0 a9 2f 09 3e 6c f1 27 bd c6 b1 3b bd 0b 5e 81 be
       0.13397087 -0.041001722 -0.045823835 -0.25267062
0002c0 e6 a1 b6 bd 08 ab 44 be f7 a2 e1 bd 30 ca d6 3d
       -0.089175984 -0.19205868 -0.11017411 0.10487783
0002d0 af af 09 be 3d eb 79 bc f2 1e a3 bd 58 b6 04 be
       -0.13445924 -0.015253839 -0.07964887 -0.12960184
0002e0 f5 7f 47 bd 24 d2 7a bd 37 87 84 3d fb 8f c7 3d
       -0.048706014 -0.061235562 0.06471103 0.09744259
0002f0 6e 83 93 3d 50 f8 b3 bd ef 39 13 bd 4b b4 ad 3d
       0.072028026 -0.08787596 -0.03594392 0.08481654
000300 e0 64 40 bd f9 76 74 bd 67 fb f4 3d 2d 65 82 3d
       -0.046971202 -0.059683774 0.11962014 0.06366954
000310 11 7b 97 3d b8 25 46 3e 61 77 ba 3d 6b 5f 39 bd
       0.0739652 0.19350326 0.09104801 -0.045257013
000320 75 05 31 3e 2e 48 3c 3e c4 04 ee bd 5d 16 bf bd
       0.17287238 0.1838691 -0.11622003 -0.09330437
000330 3b 34 74 3d b6 72 61 be c8 d4 f3 bd f3 ed e7 bd
       0.059620123 -0.22016415 -0.11905819 -0.11324682
000340 74 ff 1b 3d e0 75 11 3e 8b 02 a8 3d c4 c9 c4 bd
       0.038085416 0.14205122 0.0820361 -0.09608796
000350 4f 14 10 3e 97 c2 ea bd 2f 82 91 bd b8 65 19 bd
       0.14070247 -0.11462896 -0.07104909 -0.037450522
000360 38 d6 e5 3c 48 67 f3 3d 44 7f c6 bd c7 e8 0c be
       0.028056249 0.11884934 -0.09692243 -0.13760673
000370 c7 79 33 3e c9 af 10 3d 15 c3 cf bd d8 e8 0a be
       0.17526923 0.03532389 -0.10144631 -0.13565385
000380 b0 d5 4f 3d df 93 18 bb de 11 88 bd 0d 48 f3 bc
       0.050740898 -0.0023281497 -0.06644033 -0.029697442
000390 2f e5 2a be b1 cb 19 bb 21 f5 ca bd c7 6d c6 3d
       -0.16688989 -0.0023467357 -0.09910036 0.09688907
0003a0 94 4e d2 bc c5 98 bc bd dc 01 b0 bb 54 8d cf bd
       -0.025672235 -0.09208826 -0.0053713154 -0.10134378
0003b0 e0 11 44 be cf bb 57 3d a3 47 0f be 66 b5 93 bd
       -0.19147444 0.052669343 -0.13992171 -0.072123334
0003c0 79 08 0e bd 79 b7 8e bd 79 a9 d5 ba 2b 44 a4 3d
       -0.03467605 -0.069685884 -0.0016301117 0.080208145
0003d0 b4 de dc 3d 85 8d 83 3d 08 e8 55 bd 3e d8 16 bd
       0.10784665 0.06423477 -0.052223235 -0.03682732
0003e0 c1 c6 0d 3e dd ff e0 3c 2d fc 2c 3e bd fa 1a be
       0.1384535 0.027465755 0.16893072 -0.15134712
0003f0 ce 2b dc 3d 7a 9f 15 be 37 72 3a bd 23 ea c7 3d
       0.107505426 -0.14611617 -0.04551908 0.09761455

rnn.bias_ih_l0 f4 [32]
000000 0a 69 9f 3d 16 1a 03 be e5 68 08 bd fb 5a e3 3d
       0.077837065 -0.1280292 -0.03330316 0.111013375
000010 ad 46 d4 bd 14 ab 96 bd 54 08 e2 bd a5 27 ea bd
       -0.10365043 -0.07356849 -0.11036745 -0.11433343
000020 c8 d8 46 3d c8 91 f0 3d bc d5 01 be e7 e9 a9 bd
       0.048546582 0.117465556 -0.1267919 -0.082965665
000030 79 df 65 3d a3 7a 02 3d c5 b8 91 3d a1 74 b2 b8
       0.056121323 0.031855237 0.0711532 -8.509425e-05
000040 79 cf fa 3d 16 37 90 bd 89 e5 9a 3d a0 3d af 3d
       0.122466035 -0.07041757 0.075633116 0.08556676
000050 de 38 0e bc 52 82 5a bd 38 96 b9 3c fb 9d d6 bd
       -0.00868055 -0.05334694 0.022654638 -0.10479351
000060 02 f3 dc bd c1 03 9e bd 39 64 07 bd 8f 3b 2e be
       -0.107885376 -0.0771556 -0.033054564 -0.17014907
000070 40 b4 14 be 53 1b 81 bd cf eb 95 bd c9 7d 09 3e
       -0.14521885 -0.0630404 -0.073203675 0.1342689

rnn.bias_hh_l0 f4 [32]
000000 bc a2 3f 3d 21 77 23 3e f0 ea b0 bd 42 9a 68 3d
       0.046786055 0.15963413 -0.08638561 0.056787737
000010 66 d1 e9 3d bd 45 00 3e e8 78 a1 3d 64 26 60 3c
       0.11416893 0.12526603 0.07884389 0.013681028
000020 71 67 c9 bd 2a 49 cb bd 7a f8 40 3d c2 53 d7 3d
       -0.09834183 -0.09926064 0.047111966 0.105140224
000030 19 e4 5a bd 98 b3 9d bd fc e9 5c 3b 54 a0 37 3d
       -0.053440187 -0.077002704 0.0033708801 0.044830635
000040 09 a9 ff 3d f5 52 99 3b 42 e3 ad 3d 18 e3 46 bd
       0.12483413 0.0046790787 0.084906116 -0.048556417
000050 3f 3b f3 bd 02 30 b2 3d dd eb 88 3c fe dd ec 3c
       -0.11876535 0.08700563 0.01671403 0.028914448
000060 3c b4 aa 3c a0 c4 fd 3d fa 9d 0d bd 7a a3 90 3d
       0.020837896 0.12391019 -0.034574486 0.07062431
000070 b7 37 b7 3d 80 c3 9a 3d 7f fc 31 bd ae 6c 99 bd
       0.08946174 0.0755682 -0.04345369 -0.07491432

rnn.weight_ih_l1 f4 [32, 32]
000000 4f 52 db bd 56 5c d1 bd 4b 7d 23 be bf 0b ee bc
       -0.107090585 -0.1022269 -0.15965764 -0.029058335
000010 5c ff 35 3e 3c ef a6 bc 83 16 19 be 65 eb 57 bd
       0.17773193 -0.020377748 -0.14949994 -0.052714724
000020 56 1f 9e 3d 06 46 ad 3d 9b fa 61 3c 1c 22 48 bd
       0.077208206 0.084606215 0.013792659 -0.048860654
000030 53 4a 4c bd dd 0f d1 3d f5 a7 e7 bd e2 fb 43 bb
       -0.04987557 0.10208104 -0.11311332 -0.0029904773
000040 a4 7e 02 3e 68 e6 21 be a0 8c e7 bd fa 28 ab bd
       0.12743622 -0.1581055 -0.11306119 -0.08357425
000050 85 fb 34 bd 5b 33 d1 bb 46 a3 06 be 30 e7 14 be
       -0.04418518 -0.006384296 -0.13148221 -0.14541316
000060 80 97 3f bd 62 03 ed 3c 4d 2e b9 3d f0 e0 0b be
       -0.04677534 0.028932277 0.09042034 -0.13660026
000070 40 30 de 3d e2 34 a4 bd 79 17 fd 3c f8 28 e4 3d
       0.10849047 -0.08017899 0.030894982 0.11140627
000080 13 e3 3f be 39 53 15 3e c3 75 b5 bd 0f 8a 2a be
       -0.18738966 0.14582528 -0.08860352 -0.16654228
000090 ab 15 54 3d 09 a0 84 bd 1c 34 6a 3d 21 93 fb bd
       0.051778477 -0.06475837 0.0571786 -0.12283922
0000a0 9c b6 37 3e bf 32 26 bd 2b 56 06 3e da 59 f9 3d
       0.17940754 -0.04057574 0.13118808 0.12175341
0000b0 d8 a1 0b 3e 3a 22 12 be 1c 8c 80 bd 94 74 b7 bd
       0.13635957 -0.14270869 -0.06276724 -0.089577824
0000c0 fa ca 06 3e 47 32 65 bc 84 ab 30 bb a6 fb 2a be
       0.13163367 -0.013989038 -0.00269577 -0.16697559
0000d0 bb 44 f4 3d 28 22 c8 bd fd a8 3e bd f9 6d ea 3d
       0.11927172 -0.0977214 -0.04654788 0.11446757
0000e0 d4 f2 2b bc 63 f5 e1 bc a2 1c 3a 3d f0 a4 3a bc
       -0.010494906 -0.02758283 0.045437463 -0.011391863
0000f0 bf 75 9b 3d 1e f5 04 be 44 3d cf 3c d0 45 0d be
       0.07590818 -0.1298413 0.025297768 -0.13796163
000100 29 40 6c be d3 e1 ec 3d 02 6f 71 3d 1e e3 e9 3d
       -0.2307135 0.1156651 0.058943756 0.11420272
000110 a3 66 14 be 5b 69 fa bd ea a3 f3 bd 59 52 9d bd
       -0.14492278 -0.12227126 -0.118964985 -0.07681722
000120 18 20 02 bd fe 98 89 bd 2c 18 8a bd 5a 5f dc 3d
       -0.03176889 -0.06718634 -0.06742892 0.10760374
000130 30 f5 ca bc 1d 38 fa bd 59 bf 9b bd 5b 94 12 bd
       -0.024775118 -0.12217734 -0.07604856 -0.035786014
000140 7b 33 b8 bd 63 94 0a 3e 91 17 10 bc 6c bc 1e 3e
       -0.08994194 0.13533168 -0.008794681 0.15501565
000150 f5 10 8b 3d ae e8 21 be ba d0 be bd c1 46 94 bd
       0.06790344 -0.15811417 -0.09317155 -0.07240058
000160 17 fc 6b bd 0b bf b3 3c 8c 05 0a be f9 cd 81 3d
       -0.05761346 0.021941682 -0.13478678 0.06338114
000170 07 90 36 3d 15 b0 d4 3d 06 ab 04 3d 20 d6 ea bd
       0.04457095 0.103851475 0.032389663 -0.11466622
000180 86 8b 8b 3c c8 32 20 be ad 38 aa bd 70 3d b3 3d
       0.017034303 -0.15644372 -0.08311591 0.08751953
000190 89 f2 50 bd 45 a4 f9 bd 6c 49 a6 3d 0c 7a 82 3d
       -0.05101255 -0.12189535 0.08119473 0.06370935
0001a0 91 5b 1e be e5 07 a9 bc 24 60 0b 3e ce 91 f5 bc
       -0.15464617 -0.020633647 0.13610893 -0.029976752
0001b0 b0 71 b3 bd f6 4c a1 3d cb c1 de 3c 4d 4f 1c 3d
       -0.087619185 0.07876007 0.027192017 0.038161565
0001c0 74 78 15 3e 73 83 3e 3c 03 d8 60 3c 1e 7a 03 3e
       0.1459673 0.01162802 0.013723376 0.12839553
0001d0 9f 43 24 3e 02 b1 80 bc 71 22 60 bd 9d d2 d6 3d
       0.1604142 -0.015709404 -0.054720346 0.1048939
0001e0 42 3a 8e 3d d2 cf 04 3d f2 0b 80 3d e3 fe 85 3d
       0.069447055 0.032424755 0.062522784 0.065427564
0001f0 f6 7a d6 3b 43 1d 68 3c 19 3a 84 bd 50 60 28 bc
       0.00654542 0.014167133 -0.06456394 -0.010276869
000200 5b c7 99 3d 19 8c df bd 4f f7 e0 bc be 84 6b bd
       0.07508727 -0.109153934 -0.027461676 -0.05749964
000210 3b 7e b7 3d 62 bc f6 3c 30 7e 8f 3d 18 28 9f bd
       0.089596234 0.030119125 0.0700649 -0.07771319
000220 20 35 12 bd 93 66 37 3e 83 21 c6 3d a8 b0 d9 3d
       -0.035695195 0.17910223 0.096743606 0.10629398
000230 a2 24 e2 bc 2b cd 59 3d 93 46 5b 3e e1 81 36 bd
       -0.027605359 0.05317418 0.2141364 -0.044557456
000240 75 92 06 be cf fd 6c 3d 48 a0 c2 bc 5b a1 5a bc
       -0.13141806 0.05785924 -0.023758069 -0.013344134
000250 6c 7e c1 bd 21 40 a3 3d c7 47 01 be d9 d3 d9 bc
       -0.09447941 0.07971216 -0.12625037 -0.026590275
000260 55 e9 9b 3d 2f 68 2c be f0 f7 31 3c ee dd b4 3d
       0.07612864 -0.16836618 0.010862336 0.08831392
000270 f6 d1 ca 3d 4e c2 a4 3d 3c de 80 3d bb 99 25 be
       0.09903328 0.08044873 0.06292388 -0.16171925
000280 8c b1 bc bd 9f 27 56 bd a6 a4 2a be 81 4f 77 bd
       -0.09213552 -0.05228388 -0.16664371 -0.060378555
000290 ad 32 07 be 2a ce f1 3b fb bc a0 3d ff b3 9e bd
       -0.13202925 0.007379313 0.07848545 -0.07749175
0002a0 37 ac 4c 3d 02 35 b7 3d cb 8a 06 3e 5e 4f a9 bd
       0.049968924 0.08945657 0.13138883 -0.08267091
0002b0 02 dc 2d 3d 01 a8 0a be 76 70 1e be 9a 94 bf 3d
       0.042446144 -0.13540651 -0.15472588 0.093545154
0002c0 b3 4b a0 bc 93 65 5f 3d be d0 d4 3d 1f fe 12 3e
       -0.019567346 0.054540228 0.10391377 0.14354752
0002d0 cd 08 03 3e 17 ba 00 bd d9 c3 db 3d 6e 3d 83 3c
       0.12796326 -0.03142747 0.10730714 0.016020503
0002e0 c4 5b 0f bd 86 be 91 3c e9 76 04 be 9c 39 53 3d
       -0.034999624 0.017791044 -0.12935986 0.051568612
0002f0 17 a4 35 bc ff e5 d7 3b 42 ae ad 3c a6 0d 21 3e
       -0.011086485 0.006588697 0.021201257 0.15727863
000300 83 a4 c0 bc f6 db c3 bc 2a 7c 4c 3d 15 24 0f be
       -0.023515945 -0.023908596 0.0499231 -0.13978608
000310 27 f6 f3 3d f9 7c d5 3d 6b 79 dc 3d 83 55 88 bc
       0.11912184 0.10424227 0.10765346 -0.016642338
000320 e4 13 2f be e1 90 91 ba 23 7e d7 3b 07 7d 19 3c
       -0.17097431 -0.0011105799 0.006576316 0.009368188
000330 c7 d4 04 be 29 d6 0c 3e 31 76 17 bc 62 cc 32 bd
       -0.12971793 0.1375357 -0.009244488 -0.043651946
000340 a6 53 56 3d fe 20 21 be 16 48 e0 bd e7 43 d7 3d
       0.052325867 -0.15735242 -0.10951249 0.10510998
000350 79 84 f2 3c 32 a2 0b 3e 7a d3 3c be 9f e2 9e ba
       0.029604184 0.13636091 -0.18440047 -0.0012121982
000360 0a 2f ab 3d 3a c3 09 be 10 78 7a 3d af bf ec bd
       0.08358581 -0.1345338 0.061149657 -0.11559998
000370 64 70 09 be 5e ac 98 bd 5d 4a 8e 3d f2 63 38 3e
       -0.1342178 -0.074547514 0.069477774 0.18006876
000380 77 07 49 3d 53 61 1d 3e 2c 88 7e bd f7 0f 8f 3d
       0.049079385 0.15369157 -0.062141582 0.06985467
000390 21 27 00 bd 74 99 f5 bd a4 a2 5b bd 4f 18 d2 bd
       -0.031287316 -0.119921595 -0.053621903 -0.10258543
0003a0 7e aa c2 bc ba f7 1d bc 2e f4 24 be 8c 06 d0 3d
       -0.023762938 -0.009641582 -0.16108772 0.10157499
0003b0 e9 a7 63 3d bf c9 bf 3c 48 13 df 3c f3 10 08 3e
       0.055580053 0.02341163 0.027230874 0.13287716
0003c0 45 ef c4 3d 63 db 82 bc 5c a8 52 bd 2c 88 44 bd
       0.096159495 -0.015973752 -0.05143009 -0.047981426
0003d0 42 ce 8e bd 53 4b 13 be 8c 13 93 3c 17 dc 50 3d
       -0.06972934 -0.14384203 0.017953657 0.050991144
0003e0 03 23 02 bd 24 e4 cb bc 43 b2 c7 3d 19 b5 37 bd
       -0.03177167 -0.02488906 0.097507976 -0.044850443
0003f0 cc ff 57 be 0a 7b 2a 3c e6 4d 27 3e b9 b2 84 3b
       -0.21093673 0.010405311 0.1633831 0.0040496257

rnn.weight_hh_l1 f4 [32, 32]
000000 67 00 db 3d 1c 16 ef 3d 99 26 96 bd 02 a9 13 be
       0.10693436 0.11674139 -0.07331581 -0.1441994
000010 3f d4 98 3d bc ed fc 3c ef 3d 40 be 8e 01 af 3d
       0.07462358 0.03087508 -0.18773626 0.085452184
000020 f9 10 ba 3d 9a 13 05 3b 51 4f 9f bd 30 0a d0 bd
       0.090852685 0.0020305873 -0.077788 -0.10158193
000030 d8 e5 aa ba 95 f0 0e be 1f 6c 7a 3b 38 2a c3 3d
       -0.001303847 -0.13958962 0.0038211418 0.09529537
000040 b2 1c d9 3d 5f 3c 8c 3d fc 8a 32 be fd 4f 00 3e
       0.10601176 0.06847452 -0.17435831 0.12530513
000050 c5 1d 55 be 9a dd 96 3d 1b c0 b2 3d ff 58 ab bd
       -0.20812137 0.07366486 0.087280475 -0.08366584
000060 1b 04 9b bd cc 01 87 bd ad 0c 13 3c c7 4f 10 be
       -0.075691424 -0.065921396 0.00897519 -0.14092933
000070 32 b1 2a be d5 b7 2e 3e 35 7a b8 3c e5 69 72 3d
       -0.16669157 0.17062314 0.02251921 0.05918302
000080 65 a3 0a be 04 d0 51 3e 0a 90 6f 3d ba 99 0d be
       -0.13538893 0.20489508 0.058486976 -0.13828173
000090 c7 d4 fc 3c 82 09 48 3e 33 6a 55 3d 6e 08 22 be
       0.030863179 0.19534877 0.052103233 -0.15823528
0000a0 0e 38 b9 bd 25 37 8a 3d 9a ab ba bd c5 cf e0 3c
       -0.09043895 0.06748799 -0.09114762 0.027442822
0000b0 69 fd 52 3d f7 14 c1 3d 19 e5 fc bd 68 51 12 3d
       0.051511202 0.09427827 -0.123483844 0.035722166
0000c0 0d c2 49 3e 09 ec 6c 3d b5 88 41 3e 1a ae 55 bd
       0.19702931 0.05784229 0.18899806 -0.05216799
0000d0 e1 ed a3 3d 89 d8 18 3d b6 3e 5a bc d3 d4 8d bd
       0.08004356 0.03731588 -0.0133206155 -0.069253586
0000e0 4c 04 58 3d d3 03 d7 3d 45 80 5f 3d d5 14 7e bd
       0.052738473 0.10498776 0.054565687 -0.062031586
0000f0 1c b3 ac 3c 98 60 d8 bb 6b 5e bc bc d3 9e 0a bd
       0.0210815 -0.0066033117 -0.02299424 -0.033842873
000100 85 1b d5 3d 69 d3 e3 3c 80 18 f0 bd 4c dc 33 be
       0.104056396 0.02781077 -0.11723423 -0.17564505
000110 43 2d 0f 3e 66 b7 4a 3b 06 17 69 bb 2b 2b 8a 3d
       0.1398211 0.0030932068 -0.0035566702 0.06746515
000120 f8 a1 db 3c c0 e6 7a 3d 74 5b 29 3e b1 48 0e 3d
       0.026810631 0.061255217 0.16538793 0.034737293
000130 cc 08 b4 bd 52 69 15 3d fd 06 da 3d 80 57 01 be
       -0.0879074 0.036477394 0.10645864 -0.12631035
000140 e7 97 81 bd d5 45 28 3e 05 cc fa bd 8c 82 90 3c
       -0.06327801 0.16432889 -0.12245945 0.017640375
000150 fb d2 c4 bd 5d 91 66 bd 1c ad 43 3e 1a 7e c9 3d
       -0.09610554 -0.056290973 0.19109005 0.09838505
000160 d0 d6 1b 3e 7e c9 e5 bd a8 e6 f1 3c 04 99 c6 3d
       0.15218663 -0.11220072 0.02952893 0.09697154
000170 8a 25 e8 bd 1f 3b 04 be 6a 4e 81 be 73 bd d7 bc
       -0.11335285 -0.12913178 -0.25255138 -0.026335454
000180 bb 56 58 3c ff 4a 20 bd 4f b2 ca 3d bb f2 3d 3e
       0.013204272 -0.03913402 0.09897291 0.18549626
000190 59 df 85 bd ce a0 34 3e a0 e7 37 3d 44 6e 52 bc
       -0.06536741 0.17639467 0.04489863 -0.012843672
0001a0 d8 62 99 3c 0d 50 21 be b6 84 ef bd 0d db 29 bd
       0.01872389 -0.15753193 -0.116952345 -0.04146867
0001b0 ef 62 27 3d 7e 5b 26 3e cb ab c5 bd 8c 2a 59 bd
       0.040865835 0.16245839 -0.096519075 -0.05301909
0001c0 77 18 f1 3d 84 a5 a3 3d 3b f9 94 3d 3b c7 de bd
       0.117722444 0.07990554 0.072740994 -0.10877844
0001d0 4c 39 38 3e e5 4c 0f 3e 0e e4 3a be 5e a8 07 be
       0.17990607 0.13994177 -0.18251058 -0.1324782
0001e0 18 9f be bd fb ae 10 3d 1f 96 b8 3d b7 3c 4f 3e
       -0.093076885 0.035323124 0.09013008 0.20238005
0001f0 cd b4 bb 3c 39 bf 48 be 85 cb 24 be 39 0c 5a 3c
       0.022913361 -0.19604196 -0.16093262 0.013308578
000200 19 42 54 bd 26 d8 f5 3d a1 c4 8e bd 20 a4 fd bc
       -0.051820848 0.12004118 -0.06971098 -0.03096205
000210 e7 1e bd 3d dc 42 1d 3a 45 a1 3a bd db 0c e9 3d
       0.0923441 0.00059990375 -0.045563955 0.11379405
000220 75 20 44 be ef 8c 6d be d9 04 e3 3d 01 e1 ed 3a
       -0.19153006 -0.23198293 0.11084909 0.0018148721
000230 74 fb 12 3e 3d e7 20 3e 71 0d f3 3d 21 6c ed 3c
       0.14353734 0.1571321 0.11867798 0.028982224
000240 44 4e 45 3e 5a ea 41 bc 54 0d 02 3e f4 18 12 3e
       0.19268137 -0.011835659 0.12700397 0.14267331
000250 3c d1 82 3d ef dd 72 3d 4f c6 13 3e 67 95 46 3a
       0.063875645 0.059293684 0.14431117 0.0007575363
000260 dd ec 2e bd 6f 94 ae 3d 65 c5 36 3e 07 dd 67 3c
       -0.04270636 0.08524405 0.17848738 0.014151818
000270 53 4d bf bd 08 6b ac bb 52 0a 11 3e af e3 97 3d
       -0.0934092 -0.0052617826 0.14164093 0.07416474
000280 bc 07 8f 3d 0c dc 21 be 5d 2e 9b bb 90 51 29 3d
       0.06983897 -0.15806597 -0.0047357515 0.04133755
000290 f0 d4 89 3d e5 e5 85 3d 37 fb 4b bd d8 72 37 3e
       0.06730068 0.065379895 -0.049800124 0.17914903
0002a0 89 ed 46 3d 9f d9 84 3d ca 25 50 3e 05 48 1d be
       0.048566375 0.064868204 0.20326915 -0.15359505
0002b0 87 07 c2 bd 96 af 9b 3d c1 d3 6f be 5b 66 9c bd
       -0.09474092 0.0760185 -0.23420621 -0.0763671
0002c0 d5 c8 68 3c 69 f7 ce 3d 90 33 c1 bb d5 e1 95 3d
       0.014208038 0.101057835 -0.0058960393 0.07318465
0002d0 68 52 e2 bd db c6 c1 3d db ea ab bd 59 8e bc 3c
       -0.11050874 0.09461757 -0.083944045 0.023017095
0002e0 54 57 70 3d e8 75 91 bd 2c cb 19 3d 32 77 37 be
       0.058677033 -0.07102567 0.037547275 -0.17916563
0002f0 05 54 f4 3d 76 cb d2 3d 92 52 b3 3c 43 c2 8b be
       0.11930088 0.10292713 0.021889959 -0.27296647
000300 0e 1a 7f 3c 2b 8c f0 3d a1 e7 97 3d be 13 43 be
       0.015570177 0.11745485 0.074172266 -0.190505
000310 df e9 60 ba a7 2c a0 3b 84 5b e6 3d 69 66 21 be
       -0.00085797714 0.0048881355 0.11247924 -0.15761723
000320 f5 8c 79 3c 92 a4 b8 bc 2d aa a1 bd 36 2b 82 3d
       0.015231361 -0.02253941 -0.078937866 0.06355898
000330 8e 3d bb bd 4b ca 68 be 9d b8 97 be cc f5 01 be
       -0.091426 -0.22733419 -0.29633036 -0.1269142
000340 19 4c 82 3d 43 e4 2c bd cf f2 40 3e 59 e4 0d 3c
       0.06362171 -0.042209875 0.18842624 0.008660399
000350 b2 4d 93 3c 9d c5 48 3d 4b 5e 28 3c 56 2d a5 bd
       0.017981384 0.049016584 0.010276387 -0.08065288
000360 dc a8 2a 3d fc aa 39 3e 94 4f d8 bd b3 ce 5a 3d
       0.041664943 0.18131632 -0.10562053 0.05341978
000370 8e 25 1d be 6b 00 06 be 52 8b f7 3c 29 a4 c5 3d
       -0.15346357 -0.13086097 0.0302178 0.09650452
000380 da 7d 9c bd b1 b5 29 3b 3e df 15 3e 29 3d 26 bd
       -0.07641192 0.002589565 0.14635941 -0.04058567
000390 b4 63 37 3b 8c d6 3b be da 04 0d be f8 9c d8 bc
       0.0027983012 -0.18343562 -0.13771382 -0.026442036
0003a0 03 3e 47 be 19 e1 02 be d4 76 23 3d 3f 1c af bd
       -0.1945725 -0.1278118 0.039908245 -0.085503094
0003b0 40 6e 68 3e bb 89 aa 3d 63 f7 ff bd 4f b1 a9 bd
       0.22698307 0.08327051 -0.12498357 -0.08285772
0003c0 a9 60 15 be 7b 35 4d 3d a9 a3 c8 bd 5f c9 2d be
       -0.14587654 0.05009983 -0.09796841 -0.16971348
0003d0 27 96 5f 3c 5b 4a 99 bd 1d 30 0a 3e 14 f2 30 be
       0.013646639 -0.07484885 0.13494916 -0.17279845
0003e0 38 84 27 be f9 08 01 3e 13 6f 1a be 37 32 23 be
       -0.16359031 0.12601079 -0.15081434 -0.15937124
0003f0 ec f2 21 3e c9 91 01 3e d2 e8 55 3e 51 6f 89 bd
       0.15815324 0.12653269 0.20889595 -0.06710685

rnn.bias_ih_l1 f4 [32]
000000 a4 6e fb 3d 39 12 11 3b 66 7c 54 bb 7c da d1 bd
       0.122769624 0.0022136106 -0.003242278 -0.10246751
000010 b4 80 f1 3d 3e e7 a3 3d 8d 68 0e 3e 79 6a 25 3d
       0.11792126 0.0800309 0.1390707 0.040384743
000020 e8 61 1e be f0 f1 99 bb 2e 2e 66 3d 43 5a 7d 3c
       -0.15467036 -0.0046980307 0.056196384 0.015463415
000030 67 69 a8 3d d5 39 a7 bd f0 40 c2 bd ed 4a 22 3e
       0.08223229 -0.081653275 -0.09485042 0.15848894
000040 a9 a6 c3 bd 27 eb a0 3c ad 1e 92 bd 13 db ed bc
       -0.09553272 0.01964338 -0.07134757 -0.029035127
000050 05 79 05 3e 2e d5 db bc d6 0c 0a be 7b 50 f1 bc
       0.13034447 -0.02683505 -0.13481459 -0.029457321
000060 27 f0 a4 bd 4b 22 0b 3e 26 c5 a1 3d 87 52 a0 bd
       -0.08053618 0.135873 0.07898931 -0.07828241
000070 68 3e c6 3d 7a e6 43 be 6e 9f 9e bc 7a 13 0a 3d
       0.09679872 -0.19130889 -0.019363131 0.03370998

rnn.bias_hh_l1 f4 [32]
000000 f7 32 ca bd de 4e d4 3d 99 d7 79 bb be 67 d5 bd
       -0.09873002 0.10366605 -0.003812289 -0.10420178
000010 5c 92 15 be be 63 d5 bb b7 4e 24 be 56 d0 3f 3d
       -0.14606613 -0.0065121343 -0.16045652 0.046829544
000020 b2 7c dd 3d 78 90 c6 bc c2 0b a7 3d e2 7a bb bd
       0.10814799 -0.02423881 0.081565395 -0.091542974
000030 6b a4 82 3d a8 3f 1e 3d 02 a8 e9 3d 84 6f 30 be
       0.063790165 0.038634926 0.11408998 -0.1723004
000040 e9 8d 58 bd ce 34 8d bd 78 88 3f bc 64 c6 af bd
       -0.05286971 -0.06894837 -0.0116902515 -0.08582762
000050 cc 79 c2 bd 96 c7 2a 3d f5 1e 36 3b 30 66 3a 3e
       -0.09495887 0.041694246 0.0027789448 0.18203044
000060 c8 0c 2a bd 77 fd ce bc 65 a5 33 bc 1a 68 c6 3d
       -0.041516095 -0.025267346 -0.010964726 0.096878245
000070 24 8d 07 3e ba a4 07 3e f9 a5 80 3d 2b ab bd bd
       0.13237435 0.13246432 0.06281657 -0.09261163

rnn.weight_ih_l2 f4 [32, 32]
000000 4d 43 09 3e 76 4d ca bd 32 5e 4b be cc c6 56 bd
       0.1340458 -0.09878056 -0.19860151 -0.05243568
000010 00 d4 0f 3e de a8 34 3e e3 79 9a 3c ba d6 25 be
       0.14045715 0.17642543 0.018856948 -0.16195193
000020 2e aa 6c bd cd 20 00 3e f5 ee 65 bb a2 54 d1 bd
       -0.057779483 0.12512513 -0.0035085056 -0.102212206
000030 cc 3f 50 bd 16 65 57 3e f3 c4 53 3d a6 98 8d bd
       -0.05084209 0.21034655 0.051701497 -0.06913881
000040 50 97 a6 3b 11 d3 39 be c4 f2 dd bc f6 d1 07 3d
       0.005083956 -0.18146922 -0.027093299 0.03315922
000050 13 52 de bd eb e4 e7 bd 15 d0 79 bd 3f e0 b9 3d
       -0.10855498 -0.113229595 -0.060989458 0.09075975
000060 3d ff 06 3d 4c 8c 6e bd 0f 99 e1 3d 2e b3 4c be
       0.032958258 -0.058239266 0.11015522 -0.19990227
000070 61 7d 0e 3e 38 09 20 3d 1e 3a 73 3e 9f 2c e8 3d
       0.13915016 0.03907129 0.23752639 0.11336636
000080 b4 52 cc 3c bd fc 8f 3d 46 38 1a be 32 f6 b0 3d
       0.02494178 0.07030628 -0.15060529 0.08640708
000090 16 4d d7 3d 9e 1b a7 3d 3e 3a 50 be af 5b 8d bd
       0.1051275 0.081595644 -0.20334718 -0.06902253
0000a0 7e 92 42 3c f9 24 1b 3e 44 86 17 bd 24 73 c3 bd
       0.011875747 0.15150823 -0.03699328 -0.09543446
0000b0 1c a5 63 bd 9c 6c 03 3e 6f c0 85 3d c2 86 20 be
       -0.055577382 0.128344 0.065308444 -0.15676406
0000c0 0a 27 13 3e 7e c2 1d 3d b5 0e 27 3d 48 e2 9a bd
       0.14370361 0.03851556 0.04078551 -0.07562691
0000d0 bf 6e a7 bd 0d e0 d1 3d 04 2d 0c bc 1b 55 33 3e
       -0.0817542 0.102478124 -0.008555654 0.17512934
0000e0 50 3b dd 3d 7f 09 a7 bd 9a 1c e0 3d 12 a6 e3 3d
       0.108023286 -0.08156108 0.10942955 0.1111566
0000f0 7f f1 48 3c 02 b3 5c 3e e1 b1 87 3d 06 7c c5 3d
       0.012264608 0.21552661 0.066257246 0.09642796
000100 52 6d 09 3c f8 2b f2 bd 2e 4d d5 3d 7e 52 ea bd
       0.00838788 -0.118247926 0.104151115 -0.114415154
000110 87 06 02 3e e9 bc 07 3e 34 e2 00 be 01 3c b6 3d
       0.12697802 0.13255657 -0.1258629 0.088981636
000120 55 8e 0e 3e 3d 9a 5f 3d ce 0b f9 3d 1b 00 ac bd
       0.13921483 0.054590452 0.12160455 -0.083984576
000130 d0 3c d4 bb 55 56 2a 3e 4a 68 1b 3d b8 53 af 3d
       -0.006476976 0.16634496 0.037941255 0.0856089
000140 b4 a3 f7 3d 2f 0c ce bd a2 54 fb bd 72 a7 d4 bb
       0.12091771 -0.100609176 -0.12272002 -0.0064896876
000150 5b 8e e1 bc 43 72 9c bd 57 e9 10 bd ba 88 5e 3d
       -0.0275337 -0.07638981 -0.03537878 0.05432961
000160 d1 93 81 bd d6 5d 2c 3e 40 5d d0 3d 0c ad e7 bd
       -0.06327022 0.1683267 0.10174036 -0.11312303
000170 04 db fe bd b3 3c e5 bd 5f d6 16 3d 08 f1 36 bd
       -0.12444118 -0.11193218 0.036825534 -0.04466346
000180 e2 f8 98 3d 12 f9 65 bd 8c 64 f5 3d c0 e3 05 3e
       0.07469346 -0.056145735 0.119820684 0.13075161
000190 9e 36 4a bd e7 0d e7 bd e7 92 55 bc 72 8f 16 be
       -0.049368493 -0.112819485 -0.0130355125 -0.14703158
0001a0 bb 41 b3 bd 34 b7 f2 3c e5 f9 a8 bc ee c9 eb 3d
       -0.087527715 0.029628374 -0.020626971 0.115131244
0001b0 50 da 16 bd 16 b5 75 3d fa 21 ce 3c a2 5a 31 3d
       -0.036829293 0.05998715 0.025162686 0.043299325
0001c0 44 d5 d6 bd 34 03 c6 3d 72 0d c5 3c 21 48 d6 bd
       -0.10489896 0.0966858 0.024054263 -0.10462976
0001d0 df 77 7a 3d 19 16 3d 3e b9 76 ac 3d 56 ee 6f 3d
       0.061149474 0.18465461 0.08421082 0.058576904
0001e0 b7 e4 a9 bd 49 af 62 bb f7 26 63 bd 5f 76 6a bc
       -0.08295577 -0.0034589341 -0.05545708 -0.014310448
0001f0 b0 bb f7 bd 85 e8 35 3d 40 ea c9 3d da d9 b4 bd
       -0.120963454 0.0444112 0.09859133 -0.088306144
000200 af b2 e9 3d 7d 72 22 3d 59 86 ff 3d 38 b4 b6 3d
       0.11411034 0.039659966 0.12476797 0.08921093
000210 b6 85 86 bc bf 08 63 3d d3 ba 62 bd c9 60 22 be
       -0.01642118 0.055428263 -0.05535395 -0.15857233
000220 e2 d5 4f 3d 52 c0 c5 bd 16 7f 0d be a5 dd e1 bd
       0.050741084 -0.09655823 -0.1381801 -0.110286035
000230 bc e8 d2 bd d5 b1 f9 3c 28 71 71 bc 01 e1 a2 3d
       -0.10298297 0.030480305 -0.014736451 0.07953072
000240 87 90 f0 bd f4 41 47 bd d4 0c da 3d 47 b1 24 3d
       -0.117463164 -0.048646882 0.10646978 0.040208127
000250 0a 40 19 be 6a e3 cd bd ca c7 d4 bd 54 a1 ee 3d
       -0.14965835 -0.100531414 -0.10389669 0.11651865
000260 c9 4e a8 3d 56 22 2a be d5 e7 2e bd 47 d0 3d 3e
       0.08218152 -0.1661466 -0.04270156 0.18536483
000270 e8 c4 dd 3d f8 2b 02 3d f7 eb 4b 3c d0 22 0d be
       0.108285725 0.031780213 0.012446395 -0.13782811
000280 d7 1b b2 bd 1f 2a 34 be 8d 96 32 bd a4 e7 64 bb
       -0.08696716 -0.17594193 -0.043600608 -0.0034928108
000290 da cd 8a bc 5d 74 20 3d c0 73 06 bd 42 84 e3 bd
       -0.01694386 0.039173473 -0.03282523 -0.111092106
0002a0 aa 3f cb 3d e8 d8 e6 3d 96 e6 ca bd 22 46 6b bd
       0.09924252 0.1127184 -0.09907262 -0.05743993
0002b0 f6 04 14 be ef 91 82 bd 4f 24 1c 3e e4 9e 55 bd
       -0.14455017 -0.06375491 0.15248226 -0.052153483
0002c0 0e d5 c6 3d d9 36 04 bd e3 8e 2f bd c4 26 00 3e
       0.09708606 -0.03227887 -0.042860877 0.12514788
0002d0 c8 31 d0 3d c0 a3 04 be 20 2b e0 3c b7 39 09 3c
       0.10165745 -0.1295309 0.027364314 0.008375577
0002e0 13 81 2e 3d e6 11 01 be 41 59 11 be fd 13 de bd
       0.042603564 -0.12604484 -0.14194204 -0.10843656
0002f0 78 4f d2 3c c1 e2 fd 3d 15 d0 81 bd d0 96 72 bd
       0.02567266 0.123967655 -0.063385166 -0.059225857
000300 f8 c1 5b bd 18 3c ff 3d 70 2e 62 3d 8b a4 4b be
       -0.05365178 0.12462634 0.055220068 -0.19886987
000310 1b 8f 4e 3d a9 04 97 bd f4 b5 2f bd 7e b9 20 3e
       0.050429445 -0.07373936 -0.042898133 0.1569576
000320 cf 05 b3 bc 0b 18 33 3e c5 45 da bd 9e 1e bb 3d
       -0.021853356 0.1748964 -0.10657839 0.09136699
000330 41 81 d8 3d 9d f4 bd 3b 21 61 98 3d 5f f0 a4 bd
       0.10571528 0.0057969824 0.07440401 -0.0805366
000340 29 da fa 3d 22 7c 05 be 01 9a ff bd 33 5f 85 bd
       0.12248642 -0.13035634 -0.12480546 -0.065122984
000350 0b 21 11 3b 9f f0 dd 3d c9 6d 29 3c 5b d1 af bd
       0.002214494 0.108369105 0.010341116 -0.08584853
000360 16 69 1a be 84 47 15 be a3 4e 0c be 1b 49 df 3d
       -0.1507915 -0.14578062 -0.13701873 0.10902616
000370 c3 5f 4d 3c 6c dc ed bd 3a 6e eb bc fc 41 58 3d
       0.012535038 -0.11614308 -0.028739084 0.052797303
000380 8a eb 9a bd fb a8 72 3d d2 71 77 bd e2 df ea bc
       -0.07564457 0.059243184 -0.060411282 -0.028671209
000390 41 3e 86 bd 2c 82 cf bd b6 41 a0 bd 75 98 b2 3d
       -0.06554843 -0.1013225 -0.07825033 0.08720485
0003a0 4f 7a ed bd 72 eb d4 bd 3a af e2 bc 8d 9b 04 3e
       -0.11595594 -0.1039647 -0.027671445 0.12949963
0003b0 c2 46 e4 3d a5 1f 00 bd 92 6e 4b 3d 40 23 23 be
       0.111463085 -0.03128018 0.049665995 -0.15931416
0003c0 b4 0e e7 bd 1d f5 1a be 25 59 6f 3d 17 b7 b8 bd
       -0.11282101 -0.15132566 0.058434624 -0.090192966
0003d0 b4 10 7e bd fd 6a 4b bc e8 00 1a 3d 22 f4 93 bd
       -0.062027648 -0.012415645 0.03759852 -0.07224299
0003e0 2a 3d 11 3e f6 88 2f 3e af 2e 9a 3d d0 dc fd 3d
       0.14183488 0.1714209 0.075284354 0.12395632
0003f0 46 a0 d0 3b 0b 14 51 3d 4e 38 68 3d 24 f0 f8 3d
       0.0063667623 0.051044505 0.05669432 0.12155178

rnn.weight_hh_l2 f4 [32, 32]
000000 ea 44 9b bd 2e d2 73 3d 19 e2 ac bd 8d e0 92 bc
       -0.07581504 0.059526615 -0.08441562 -0.01792934
000010 55 93 0b bd 46 f9 0b bd 00 06 cd bc 37 20 5d 3d
       -0.034076054 -0.034173273 -0.025027275 0.0539858
000020 b6 35 5d be 94 e7 9b bd db 6d bf bd d5 3b 22 be
       -0.2160252 -0.076125294 -0.09347125 -0.15843137
000030 06 36 6a bc 43 ab b1 bd 5b 88 92 3d c2 be 7c 3c
       -0.014295107 -0.08675244 0.07154914 0.01542634
000040 78 2f 21 3e 80 c4 c1 3c 2a 26 bb bb b0 98 c7 3d
       0.15740764 0.023653269 -0.0057113366 0.0974592
000050 fb 5d 14 be be d3 fd 3d 76 f0 28 3e 71 ce a5 bd
       -0.14488976 0.12393902 0.16497979 -0.08096016
000060 3e 64 ba bd 4f 94 33 be 64 ee 55 3d 11 b9 d4 bd
       -0.09101151 -0.17537044 0.0522293 -0.10386861
000070 1a e4 bf 3d c0 24 d8 bd 59 4c 40 bc f8 78 01 3e
       0.09369679 -0.105538845 -0.011736953 0.12643802
000080 92 57 40 3e 84 c6 8c bd fc c7 9f 3c e2 07 bd 3c
       0.18783405 -0.06873801 0.01950454 0.023075048
000090 ad 3a 0d be 73 18 e1 bd 31 b1 92 3b ac 58 06 3e
       -0.13791914 -0.109909914 0.0044766893 0.13119763
0000a0 d8 31 b7 bd ea d5 32 be 4c 58 e4 3d 0b 02 50 bc
       -0.08945054 -0.17464414 0.11149654 -0.0126958
0000b0 24 5a c7 bd e7 0f 38 3e 55 4b 22 be 4e 90 ae bd
       -0.0973399 0.17974816 -0.1584905 -0.08523618
0000c0 8e 04 cf bd 7a 2a 8c 3d 30 ce 78 bc bd 82 f4 bd
       -0.101082906 0.06844039 -0.015185878 -0.11938999
0000d0 18 c2 fd 3d 5c 85 d7 3d 66 0e ae be c6 49 20 be
       0.12390536 0.10523483 -0.3399536 -0.15653142
0000e0 31 3b ba 3d 7e 76 21 bd f3 44 39 3c cf 7f af 3d
       0.09093321 -0.039419644 0.011307943 0.085692994
0000f0 c5 5f 93 3a d6 7b 8e 3d b0 d1 ca 3d 01 65 2c be
       0.0011243752 0.069572136 0.09903276 -0.16835405
000100 e0 8d 86 3d e2 e4 12 bd 3f 6d 08 3e 83 f4 e0 3d
       0.06570029 -0.03586281 0.13322924 0.10984137
000110 7c 76 92 bd 9b 48 b9 3c ad 90 e3 3d 80 97 59 bc
       -0.07151505 0.022617629 0.11111579 -0.013280749
000120 2a 7e 3e 3d 83 a7 9a bc 5e ad db 3d 9c a7 05 3e
       0.04650704 -0.018878704 0.107264265 0.13052219
000130 ba 9d 17 bb d6 3b d6 bd 0f 35 d4 3d 29 fe 82 3d
       -0.0023134784 -0.104606315 0.103616826 0.063961335
000140 d2 ab 12 bd ce 0d 81 3d 16 0b 43 3d 45 05 93 bd
       -0.035808392 0.06301461 0.047617994 -0.071787395
000150 8c 92 9c bd 3a c9 59 3d 78 06 02 3e ac cd f4 bc
       -0.07645139 0.05317042 0.1269778 -0.029883228
000160 89 bc 5c 3d e8 0c 87 3d 19 59 29 3e a8 f4 93 3d
       0.05389074 0.065942585 0.16537894 0.07224399
000170 f3 a8 97 bd 4c df 98 bd 68 b2 09 be 1c 1b 19 b9
       -0.074052714 -0.074644655 -0.13446963 -0.00014601316
000180 c5 6d ab bd 3a 8e 06 bb df 50 60 3d 8d 14 e2 3c
       -0.08370546 -0.002053155 0.054764625 0.02759769
000190 14 e0 51 3c 9a b3 03 3e b3 a0 13 3e 9a 12 19 be
       0.012809772 0.12861481 0.1441677 -0.14948502
0001a0 d1 4f 02 3e fe bc 30 be 11 5e 0b 3e 0d fc af bd
       0.1272576 -0.17259595 0.13610102 -0.08592997
0001b0 52 22 f5 bd 18 f8 44 bd 8b 2f 68 bc 91 ad ab bd
       -0.11969437 -0.048088163 -0.014171491 -0.083827145
0001c0 06 42 34 3e ed ca 29 be 4c 4c 1f 3e 8a e8 26 be
       0.17603311 -0.16581316 0.15556449 -0.16299644
0001d0 09 6c 20 3e 0a 56 b6 bd ff c9 e3 bc e1 32 e9 3d
       0.15666212 -0.089031294 -0.02780628 0.113866575
0001e0 49 52 a2 bd 91 c2 1a 3e 99 09 bd bd ec cb 29 3e
       -0.07925851 0.15113284 -0.09230346 0.16581696
0001f0 c3 9b ba bd 10 34 4b 3d 1d c4 a7 bc 26 31 ee 3d
       -0.091117404 0.049610198 -0.020479256 0.11630468
000200 f8 ed b8 3d 62 01 9f 3d 79 82 3a 3d 80 de 44 3d
       0.09029764 0.077639356 0.045534585 0.048063755
000210 55 61 f8 bc e3 17 06 be 62 c7 e7 bc 76 ff 0d 3b
       -0.030319849 -0.1309505 -0.028293315 0.002166716
000220 22 2c 3f 3e ad 24 8b 3d 9d 45 19 3e 2f 0d 95 3d
       0.18669179 0.06794105 0.14967962 0.07277905
000230 35 d3 8c 3d b4 d8 f4 bd d2 9f c4 3d b7 51 1b 3e
       0.06876222 -0.11955395 0.09600796 0.1516789
000240 fc dc e7 3d 98 06 93 3c 8d 4e 85 bd 4b cb 8f bb
       0.11321446 0.01794748 -0.06509123 -0.004388248
000250 06 aa 08 be bc de 0e bb f4 d0 15 3e 64 49 cf bd
       -0.13346109 -0.002180024 0.1463049 -0.1012142
000260 3e e6 e9 3d 1c fc 3e 3d cf 35 dd bd 85 cc ae bd
       0.11420868 0.04662715 -0.10801279 -0.08535103
000270 56 09 e2 bd 3e 75 03 3d 08 b6 10 be df cb 0f 3e
       -0.11036937 0.032094233 -0.1413194 0.14042614
000280 cf ca 9a 3d 0b cd e8 bc 4c 63 21 3e 1b 69 60 bc
       0.07558214 -0.028418085 0.15760535 -0.013696934
000290 69 51 6b 3d fa 0f f4 bd ee 51 1b 3e 39 a1 95 bd
       0.057450686 -0.1191711 0.15167972 -0.073061414
0002a0 48 40 b5 3c ec 18 39 3e c6 26 32 3e a7 0a f8 bd
       0.022125378 0.18075913 0.17397603 -0.12111407
0002b0 f0 aa ff bd 9c 8a 03 3e 6b 7a be bd ae 1a 31 be
       -0.124837756 0.12845844 -0.09300693 -0.17295334
0002c0 b0 a0 98 bd eb ba 1e be 49 60 40 3e 1f a7 98 bd
       -0.07452524 -0.15500991 0.1878673 -0.07453751
0002d0 63 e4 10 bd 25 5b 06 be 1b fe 78 bb 31 97 23 3e
       -0.035374057 -0.13120706 -0.0037993256 0.15975644
0002e0 59 fa c7 bd 06 bf fe bc 9d c5 36 3d 0b 07 ee 3d
       -0.09764547 -0.031096946 0.044622052 0.11622437
0002f0 27 cd ff bb 8d 77 80 bd 91 96 63 3c 84 33 20 3d
       -0.0078064385 -0.062728025 0.013890878 0.03911163
000300 93 59 00 be 96 d4 24 3e 64 cd 85 bd 75 ff 25 be
       -0.1253417 0.1609672 -0.06533316 -0.1621073
000310 38 50 23 3d 22 40 e7 bc 5f e6 34 bc 28 d5 37 3c
       0.039871424 -0.028228823 -0.011041253 0.011220254
000320 60 62 a1 bd ca b8 ff 3d 0d a1 11 be f6 97 d6 bd
       -0.07880092 0.124864176 -0.14221592 -0.10478203
000330 61 b2 26 bd ad 95 0f 3e 9b 26 95 bd 37 e6 44 3e
       -0.04069746 0.1402194 -0.07282754 0.19228445
000340 bc e7 1a bb d3 b7 d5 3c a0 8e 68 be c7 42 33 bd
       -0.002363666 0.02608863 -0.22710657 -0.043764856
000350 4b 63 a6 bd a8 cb a3 bd 12 56 5f bb 6b 6c b3 3d
       -0.081244074 -0.07997829 -0.0034078402 0.087609135
000360 6c 0a 91 3d 1a 8e 14 be 19 b0 38 3d 17 8d b1 3d
       0.07082066 -0.14507332 0.045089815 0.08669489
000370 8b a2 ef bc e2 e9 12 3e a8 eb 85 3c 40 a3 a3 3d
       -0.029252311 0.14347032 0.016347721 0.07990122
000380 46 5a 60 3d fa 29 85 3d 02 4f d9 3c 14 52 f4 bd
       0.05477359 0.06502147 0.026526932 -0.11929718
000390 d7 d1 f7 3d 7f a5 d7 bd 63 1f 80 3d 35 52 ee bd
       0.12100571 -0.10529613 0.062559865 -0.116367735
0003a0 e7 40 d7 bd c6 09 82 bd 74 fb 0d 3e e3 d9 9e 3d
       -0.10510426 -0.063495204 0.13865453 0.07756402
0003b0 56 39 dc bd a6 0c 6e bd 1b 8a 82 3d f1 87 20 be
       -0.107531235 -0.05811753 0.06373998 -0.15676858
0003c0 b0 dd 0d 3e ee fa 93 bd 07 bc 12 be d6 56 57 bd
       0.13854098 -0.072255954 -0.14329539 -0.052573048
0003d0 d4 65 0b 3e 63 03 f7 bc e0 e2 a2 3d 04 12 a5 3d
       0.13613063 -0.030152982 0.07953429 0.08060077
0003e0 00 62 cc 3d 9f c7 50 3e d3 b7 aa bd 7f b4 36 be
       0.099796295 0.2038865 -0.08335843 -0.17842291
0003f0 f9 21 e8 bd 82 da 44 be b0 7c 17 be 99 ba be 3d
       -0.11334605 -0.19223979 -0.14793658 0.093129344

rnn.bias_ih_l2 f4 [32]
000000 27 e0 9a bd fb db ec 3d 65 63 06 be 45 0d 03 be
       -0.07562285 0.115653954 -0.13123854 -0.1279803
000010 aa 56 3c be 2a b2 06 3e 8d 0c 09 be 6f 5c f0 3c
       -0.18392435 0.13153902 -0.13383694 0.02934095
000020 23 ed 23 3e 28 90 f0 bd d4 78 1e 3d f6 81 ba bd
       0.16008429 -0.117462456 0.03868945 -0.09106819
000030 a4 ba 69 bd 6a 73 bf 3d a4 8b 05 3d 8c 1c 93 bd
       -0.05706276 0.09348185 0.032603875 -0.07183179
000040 6e 67 f2 3d ec 2b 8f 3c a0 8d 35 3d 1b 92 62 3d
       0.11836134 0.017476998 0.044324517 0.05531512
000050 5c 49 07 3e 7b 4e f8 3d 68 77 d2 bd bf 0f 3f 3d
       0.13211578 0.12124344 -0.10276681 0.046645876
000060 16 90 f2 3c 29 ef 35 be 9c ad e1 3c 9c f8 90 bd
       0.029609721 -0.17767014 0.027548604 -0.070786685
000070 82 3b fd bd f7 1f b4 3d 12 cb 1f 3e df b4 24 be
       -0.12364866 0.08795159 0.15604809 -0.16084622

rnn.bias_hh_l2 f4 [32]
000000 26 97 db 3c 76 23 76 bd 92 fa 1a 3d 68 04 aa bd
       0.026805472 -0.060092412 0.03783662 -0.08301622
000010 74 bb b3 3d 89 e4 24 3e 2c 1f b5 bd 26 3b 45 3c
       0.08775988 0.16102804 -0.08843836 0.012038028
000020 5f 2e 0a be 33 7e f3 3d 3b b8 16 3d 61 3b 9e bc
       -0.13494252 0.11889305 0.03679679 -0.019315423
000030 bb 52 6b bd b8 b0 da 3d e1 2a dc bd 99 ab 17 3e
       -0.057451945 0.10678238 -0.10750366 0.14811553
000040 a5 56 a8 3d be 00 e5 bb 3a 9d 7f 3d de c3 89 3d
       0.08219651 -0.006988614 0.062405802 0.06726812
000050 35 54 b4 3d bc eb 23 be 20 b9 9e 3d 44 8c 94 3d
       0.08805124 -0.16007894 0.077501535 0.07253316
000060 ac 40 8d 3a 49 2d 98 3c 9d b8 00 3e 81 7f fb bc
       0.001077672 0.018576281 0.12570424 -0.030700447
000070 f3 d1 2b 3c 16 68 c8 bd c0 b8 30 bd 79 27 47 bd
       0.0104870675 -0.09785478 -0.04314494 -0.04862163
