Supervised/00_exercises/lab_10/lightning_logs/version_4/checkpoints/epoch=19-step=7800.ckpt (torch, 146116 bytes, 66 tensors)

rnn.weight_ih_l0 f4 [32, 10]
0	0x3d9e52d5	0.07730643
1	0xbd8dd97c	-0.069262475
2	0x3e0e7ba8	0.13914359
3	0x3de55e4b	0.111996256
4	0x3e2dc962	0.16971353
5	0xbd907c45	-0.070549525
6	0x3d8df9c0	0.06932402
7	0x3d401482	0.046894558
8	0xbcf1f298	-0.029534623
9	0x3d447cd7	0.04797062
10	0xbe1626c2	-0.14663222
11	0x3d9143f8	0.07093042
12	0xbda43dfd	-0.08019636
13	0xbcced884	-0.025249727
14	0xbd2e993c	-0.042626604
15	0x3db4a8fd	0.088212945
16	0xbd893df6	-0.06701271
17	0xbd736c8c	-0.05942969
18	0x3c2019d5	0.009771784
19	0x3d3984df	0.04529273
20	0xbe4998cc	-0.19687194
21	0xbda6b5df	-0.08140158
22	0x3d7f4ac3	0.062327158
23	0x3cbdb7fa	0.023159016
24	0x3dfdf0e0	0.12399459
25	0x3b77f37c	0.0037834337
26	0x3d343e5d	0.044004787
27	0xbdbd7ef6	-0.092527315
28	0xbe6ba8c0	-0.23013592
29	0x3d99597d	0.07487772
30	0x3cd7e2e6	0.02635331
31	0x3dc777cf	0.097396486
32	0x3d686d0d	0.056744624
33	0x3d140a9a	0.036142923
34	0x3d287d69	0.041135225
35	0x3e1542c7	0.14576255
36	0x3e2a9c84	0.16661268
37	0xbd72f3bf	-0.059314486
38	0xba2bfd43	-0.0006560871
39	0xbc97ce29	-0.018530922
40	0xbc75840e	-0.014985098
41	0x3d90fa9e	0.070790514
42	0xbda56bac	-0.080771774
43	0xbdcd3619	-0.10020084
44	0x3cd324e6	0.02577443
45	0x3e07f276	0.13276085
46	0xbc4af59f	-0.012387662
47	0x3d731f7a	0.05935619
48	0xbdaeb033	-0.08529701
49	0xbddc0e82	-0.10744955
50	0xbe0dafdd	-0.13836618
51	0xbc52c41b	-0.012864138
52	0xbd976793	-0.07392802
53	0x3e24b8e7	0.1608616
54	0xbe210069	-0.15722813
55	0x3dc3172d	0.09525905
56	0xbdaf12c2	-0.085485
57	0xbcce3f8a	-0.025176782
58	0x3d099a87	0.033594634
59	0xbd545c7a	-0.051846005
60	0xbe103ab5	-0.14084895
61	0x3ddca1e1	0.107730635
62	0x3e0422b0	0.12903857
63	0xbc2e5520	-0.010640413
64	0xbc006a2e	-0.007837815
65	0x3e204f95	0.15655358
66	0x3daff0a7	0.08590823
67	0x3dc7b58b	0.097514234
68	0xbd90ce91	-0.070706494
69	0xbd13389d	-0.035942663
70	0x3db70b97	0.089377575
71	0x3b265025	0.002537736
72	0xbd348dae	-0.04408043
73	0x3d873135	0.06601182
74	0xbe17c76f	-0.14822172
75	0x3d445ac8	0.04793814
76	0x3ccb7e11	0.024840387
77	0xbdc93764	-0.09825018
78	0x3b8c7502	0.0042864094
79	0x3e1d139b	0.1533951
80	0xbdda345e	-0.106545195
81	0x3e1b2e79	0.15154447
82	0x3dad574e	0.08463918
83	0x3d119329	0.035540733
84	0x3d842266	0.064518735
85	0x3e15568e	0.14583799
86	0xbdaae4de	-0.08344434
87	0x3d8b4534	0.06800309
88	0x3d12c6aa	0.035833992
89	0xbd684c64	-0.056713477
90	0x3dd0638b	0.10175236
91	0x3c7cc27f	0.015427231
92	0x3dc41595	0.09574429
93	0x3d7f64e8	0.06235209
94	0x3c39f40f	0.011349692
95	0xb944f91d	-0.00018784819
96	0x3cdf5236	0.02726088
97	0x3d543779	0.051810715
98	0xbcc46c75	-0.023977498
99	0xbc4bacfd	-0.01243138
100	0x3b629e98	0.0034579393
101	0x3d0ccb87	0.034373786
102	0xbdbea082	-0.09307958
103	0xbd86d73a	-0.0658402
104	0x3e02669b	0.12734453
105	0xbd541a1b	-0.05178271
106	0xbdc3803f	-0.095459454
107	0xbe2486c4	-0.16067034
108	0xbdb246f4	-0.087049395
109	0x3e0c599c	0.13706058
110	0xbdba4031	-0.09094275
111	0x3d6144a9	0.05499712
112	0xbda63e18	-0.08117312
113	0x3d3d6dbe	0.046247236
114	0x3dd20e58	0.10256642
115	0x3cb73b7b	0.02236723
116	0xbe35069b	-0.17678301
117	0xbdc9ac70	-0.09847343
118	0xbd6e2ab9	-0.058146212
119	0x3c9ffec8	0.019530669
120	0x3de7c407	0.11316686
121	0x3d8357af	0.06413209
122	0x3c99305a	0.018699814
123	0x3e296fde	0.1654658
124	0x3e18a3c0	0.14906216
125	0x3d945301	0.07242394
126	0x3dcde9b5	0.10054342
127	0x3da51991	0.08061517
128	0xbb65d8b6	-0.0035071797
129	0x3dbc82b3	0.092046164
130	0x3d6f61ec	0.058442995
131	0xbe05ca75	-0.13065512
132	0x3e1d8711	0.15383555
133	0x3df628d6	0.120195076
134	0x3d2785d0	0.040899098
135	0xbd26f02b	-0.040756386
136	0x3afe1ec6	0.0019387833
137	0x3d9cd550	0.07657874
138	0x3e0d8cba	0.13823214
139	0xbd83252f	-0.064035766
140	0x3d2d44a2	0.04230178
141	0x3dcf76be	0.1013007
142	0x3d6a7bf8	0.057247132
143	0xbd5f357e	-0.054494374
144	0x3d08274e	0.03324061
145	0x3c520024	0.012817416
146	0xbe28d912	-0.16489056
147	0x3d603817	0.05474099
148	0x3d2439ac	0.040094063
149	0xbde9e25c	-0.11420128
150	0x3b556127	0.0032559128
151	0xbd02b9b9	-0.0319154
152	0xbc8e32f2	-0.017358277
153	0xbe035a2c	-0.12827367
154	0x3dc755bc	0.097331494
155	0x3dfb6a0f	0.122760884
156	0xbc538f98	-0.012912653
157	0xbb203c6f	-0.0024450084
158	0x3d8ab12b	0.06772073
159	0x3d3e1391	0.04640538
160	0xbd6faa4d	-0.05851202
161	0x3e15c8f0	0.14627433
162	0xbde6af23	-0.112638734
163	0x3e20a33c	0.15687269
164	0xbd0bb5c0	-0.034108877
165	0x3ca1a788	0.019733205
166	0x3cb50a09	0.022099512
167	0xbdaa8cc1	-0.08327628
168	0x3c524d97	0.012835882
169	0xbe1bd120	-0.15216494
170	0x3d4b7cac	0.049679443
171	0xbd8f7419	-0.07004566
172	0xbd9ccb3c	-0.076559514
173	0x3d26dec0	0.040739775
174	0x3dd46456	0.103707
175	0xb8d30687	-0.0001006248
176	0xbe337c9f	-0.17528008
177	0xbda85882	-0.082200065
178	0xbd83d8d5	-0.06437842
179	0x3b1af3ac	0.0023643775
180	0xbdc062be	-0.093938336
181	0x3c5a7e71	0.01333581
182	0xbbc8feae	-0.006133876
183	0x3dc94de9	0.09829313
184	0x3cb99a59	0.022656607
185	0xbe00bbca	-0.12571636
186	0x3dcb0156	0.09912364
187	0xbbeef018	-0.007291805
188	0xbe0d03ff	-0.13771056
189	0xbd5e4ff5	-0.05427547
190	0xbddf779d	-0.10911486
191	0xbded4e5a	-0.1158721
192	0xbdddd8c7	-0.108323626
193	0xbdd73135	-0.10507432
194	0xbe05bf0a	-0.13061157
195	0x3bb57a54	0.0055382643
196	0xbdda9408	-0.10672766
197	0xbe07460e	-0.13210317
198	0xbd8e235c	-0.06940338
199	0x3ccbf8c8	0.024898902
200	0x3c5c5cad	0.01344983
201	0xbdd5a57a	-0.10431953
202	0x3dd9e87d	0.10640047
203	0x3c73a4ff	0.014870881
204	0xbe06be30	-0.13158488
205	0xbdda96cc	-0.106732935
206	0xbdf55d49	-0.11980683
207	0x3dafd816	0.08586137
208	0xbb54ad37	-0.0032451877
209	0xbe13df7d	-0.14440723
210	0xbcb9db34	-0.022687532
211	0xbe233f23	-0.15942053
212	0xbe65265f	-0.22377919
213	0xbd2cdbe5	-0.042201895
214	0x3b867e14	0.004104385
215	0xbcf09ce3	-0.029371684
216	0xbe0dbecf	-0.13842319
217	0xbc85b361	-0.016320886
218	0xbd1f4cfb	-0.038891774
219	0x3d2ae492	0.041721888
220	0x3dcc3726	0.09971456
221	0x3dd1ce5f	0.1024444
222	0xbdf71806	-0.12065129
223	0x3d4c6623	0.049902093
224	0x3cf26014	0.02958683
225	0x3db2be32	0.08727683
226	0x3d6e2db1	0.058149043
227	0xbe1ea980	-0.15494347
228	0xbbd855c0	-0.006602019
229	0x3cbe8778	0.023257956
230	0xbdd6b848	-0.104843676
231	0x3e08283c	0.13296598
232	0x3e5a2452	0.21302918
233	0x3e02d313	0.12775831
234	0x3deeed37	0.11666339
235	0xbca3f6fa	-0.020015229
236	0x3e2a5891	0.16635348
237	0x3d6bd2d5	0.057574112
238	0xbced4d06	-0.028967392
239	0x3df2e07c	0.11859223
240	0x3c92bd69	0.017912583
241	0x3d2ea03a	0.042633273
242	0xbd4623f8	-0.048374146
243	0xbbfd7cfb	-0.007735846
244	0x3d50545e	0.05086171
245	0x3c895bcf	0.01676741
246	0xbd331097	-0.043716993
247	0x3d58142a	0.052753605
248	0xbd2bf514	-0.04198177
249	0x3b023a47	0.0019871162
250	0x3d525583	0.05135108
251	0x3c618933	0.013765621
252	0xbd2ee8d5	-0.042702515
253	0xbdbab7bc	-0.09117076
254	0x3dc663d8	0.096870124
255	0xbd2f06e6	-0.04273119

rnn.weight_hh_l0 f4 [32, 32]
0	0xbd4c65ff	-0.04990196
1	0xbd3197a2	-0.0433575
2	0x3d6e6a7f	0.05820703
3	0x3d6413ba	0.055682875
4	0x3e3a4c08	0.18193066
5	0x3d84df69	0.064879246
6	0x3e2c9983	0.16855435
7	0x3d0ea788	0.03482774
8	0x3e53ec04	0.20695502
9	0xbda76298	-0.08173102
10	0x3d0a81d5	0.033815224
11	0x3e443cdd	0.19163842
12	0x3e275c6b	0.16343848
13	0x3e0737aa	0.13204828
14	0x3dafcf8b	0.085845076
15	0xbd2f05ca	-0.04273013
16	0xbe03689e	-0.12832877
17	0xbd844672	-0.06458749
18	0x3e3da345	0.18519314
19	0xbe3b585c	-0.18295425
20	0x3d8eda9b	0.069752894
21	0x3c3d5a57	0.011557183
22	0x3c58da59	0.013235652
23	0xbde7e2c0	-0.11322546
24	0xbc85fb94	-0.016355313
25	0x3c48c21e	0.012253312
26	0x3e18dc5a	0.14927807
27	0x3db79241	0.089634426
28	0xbd5eca03	-0.054391872
29	0xbe2236ca	-0.15841213
30	0xbe5615b6	-0.2090672
31	0x3b23b5af	0.0024980118
32	0xbe25b37b	-0.16181748
33	0x3ddb9e3c	0.1072354
34	0xbdad1b1b	-0.084524356
35	0x3dc8d01b	0.09805318
36	0x3d8d3e89	0.06896693
37	0x3d86346e	0.06552969
38	0x3dad0281	0.08447743
39	0xbcca311b	-0.024681618
40	0x3cf2d7d2	0.029643927
41	0x3dcffee4	0.101560384
42	0x3d779129	0.06044117
43	0x3d385efd	0.045012463
44	0x3b714501	0.0036814811
45	0x3d23cfa6	0.03999295
46	0x3dddf317	0.10837381
47	0xbdc7ad22	-0.09749819
48	0xbe44a83e	-0.19204804
49	0x3df9aaea	0.121908024
50	0x3d227566	0.03966274
51	0xbe06aa23	-0.1315084
52	0x3d4f7567	0.050649073
53	0xbddd4e2f	-0.10805928
54	0xbe249973	-0.16074161
55	0x3caab239	0.020836936
56	0xbd26414e	-0.040589623
57	0x3dcec69f	0.10096478
58	0x3d943d3a	0.072382405
59	0xbe1f7b73	-0.15574436
60	0xbe08e00b	-0.13366716
61	0xbe0ca8ee	-0.13736317
62	0xbdfdada4	-0.12386635
63	0xbdea4121	-0.114382036
64	0xbe42e093	-0.19030981
65	0xbe1cf844	-0.15329081
66	0xbe62b862	-0.22140649
67	0xbca71ab0	-0.020398468
68	0x3b7ccbd6	0.0038573644
69	0x3d7be096	0.06149348
70	0x3dd322ab	0.10309347
71	0xbc502784	-0.012704734
72	0xbe106602	-0.14101413
73	0x3d1dc763	0.038520228
74	0x3e1cb8e7	0.1530491
75	0x3e865286	0.26234835
76	0x3d821a41	0.06352664
77	0x3e767d1f	0.24071167
78	0xbe525f12	-0.20544079
79	0xbceda5bf	-0.029009698
80	0xbe48395d	-0.19553132
81	0xbcb4f15f	-0.022087751
82	0xbd02edfa	-0.031965233
83	0x3d45c560	0.048283935
84	0xbe841f29	-0.25805023
85	0xbdc5ab5b	-0.09651824
86	0xbe41ce1b	-0.18926279
87	0xbcc69131	-0.024239155
88	0xbdf74ecf	-0.120755784
89	0x3da70a9a	0.08156319
90	0xbdc8acb5	-0.09798566
91	0xbd8ad25b	-0.06778403
92	0x3d0a68a5	0.033791203
93	0x3d6c461e	0.057684056
94	0xbd410f99	-0.047134016
95	0x3e25ed8e	0.16203901
96	0xbc092883	-0.008371475
97	0xbd8d013b	-0.06885
98	0x3de14595	0.109996
99	0xbe159383	-0.14607053
100	0x3e856dee	0.26060432
101	0x3d127fba	0.03576634
102	0x3e1c7070	0.15277267
103	0xbdd48c8c	-0.1037837
104	0xbc763f18	-0.015029691
105	0x3db545d1	0.08851207
106	0x3d56e968	0.052468687
107	0xbd21bca5	-0.039486546
108	0x3c232c65	0.009959315
109	0x3d125c5c	0.035732612
110	0xbe0a7e97	-0.13524853
111	0x3e5622d4	0.20911723
112	0x3dfea713	0.12434211
113	0x3d88de10	0.0668298
114	0xbdb43bd7	-0.08800476
115	0xbcc87735	-0.024470905
116	0x3dfbfc0f	0.12303936
117	0xbcf8d8e7	-0.030376865
118	0xbd9869da	-0.074420646
119	0xbdc35939	-0.09538502
120	0xbc32c6c0	-0.0109116435
121	0x3c2be2f0	0.010491118
122	0x3de484b3	0.11158123
123	0xbe2c7a48	-0.16843522
124	0x3db0c214	0.086307675
125	0xbad642a6	-0.0016346767
126	0x3e32a8e1	0.17447235
127	0x3e64f9f3	0.22360973
128	0x3df4e179	0.11957068
129	0x3d0ed9c3	0.034875643
130	0xbddd4ca7	-0.10805636
131	0x3e56b1e8	0.20966303
132	0xbe37a968	-0.17935717
133	0xbcdebd32	-0.027189825
134	0xbe1bcb01	-0.15214159
135	0x3d9c3648	0.07627541
136	0x3e20f511	0.15718485
137	0x3d6b27e9	0.05741111
138	0xbe114605	-0.14186867
139	0xbd94f4b6	-0.072732374
140	0x3e142c34	0.14469987
141	0xbe298f00	-0.16558456
142	0xbc6a9d45	-0.014319723
143	0xbc909501	-0.017649176
144	0x3d4732c4	0.0486324
145	0xbe57b8c5	-0.21066578
146	0xbe36f2c3	-0.17866044
147	0x3e13020b	0.14356248
148	0x397c314a	0.00024050954
149	0x3c997c93	0.01873616
150	0x3d82a0d1	0.063783295
151	0x3dab13cb	0.083533846
152	0x3e2395f3	0.1597517
153	0x3cd2d63a	0.025736917
154	0xbe153288	-0.14570057
155	0x3c1cb850	0.009565428
156	0x3daeb202	0.08530046
157	0xbe07bca1	-0.1325555
158	0x3d81ce7c	0.06338212
159	0x3c6aa75b	0.014322127
160	0x3de3f008	0.11129767
161	0xbdfdfd52	-0.12401833
162	0xbd3ab19a	-0.04557953
163	0xbde202d5	-0.110356964
164	0xbd342e06	-0.043989204
165	0x3e08d6ca	0.13363186
166	0x3e076ef4	0.13225919
167	0x3e1e9e24	0.15490013
168	0xbcb6edcc	-0.022330187
169	0x3ce453dc	0.027872019
170	0xbdfaac0d	-0.12239847
171	0x3df0bf47	0.11755233
172	0x3cb727b2	0.022357795
173	0xbd9ad98b	-0.07561024
174	0x3d871d7c	0.065974206
175	0x3da49127	0.08035498
176	0xbd9a1523	-0.07523563
177	0xbc76317e	-0.015026448
178	0x3d22570f	0.039633807
179	0xbdf67a9c	-0.12035105
180	0x3e024396	0.12721094
181	0x3d8a0c1c	0.06740591
182	0xbdb0736d	-0.08615766
183	0xbe117f54	-0.14208728
184	0xbe1c3cf6	-0.1525763
185	0x3e4f6e0b	0.20256822
186	0x3e138c93	0.14409094
187	0xbe659d04	-0.22423178
188	0xbe03a8cf	-0.12857364
189	0xbddb0f61	-0.10696293
190	0x3df2483d	0.118301846
191	0xbe0b5904	-0.13608176
192	0x3e18f1a2	0.14935926
193	0x3e1a6acf	0.15079807
194	0x3e102bce	0.1407921
195	0x3e06d4a7	0.13167058
196	0xbb1357fe	-0.0022482867
197	0x3e685776	0.22689614
198	0xbe4bb1b0	-0.19892001
199	0xbe5f45ad	-0.21803923
200	0x3dffc726	0.124891564
201	0x3d065cb5	0.032803256
202	0x3d67d43e	0.056598894
203	0xbd1b9b29	-0.03798977
204	0x3cb7eb48	0.022451058
205	0xbdda4bc7	-0.10658985
206	0xbce51a14	-0.027966537
207	0x3cc8a4a9	0.024492579
208	0x3e816557	0.2527263
209	0xbdaaa1d5	-0.08331648
210	0x3d24e72b	0.04025952
211	0x3e4ee67a	0.20205107
212	0x3e220a6b	0.15824287
213	0xbdff1d61	-0.124567755
214	0x3e2b8afa	0.16752234
215	0x3db2e835	0.08735696
216	0xbdb91560	-0.0903728
217	0x3e45d4ed	0.19319506
218	0xb9e12c71	-0.00042948456
219	0x3e910bb1	0.28329232
220	0x3c881353	0.016610777
221	0xbcbb041e	-0.022829112
222	0xbe1f55c7	-0.15560065
223	0xbd3edf80	-0.046599865
224	0xbdd05693	-0.10172763
225	0xbc8b70c6	-0.017021548
226	0x3ddcfa73	0.10789957
227	0xbd283c20	-0.041072965
228	0xbcdd1b4a	-0.026990552
229	0x3dd7270a	0.10505493
230	0xbe11c630	-0.14235759
231	0xbe49abed	-0.1969449
232	0xbd6aa9e4	-0.057290927
233	0xbdcd7b57	-0.10033291
234	0xbddd89f0	-0.10817325
235	0xbe4ea489	-0.20179953
236	0xbd1c58e5	-0.038170714
237	0x3c3c4c11	0.011492745
238	0x3e1a2fca	0.15057293
239	0xbe2ccd14	-0.16875106
240	0xbd795f68	-0.060882002
241	0xbe049f91	-0.12951495
242	0xbe340f32	-0.17583922
243	0x3e17bb70	0.14817595
244	0x3d45a4b5	0.04825278
245	0x3da4473c	0.080213994
246	0xbc9ce7a7	-0.01915343
247	0xbcd93c4a	-0.026518006
248	0x3d9ae429	0.07563049
249	0x3c461661	0.0120902965
250	0x3cf32c7f	0.029684303
251	0x3e8c52b5	0.2740685
252	0x3e7bb299	0.24579848
253	0x3dd0361d	0.10166571
254	0x3caff4a1	0.021478953
255	0xbe5ce6ee	-0.21572468

rnn.bias_ih_l0 f4 [32]
0	0x3da8b284	0.08237174
1	0xbb805c33	-0.003917241
2	0x3dce8807	0.10084539
3	0xbd46cdd2	-0.04853613
4	0xbcd390ef	-0.025825946
5	0x3b65c4f1	0.0035060013
6	0xbdcc8cb0	-0.099877715
7	0xbcff21d1	-0.031144055
8	0xbe03311d	-0.12811704
9	0x3dc09b60	0.094046354
10	0x3e059af3	0.1304739
11	0x3da6e510	0.08149159
12	0x3d4d3045	0.05009486
13	0x3e2dd2af	0.169749
14	0x3e1e1933	0.154393
15	0xbdffc73a	-0.12489171
16	0xbd92664a	-0.07148416
17	0xbdc9e934	-0.09858933
18	0x3dbae154	0.09125009
19	0xbc2b9626	-0.01047281
20	0xbdc2bd29	-0.09508736
21	0x3e25cb63	0.16190867
22	0x3dfdeba2	0.12398459
23	0xbd6e19c2	-0.058130033
24	0x3cb547c3	0.022128945
25	0x3dad6fdd	0.08468602
26	0x3d995e9a	0.07488747
27	0xbd6bdd3d	-0.057584036
28	0x3d3af0e1	0.045639876
29	0x3e062798	0.13101041
30	0xbdb3825f	-0.08765101
31	0xbd2dd7b6	-0.042442046

rnn.bias_hh_l0 f4 [32]
0	0xbe0aaa2c	-0.13541478
1	0x3e177e7f	0.14794348
2	0x3d0456a7	0.0323092
3	0x3da86fb5	0.082244314
4	0x3d43e33f	0.04782414
5	0x3d9c0a3d	0.0761914
6	0x3c70e034	0.014701892
7	0xbb9954a9	-0.0046792817
8	0x3d9c7c47	0.076408915
9	0x3cbc3a7e	0.02297711
10	0xbdd3d373	-0.10343065
11	0xbb1272b9	-0.0022346212
12	0xbbf818a2	-0.007571296
13	0xbda2aada	-0.079427436
14	0xbd7fbfeb	-0.062438887
15	0xbcd2ba28	-0.025723532
16	0x3d6fbd60	0.05853021
17	0x3d83e72e	0.064405784
18	0x3d7eec66	0.062237166
19	0x3d6e1029	0.05812088
20	0x3d49d51f	0.049275514
21	0x3b89d03c	0.0042057317
22	0x3dd6c05f	0.104859106
23	0xbde1ce1f	-0.110256426
24	0x3c53f8d9	0.012937748
25	0x3ba22100	0.0049477816
26	0x3d0d0c67	0.034435656
27	0x3e08e4fe	0.13368604
28	0xbd196049	-0.03744534
29	0x3d6529d6	0.0559481
30	0xbba15503	-0.0049234643
31	0xbca98ab1	-0.020696016

rnn.weight_ih_l1 f4 [32, 32]
0	0xbdb41c2f	-0.08794438
1	0xbb37ddae	-0.0028055715
2	0xbce71f0f	-0.028213052
3	0xbdee306f	-0.11630332
4	0xbe0c1dcf	-0.13683246
5	0x3dbfb580	0.0936079
6	0xbc51d663	-0.012807461
7	0xbdd63e04	-0.10461047
8	0x3e042fe2	0.12908891
9	0xbc1f97f1	-0.0097408155
10	0xbcef1b06	-0.02918769
11	0x3e3e6971	0.1859491
12	0xbc9c291e	-0.019062575
13	0xbd27237b	-0.04080532
14	0x3d789940	0.060693026
15	0x3e241386	0.16023073
16	0x3d0c26b4	0.034216598
17	0x3dc5e6fa	0.09663196
18	0xbcc8c1f6	-0.02450655
19	0xbe0b6ec0	-0.13616467
20	0xbe0c1b5d	-0.13682313
21	0x3d61d225	0.05513205
22	0xbe2d9c02	-0.16954044
23	0xbe1efaac	-0.15525311
24	0xbddc7d61	-0.10766102
25	0x3e2f61a7	0.17127095
26	0xbc8a7412	-0.01690105
27	0xbcc1bf29	-0.023650723
28	0x3d144871	0.036201898
29	0xbc8affb8	-0.01696764
30	0x3d9db9c6	0.07701449
31	0x3ddb3c9d	0.107049204
32	0x3c05b9c3	0.008161965
33	0x3db8dcfa	0.09026523
34	0xbdf35b1f	-0.11882614
35	0x3dbe506c	0.09292683
36	0xbe218ac5	-0.15775593
37	0xbd196c70	-0.03745693
38	0x3cc7e94a	0.024403233
39	0xbda852b0	-0.082188964
40	0xbd2eb460	-0.042652488
41	0xbdfb6d4c	-0.12276706
42	0xbde2cd35	-0.110742964
43	0x3da0bcd6	0.078485176
44	0xbe12c1a6	-0.14331684
45	0x3d895229	0.06705124
46	0xbe10d2ad	-0.14142866
47	0x3d719b12	0.058985777
48	0x3def777e	0.11692713
49	0x3d82d10f	0.06387531
50	0xbde27cd7	-0.110589676
51	0xbe085417	-0.13313328
52	0x3e0494da	0.12947407
53	0x3d226d76	0.03965517
54	0xbe02a08b	-0.12756555
55	0x3e203f92	0.1564925
56	0xbe6d59f5	-0.23178847
57	0x3da38e2b	0.07986101
58	0xbd43fd33	-0.04784889
59	0x3dc423eb	0.09577163
60	0xbdbcf8b6	-0.09227125
61	0xbc8cba6d	-0.017178738
62	0x3de6a054	0.11261049
63	0x3d4ecec6	0.050490163
64	0xbe2383ee	-0.15968296
65	0xbdf84467	-0.12122422
66	0x3bc00a0c	0.0058605727
67	0x3e07dd9f	0.13268135
68	0xbd497ed2	-0.04919321
69	0xbe2265ae	-0.158591
70	0x3ccd4041	0.025055053
71	0xbbd51e0b	-0.0065038255
72	0xbd3859e9	-0.04500762
73	0xbd0e4c8f	-0.03474098
74	0xbdf3b155	-0.11899058
75	0x3d48bd2c	0.049008533
76	0xbda65e93	-0.08123507
77	0x3d09913c	0.033585772
78	0xbe06b2b7	-0.13154112
79	0xbc6a4109	-0.014297732
80	0x3cf49d83	0.029860264
81	0xbc562c4a	-0.013072083
82	0xbe5956e2	-0.2122455
83	0x3e0c7f5f	0.13720463
84	0x3e3ab074	0.18231374
85	0x3d1c8678	0.038214177
86	0x3e0c54ff	0.13704298
87	0x3daa08da	0.083024696
88	0x3da34118	0.079714
89	0xbe28e381	-0.16493036
90	0x3d2333f9	0.039844487
91	0xbe0eb8a6	-0.13937625
92	0xbe184a18	-0.14872015
93	0x3c79a9bb	0.015238221
94	0xbdb9ca72	-0.090718165
95	0x3d07cfc1	0.033157114
96	0x3e211039	0.15728845
97	0x3d0a402f	0.033752616
98	0xbe0fbbd1	-0.1403649
99	0x3d852f12	0.065031186
100	0x3dfe97c2	0.12431289
101	0x3ca9646c	0.020677768
102	0x3d31e4c1	0.043431047
103	0xbd172617	-0.03690156
104	0x3db7dbfc	0.089775056
105	0xbd25f455	-0.040516216
106	0x3d55ad40	0.052167177
107	0xbdf3e984	-0.11909774
108	0x3d8a5929	0.06755287
109	0xbe058524	-0.1303907
110	0xbd9a26cd	-0.07526932
111	0x3de0cfa0	0.10977101
112	0xbe35bbfe	-0.17747495
113	0xbd92557e	-0.071452126
114	0xbc84b4dc	-0.016199522
115	0x3dacefa6	0.08444147
116	0x3dd8422b	0.105594955
117	0xbcb5cfaa	-0.022193749
118	0x3d55b469	0.052174006
119	0x3de5d89b	0.11222955
120	0xbc6100b8	-0.0137330815
121	0xbd8bcbf9	-0.06826014
122	0xbcc1225d	-0.023575956
123	0x3d8b43f0	0.068000674
124	0xbccc1e41	-0.02491677
125	0xbd8331aa	-0.06405957
126	0x3e315c7b	0.17320435
127	0x3cd34999	0.02579193
128	0xbd020a5f	-0.031748172
129	0xbd86cdad	-0.06582198
130	0xbd5867bd	-0.052833308
131	0xbd4973bb	-0.049182635
132	0xbd82c18b	-0.06384572
133	0x3b515601	0.0031942131
134	0xbe1d91c2	-0.15387633
135	0xbca8897a	-0.020573366
136	0x3d103e17	0.035215463
137	0x3bd254eb	0.0064188144
138	0x3d9625d8	0.07331437
139	0xbd003608	-0.03130153
140	0x3dc4456e	0.09583555
141	0x3d914cb1	0.07094706
142	0xbd3e80b9	-0.04650948
143	0xbd8ffaaa	-0.07030232
144	0x3d825157	0.063631706
145	0x3db109ec	0.086444706
146	0xbd7ebb64	-0.06219043
147	0xbe2640b4	-0.1623562
148	0xbe030459	-0.12794627
149	0x3c3692d0	0.011143401
150	0xbd8ce05f	-0.06878733
151	0xbd2e36b8	-0.042532653
152	0x3dba9da1	0.091120966
153	0x3bd4ad58	0.0064903907
154	0x3df78c0a	0.12087257
155	0x3d547afb	0.051875096
156	0x3e039cf6	0.12852845
157	0xbe3d19bb	-0.18466847
158	0x3d07a29c	0.03311406
159	0x3d2fd730	0.04292983
160	0x3c90d9f5	0.017682055
161	0x3d2d4cb7	0.04230949
162	0xbe4a7e7d	-0.19774814
163	0xbd89763d	-0.06712005
164	0xbe11def7	-0.1424521
165	0x3e0313c4	0.12800509
166	0x3c616d7a	0.013759011
167	0xbe1c3d7f	-0.15257834
168	0xbc955947	-0.018231047
169	0x3c769442	0.015049996
170	0x3b87eb15	0.004147897
171	0x3d8a7a7f	0.067616455
172	0xbdd63c06	-0.10460667
173	0xbba206cf	-0.0049446593
174	0x3d9a6515	0.07538811
175	0x3dc2919f	0.09500431
176	0x3dfcbe02	0.123409286
177	0x3cc3c11d	0.023895795
178	0xbe25bb2f	-0.16184686
179	0x3cb5ceb4	0.02219329
180	0xbd23bc61	-0.039974574
181	0x3d8ff3e8	0.07028943
182	0x3de0d2e4	0.10977724
183	0xbd54d844	-0.05196406
184	0x3e009cae	0.12559769
185	0x3ddcf609	0.10789115
186	0xbdf33f48	-0.11877304
187	0xbd5f4163	-0.054505717
188	0x3d3c089b	0.045906644
189	0x3d6950ea	0.05696193
190	0xbcfd636b	-0.030931195
191	0x3cb19f18	0.021682307
192	0xbdcf1e11	-0.101131566
193	0x3d2a4127	0.04156604
194	0x3d3c91ce	0.046037488
195	0x3d44e673	0.048071336
196	0xbd82bced	-0.06383691
197	0xbda18009	-0.07885749
198	0x3e3314a5	0.17488344
199	0xbca08a6f	-0.01959726
200	0xbd8bb91a	-0.06822415
201	0xbdac02c6	-0.083989665
202	0xbbd688f1	-0.0065470864
203	0xbc566309	-0.013085135
204	0xbd40ddaf	-0.047086414
205	0xbdc2e218	-0.0951578
206	0xbd9333c2	-0.071876064
207	0xbdaa73de	-0.08322881
208	0xbd3e97d8	-0.04653153
209	0xbda93440	-0.08261919
210	0x3e241611	0.16024043
211	0xbcf0bd69	-0.029387193
212	0xbda52609	-0.08063895
213	0x3df2ab03	0.11849024
214	0x3d473b7b	0.04864071
215	0xbe1ed341	-0.15510274
216	0x3c0a82f8	0.008454077
217	0x3d38e892	0.04514367
218	0xbdf36dfb	-0.118862115
219	0xbceb9712	-0.02875856
220	0xbd03f830	-0.032219112
221	0x3e085ce8	0.13316691
222	0x3d954d0c	0.07290086
223	0x3dade3e2	0.08490731
224	0x3dd46fe5	0.10372905
225	0x3d007865	0.031364817
226	0x3a8c7efe	0.0010718999
227	0x3ddcc284	0.107792884
228	0xbb7ee21d	-0.0038892098
229	0xbc1e35b8	-0.009656362
230	0x3e0be8f5	0.13663085
231	0x3cf1a8f9	0.029499518
232	0xbcc1122d	-0.023568237
233	0xbd2855ab	-0.041097324
234	0x3d070f86	0.03297379
235	0xbe15a14d	-0.14612313
236	0x3d8ee361	0.06976963
237	0xbd9dbb70	-0.077017665
238	0xbe1f2042	-0.15539649
239	0x3dbf7c83	0.093499206
240	0xbcf709eb	-0.030156096
241	0xbd9c3495	-0.07627217
242	0x3dea6985	0.114459075
243	0x3d2fead1	0.042948548
244	0x3d67e5b7	0.056615558
245	0x3da4b53b	0.080423795
246	0x3dc2b0d2	0.09506382
247	0xbdbde684	-0.09272483
248	0x3da1d2cf	0.07901537
249	0x3d483059	0.048874233
250	0xbd171b34	-0.036891177
251	0xbd82229f	-0.0635426
252	0xbb899def	-0.0041997354
253	0x3da71400	0.081581116
254	0x3dd9da60	0.10637355
255	0x3c25dfea	0.010124186

rnn.weight_hh_l1 f4 [32, 32]
0	0xbdb417fe	-0.08793639
1	0xbd218d64	-0.03944148
2	0xbcdc89c5	-0.026921162
3	0x3d89e016	0.06732194
4	0x3d4b06f6	0.049567185
5	0x3e02899d	0.12747808
6	0x3cfef02e	0.031120386
7	0x3e344827	0.17605649
8	0xbd0887fd	-0.033332814
9	0x3deb5bdc	0.1149213
10	0xbccab231	-0.024743171
11	0x3b9743dc	0.0046162438
12	0xbd69f331	-0.05711669
13	0xbe5d00f6	-0.21582398
14	0x3e153bb4	0.14573556
15	0xbd569db4	-0.05239649
16	0xbdc9509b	-0.098298274
17	0xbe25ad9c	-0.16179508
18	0x3dee4e41	0.116360195
19	0x3d064ab0	0.03278607
20	0xbdc0c1a3	-0.09411933
21	0xb9d6c7cf	-0.0004096613
22	0xbd6cfd75	-0.057858903
23	0xbc392266	-0.011299705
24	0x3c94afa9	0.018150168
25	0xbe081901	-0.13290788
26	0xbddf10d7	-0.10891884
27	0xbdb27f2e	-0.08715664
28	0x3cf309d5	0.029667774
29	0x3d3646ee	0.044501238
30	0x3e4e974d	0.20174904
31	0x3dd5f9f3	0.10448065
32	0x3dc2c103	0.0950947
33	0x3cb5a56a	0.022173602
34	0x3dc71f57	0.097227745
35	0xbd8cd938	-0.06877369
36	0xbe308d36	-0.17241368
37	0xbe16b935	-0.14719088
38	0xbe1fabd0	-0.15592885
39	0x3d9ba8d5	0.076005615
40	0x3d2d34fe	0.042286865
41	0x3e5f4534	0.21803743
42	0x3e421594	0.18953544
43	0xbde9b565	-0.114115514
44	0x3e3b5c87	0.18297015
45	0xbc985f7d	-0.01860022
46	0xbd5c3612	-0.053762503
47	0xbd22ca9f	-0.039744016
48	0xbdb7070e	-0.089368924
49	0x3db60243	0.0888715
50	0xbe008314	-0.12550002
51	0xbde7fe0f	-0.11327755
52	0x3e113719	0.14181174
53	0xbc4b4418	-0.0124063715
54	0x3caebff0	0.021331757
55	0xbe0c858c	-0.13722819
56	0x3c2276f1	0.009916053
57	0xbcc326f0	-0.023822278
58	0xbd47713b	-0.04869197
59	0xbd04f138	-0.032456607
60	0xbc996975	-0.018727044
61	0xbe3c4cdc	-0.18388695
62	0xbaafbcc2	-0.0013407695
63	0xbe40ef23	-0.18841223
64	0x3e34fa83	0.17673688
65	0x3e12162e	0.14266273
66	0x3dddfdd3	0.10839429
67	0x3e00a6a7	0.12563573
68	0xbd8560d0	-0.06512606
69	0x3e249a8b	0.16074578
70	0x3e12f149	0.14349855
71	0xbdcab17c	-0.09897134
72	0xbb76dc50	-0.0037667938
73	0xbd2bc616	-0.041936956
74	0x3c6abb27	0.014326847
75	0xbe0d06ba	-0.13772097
76	0xbe183f35	-0.14867862
77	0xbd8d198f	-0.068896405
78	0xbcc83ee5	-0.024444053
79	0xbced79ec	-0.028988801
80	0x3de086b8	0.109631956
81	0xbd9cabbb	-0.076499425
82	0x3dcead17	0.10091608
83	0x3e272e1f	0.16326188
84	0x3e30a882	0.1725178
85	0x3d2facbf	0.042889353
86	0x3df5683e	0.11982773
87	0xbdad4c35	-0.08461801
88	0xbdb034f5	-0.08603851
89	0xbc59a776	-0.013284555
90	0xbe210ea3	-0.1572824
91	0xbd3c5834	-0.045982555
92	0xbe1cc30e	-0.15308782
93	0xbc828317	-0.01593165
94	0xbe747429	-0.23872437
95	0xbdd3e48a	-0.10346325
96	0x3d206dcf	0.03916722
97	0xbdb1ef54	-0.08688226
98	0x3e32bba0	0.17454386
99	0x3e3f9ac5	0.18711384
100	0x3c903a7e	0.017606016
101	0x3e1322e9	0.14368786
102	0x3e6246e1	0.2209735
103	0xbe0a8349	-0.13526644
104	0x3e3b336c	0.18281335
105	0x3ba8e64f	0.005154408
106	0xbe288799	-0.16457976
107	0xbd6e79ed	-0.058221746
108	0xbe02717a	-0.127386
109	0xbd989dfb	-0.074520074
110	0xbe05a2ab	-0.13050334
111	0x3d16ccce	0.03681641
112	0xbe0b3251	-0.13593413
113	0x3e3db1bf	0.18524836
114	0x3c5038fa	0.012708897
115	0xbbb86267	-0.005626965
116	0xbdaf7fed	-0.08569322
117	0x3d0ea232	0.03482265
118	0x3e1f1758	0.15536249
119	0x3e589e11	0.21154048
120	0x3d9cbd98	0.0765335
121	0x3e105e15	0.1409839
122	0x3b8e77ae	0.004347763
123	0x3d76fc7d	0.060299385
124	0xbd849802	-0.06474306
125	0xbdea2603	-0.114330314
126	0x3d9af068	0.07565385
127	0x3d61d571	0.055135194
128	0x3e514031	0.20434643
129	0xbe141911	-0.14462687
130	0x3e17b819	0.14816321
131	0x3e178656	0.14797339
132	0x3dafc507	0.08582502
133	0x3d9f1699	0.07767982
134	0x3e0c7fc3	0.13720612
135	0xbca250b6	-0.019813877
136	0x3d86a723	0.065748475
137	0x3d68533f	0.056720015
138	0xbe16af97	-0.1471542
139	0xbdf139c3	-0.11778595
140	0x3d439135	0.047745902
141	0x3d3f4987	0.04670098
142	0xbdecf4ec	-0.11570153
143	0xbe378e27	-0.1792532
144	0xbd571d09	-0.052517924
145	0xbe179991	-0.14804675
146	0x3e0a0a3d	0.13480468
147	0x3e192f94	0.14959556
148	0xbe0a4641	-0.13503362
149	0xbe11deeb	-0.14245193
150	0x3be81b07	0.0070833
151	0x3dc20501	0.09473611
152	0x3dea98b2	0.114549056
153	0x3d650e6c	0.055921957
154	0xbd204169	-0.03912488
155	0xbda54ec9	-0.08071668
156	0x3d9a4c6e	0.07534109
157	0xbd0cd051	-0.034378354
158	0xbdac09cc	-0.08400306
159	0xbe06d8a5	-0.13168581
160	0x3dbf108c	0.09329328
161	0xbd92866b	-0.071545444
162	0xbe168054	-0.14697391
163	0x3e02190c	0.12704867
164	0x3bf6b1ad	0.007528505
165	0xbd094076	-0.03350874
166	0xbd3d14b0	-0.046162307
167	0x3dcbfda4	0.099604875
168	0xbd6726b0	-0.05643338
169	0xbdb331e5	-0.08749751
170	0x3cb5668c	0.022143625
171	0xbde44e8f	-0.11147796
172	0xbb52af14	-0.0032147812
173	0x3e35fe73	0.17772846
174	0xbe6e64e4	-0.23280674
175	0x3d9ed268	0.077549756
176	0xbdc983db	-0.098396026
177	0x3ddbc9c6	0.107318446
178	0x3d080881	0.033211235
179	0x3b5b0925	0.0033422199
180	0xbd2e0317	-0.042483415
181	0xbdc0a489	-0.094063826
182	0x3d838c68	0.06423265
183	0x3d1bfd8d	0.0380836
184	0xbe166c42	-0.14689735
185	0x3df3722f	0.11887013
186	0xbe23abfe	-0.15983579
187	0x3e668e81	0.22515298
188	0xbd52a421	-0.051426057
189	0x3dd30d23	0.1030524
190	0x3e20ccda	0.15703145
191	0xbe1af0f6	-0.15130982
192	0x3d666752	0.056250878
193	0xbd834b58	-0.06410855
194	0x3e141c9a	0.14464036
195	0x3dc45e2b	0.095882736
196	0x3de073c7	0.10959583
197	0x3df4804c	0.11938533
198	0x3e135508	0.14387906
199	0x3d0bc16f	0.03412002
200	0xbd67a51e	-0.056553952
201	0xbddf9938	-0.10917896
202	0xbe341151	-0.1758473
203	0x3d67859b	0.0565239
204	0xbc3d39cc	-0.011549424
205	0xbd85cc84	-0.06533149
206	0xbd93ecaa	-0.072228745
207	0x3d74769b	0.059683423
208	0xbdd7fac9	-0.1054588
209	0x3cd9bff8	0.026580796
210	0xbdd6d0e8	-0.104890645
211	0x3de06619	0.109569736
212	0xbdc158dc	-0.09440777
213	0xbe01bfa8	-0.12670767
214	0xbd110765	-0.035407443
215	0xbe02d0c4	-0.1277495
216	0xbe0c7c52	-0.137193
217	0xbe12f22d	-0.14350195
218	0xbcd84346	-0.026399266
219	0xbe36effb	-0.17864983
220	0xbbaf883d	-0.005356817
221	0xbd9532ee	-0.07285105
222	0xbdb0e9b0	-0.08638322
223	0xbde59052	-0.112091675
224	0x3e177bd9	0.14793338
225	0x3d02d843	0.031944524
226	0xbe76420d	-0.24048634
227	0xbe64b9f4	-0.2233656
228	0x3d149efd	0.036284436
229	0x3c925fa6	0.017867874
230	0x3e3cf31f	0.18452118
231	0xbddde568	-0.108347714
232	0xbc6a68fa	-0.014307255
233	0xbe180778	-0.14846599
234	0x3e0afb9f	0.13572548
235	0xbcfc2873	-0.030781006
236	0xb92d072b	-0.00016501236
237	0xbd775e22	-0.060392506
238	0x3ac7b849	0.0015237416
239	0xbbe9685c	-0.0071230363
240	0xbe1c6acb	-0.15275113
241	0x3d933022	0.07186915
242	0x3da8e0bf	0.08245992
243	0x3e1eaadd	0.15494867
244	0xbd584216	-0.0527974
245	0x3e1a99af	0.15097688
246	0xbccfe795	-0.025378982
247	0x3e1a6274	0.1507662
248	0x3d94b27d	0.072606064
249	0x3e36c605	0.17848976
250	0x3d170b1c	0.03687583
251	0xbd52ff7f	-0.05151319
252	0x3d142f30	0.036177814
253	0xbe54b55c	-0.20772308
254	0xbda7a030	-0.0818485
255	0xbe35f028	-0.17767394

rnn.bias_ih_l1 f4 [32]
0	0x3dc66f2e	0.096891746
1	0xbe2db42b	-0.1696326
2	0x3dda4e47	0.106594615
3	0x3e222bc1	0.15837003
4	0xbe0001bb	-0.1250066
5	0x3df4a0e0	0.11944747
6	0xbd9c7f43	-0.07641461
7	0x3b88e8bd	0.004178135
8	0x3d4bd602	0.04976464
9	0xbdb32545	-0.08747343
10	0x3d97a39a	0.074042514
11	0x3c9b0511	0.018923314
12	0xbc4c97af	-0.012487336
13	0x3c60a9be	0.013712345
14	0xbc2ce058	-0.010551535
15	0x3d3c6ab9	0.046000216
16	0x3dea1d6a	0.114313915
17	0x3d806fdf	0.06271338
18	0xbc45f44e	-0.012082173
19	0xbd0b2ae7	-0.03397646
20	0xbca50a1f	-0.020146428
21	0xbe2977d7	-0.16549622
22	0xbe1179f5	-0.14206679
23	0x3db131d3	0.08652081
24	0xbe1c70bb	-0.15277378
25	0xbaa9e866	-0.0012962937
26	0xbc902428	-0.017595366
27	0xbe19b3ea	-0.15010038
28	0xbd96da9d	-0.07365916
29	0xbdbed8a8	-0.09318668
30	0x3d9d0c9d	0.076684214
31	0x3d4eb12c	0.050461933

rnn.bias_hh_l1 f4 [32]
0	0xbdc751a1	-0.09732366
1	0x3df246af	0.11829888
2	0x3cc0ee53	0.023551142
3	0xbe0c9375	-0.13728125
4	0x3dab4387	0.08362489
5	0xbd3752e4	-0.044756785
6	0x3d20c4be	0.039250128
7	0x3cc3a537	0.023882492
8	0xbd2206fe	-0.03955745
9	0x3e0b0394	0.13575584
10	0xbac98143	-0.0015373606
11	0x3d971a23	0.07378032
12	0x3ca5fc75	0.020261982
13	0xbbb16bdb	-0.0054144687
14	0x3e126b8d	0.1429884
15	0x3d59328e	0.05302673
16	0x3c248625	0.010041748
17	0x3d99b071	0.07504357
18	0x3d53f319	0.051745508
19	0xbe2358de	-0.15951869
20	0xbd570174	-0.05249162
21	0x3df5aea9	0.119962044
22	0xbda27933	-0.07933273
23	0x3c6fd9cb	0.014639328
24	0x3e06a2bb	0.13148014
25	0xbda93be2	-0.08263375
26	0xbe085cb3	-0.13316612
27	0x3dc44b15	0.09584633
28	0xbd9860df	-0.07440352
29	0x3d9bf47a	0.076149896
30	0xbdc3f832	-0.09568824
31	0xbd11c7ca	-0.035590924

rnn.weight_ih_l2 f4 [32, 32]
0	0xbdf26168	-0.11834985
1	0xbdb39c9f	-0.087701075
2	0xbd5c0b1d	-0.053721536
3	0xbdc1284a	-0.09431513
4	0xbcd9d43b	-0.026590457
5	0x3c266dca	0.010158012
6	0xbd8e301b	-0.06942769
7	0xbe2f8496	-0.17140421
8	0xbccd1dd8	-0.025038645
9	0xbdc80e01	-0.09768296
10	0xbcb43995	-0.022000114
11	0xbe0a47dc	-0.13503975
12	0xbd35d491	-0.044392172
13	0x3cd20f2f	0.025642006
14	0x3c17daa8	0.00926844
15	0xbdaf6b3c	-0.08565375
16	0x3dc3eb6c	0.095663875
17	0x3e14e373	0.1453989
18	0xbe50ce4e	-0.20391199
19	0x3da97320	0.082739115
20	0xbe1c360a	-0.1525499
21	0x3de0733f	0.109594814
22	0xbdef5cb8	-0.116876066
23	0x3e0a14cb	0.13484494
24	0xbcbd2c20	-0.02309233
25	0xbdca0919	-0.098650165
26	0xbdba2fc5	-0.090911426
27	0x3d0adccc	0.033901975
28	0xbe578e81	-0.21050455
29	0x3dfd52d3	0.12369313
30	0x3d8b1b35	0.06792299
31	0x3d20a3ae	0.039218597
32	0x3dff7230	0.124729514
33	0xbc9193ec	-0.01777073
34	0x3dd8e87e	0.10591219
35	0xbd12f21b	-0.03587542
36	0x3c962b59	0.018331217
37	0x3e43e24e	0.19129297
38	0xbdd79df8	-0.10528177
39	0x3c0f5827	0.0087490445
40	0xbdbd4038	-0.092407644
41	0x3d4efe34	0.050535396
42	0x3cce924a	0.02521624
43	0x3d6830fd	0.056687344
44	0xbbae7586	-0.0053240685
45	0xbde6d804	-0.112716705
46	0xbcb51af9	-0.022107588
47	0x3cf6d271	0.030129643
48	0x3e10be06	0.14134988
49	0xbd969e34	-0.073543936
50	0xbdf79b5a	-0.12090178
51	0xbb470813	-0.0030369803
52	0xbe2bbd2e	-0.16771385
53	0xbe0012ad	-0.12507124
54	0xbcbb2551	-0.022844942
55	0xbc8dd53b	-0.01731359
56	0x3e0a6449	0.13514818
57	0xbd17c279	-0.037050698
58	0x3dc6b60d	0.09702692
59	0x3e2a473b	0.16628735
60	0xbde47e01	-0.11156846
61	0xbd007c31	-0.03136844
62	0xbda7b13f	-0.08188104
63	0xbcec2691	-0.028826984
64	0x3e3c77ae	0.18405029
65	0x3d91baeb	0.0711573
66	0x3d586dc9	0.052839074
67	0xbd44ae86	-0.048018
68	0x3e0f96a2	0.14022306
69	0xbd9d0454	-0.07666841
70	0x3d32a5d5	0.04361518
71	0x3d8c50b0	0.068513274
72	0xbde155ff	-0.110027306
73	0xbdee2a29	-0.11629135
74	0x3c852a72	0.016255591
75	0x3dc528bb	0.09626909
76	0x3d7352b6	0.05940505
77	0xbe33d0cc	-0.17560118
78	0xbe1b54d6	-0.15169081
79	0xbd358432	-0.044315524
80	0x3e260049	0.16211046
81	0x3dcbac42	0.09944965
82	0x3db6ac47	0.08919578
83	0xbd808bf3	-0.06276693
84	0xbd84bfe6	-0.06481914
85	0xbdc2a57b	-0.09504219
86	0x3da58da6	0.08083658
87	0x3dc637db	0.09678622
88	0x3cd3f161	0.025871934
89	0x3e25fbb8	0.16209304
90	0x3e18fc87	0.14940082
91	0xbe2b1445	-0.16706951
92	0xbd8b3ba7	-0.06798487
93	0xbde7eb61	-0.11324192
94	0x3af9ff5f	0.0019073299
95	0xbdc120cb	-0.09430083
96	0xbe1931ab	-0.14960353
97	0xbe01f56d	-0.12691279
98	0x3daae55b	0.08344527
99	0xbd2920cb	-0.04129104
100	0x3e269661	0.16268303
101	0x3d466407	0.048435237
102	0x3ce6ecff	0.02818918
103	0x3e00a4f9	0.12562932
104	0xbd5c86b8	-0.053839415
105	0xbdbf1993	-0.0933105
106	0x3df9d91d	0.12199614
107	0xbe0cc086	-0.13745317
108	0x3de8d811	0.113693364
109	0x3dea58ab	0.11442693
110	0x3bddb31c	0.0067657363
111	0x3e1ad210	0.15119195
112	0xbc5d08fa	-0.01349091
113	0x3e0e9660	0.13924551
114	0xbe01d47c	-0.12678713
115	0xbd58bf11	-0.05291659
116	0xbc6fa811	-0.0146274725
117	0x3dc88cdc	0.09792492
118	0xbe2466f7	-0.16054903
119	0xbdcbae37	-0.09945338
120	0x3d6c9209	0.057756457
121	0x3db23f8a	0.08703525
122	0x3e0c2a5f	0.13688038
123	0x3e08852b	0.1333205
124	0xbd3ea5ab	-0.046544712
125	0x3d4a7325	0.049426217
126	0x3dbdb13a	0.09262319
127	0x3ab6b6c4	0.0013939966
128	0xbd9ff7fe	-0.07810973
129	0x3d878f76	0.0661916
130	0xbd3fc9d5	-0.04682334
131	0x3d890489	0.06690318
132	0x3bc93e35	0.006141449
133	0x3ceeca5c	0.029149227
134	0x3e238a26	0.15970668
135	0xbe401d52	-0.18761185
136	0x3da15649	0.07877786
137	0xbd92754e	-0.0715128
138	0xbd25fc92	-0.040524073
139	0x3d5538c5	0.052056093
140	0x3dbad147	0.09121948
141	0xbe1d7711	-0.15377451
142	0xbe0d33cd	-0.13789292
143	0x3decb620	0.11558175
144	0xbcbf2b3b	-0.023336044
145	0xbe415089	-0.18878378
146	0xbc76fec6	-0.015075391
147	0x3c87e1e9	0.016587215
148	0x3c9a4ecf	0.018836407
149	0xbdee044c	-0.11621913
150	0x3e318f0e	0.17339727
151	0x3d730799	0.059333418
152	0x3d06b670	0.03288883
153	0x3ce544ee	0.02798697
154	0x3e224ecc	0.15850371
155	0xbb6b931f	-0.0035945845
156	0x3d6fecf4	0.058575585
157	0xbdbaa875	-0.09114162
158	0x3e0ff50e	0.14058325
159	0xbdef4c06	-0.11684422
160	0x3dc7705e	0.09738229
161	0x3e27d743	0.1639071
162	0xbdfd05ea	-0.12354644
163	0x3e4a21d6	0.1973947
164	0x3e7999fb	0.24375145
165	0xbe35dad1	-0.17759253
166	0xbe1a5fd1	-0.15075614
167	0x3db7cac9	0.08974225
168	0x3bdfe864	0.006833123
169	0xbc3df77f	-0.011594652
170	0x3b92380d	0.004462248
171	0x3dffe8d6	0.12495582
172	0xbdd71c1a	-0.10503407
173	0x3caad954	0.020855583
174	0x3df99441	0.1218648
175	0x3dd2f979	0.103014894
176	0x3dd91e59	0.106014915
177	0x3dd1d90d	0.10246477
178	0x3e267abd	0.16257758
179	0x3e145aaa	0.1448771
180	0xbd044d60	-0.032300353
181	0x3ddb2720	0.10700822
182	0xbd9ff204	-0.07809833
183	0x3db3c18a	0.08777149
184	0x3d6781fa	0.05652044
185	0x3dc1f2e7	0.09470158
186	0xbddad426	-0.10684995
187	0xbd38d712	-0.045126982
188	0x3e02a601	0.12758638
189	0xbce07a22	-0.027401987
190	0xbd4a6646	-0.04941394
191	0x3d58f4f8	0.052967995
192	0x3e0dcfa8	0.13848746
193	0x3e0844e0	0.13307524
194	0xbd0d75ed	-0.03453629
195	0x3e1637a2	0.1466966
196	0xbdf25f29	-0.118345566
197	0xbd44d6a7	-0.04805627
198	0x3e155d6b	0.14586417
199	0x3dcf410e	0.1011983
200	0xbbe45ad1	-0.006968834
201	0xbe273eff	-0.16332625
202	0xbdb17b9c	-0.08666155
203	0x3d57d949	0.052697454
204	0xbacbb51c	-0.0015541646
205	0xbcc42617	-0.023943944
206	0x3caf7a6c	0.02142068
207	0xbcaf80cf	-0.021423725
208	0xbda0cad8	-0.078511894
209	0xbdbb7e7b	-0.091549836
210	0xbd63872e	-0.05554884
211	0x3c6b6780	0.014367938
212	0xbc958fa3	-0.018256968
213	0x3e175081	0.14776804
214	0xbe2f62f2	-0.17127588
215	0xbe016c1b	-0.12638895
216	0x3dde7970	0.10863006
217	0x3e040e91	0.12896182
218	0xbe0dd161	-0.13849403
219	0xbe1c455c	-0.15260834
220	0xbd67a2b5	-0.056551654
221	0xbd102b99	-0.035197828
222	0xbde42a3e	-0.111408696
223	0x3e16ee37	0.14739309
224	0xbd244321	-0.04010308
225	0x3e1a3be8	0.15061915
226	0xbd4a43f8	-0.049381226
227	0x3d7976ff	0.0609045
228	0x3bd5f989	0.006529991
229	0xbe09c181	-0.13452722
230	0x3d674117	0.05645856
231	0xbd338db9	-0.04383633
232	0x3dcb6fbc	0.09933421
233	0x3c90589d	0.01762038
234	0xbd4e36c7	-0.05034521
235	0x3d417730	0.047232807
236	0xbddc9ded	-0.107723095
237	0x3dbf1dd3	0.093318604
238	0x3cb1344d	0.021631384
239	0xbdf34976	-0.11879246
240	0xbd1a239f	-0.037631627
241	0x3d2d87d7	0.042365875
242	0x3dbdef5a	0.09274168
243	0x3dd0f57e	0.10203074
244	0xbd0815a4	-0.033223763
245	0x3dc7741c	0.09738943
246	0xbe253db0	-0.16136813
247	0x3d18bca1	0.037289266
248	0x3d579852	0.0526355
249	0xbdc2ed8c	-0.09517965
250	0x3d6f502d	0.05842607
251	0x3d1e33e5	0.03862371
252	0x3deb726c	0.114964336
253	0x3d9ce85d	0.07661507
254	0x3cdfe4cc	0.027330779
255	0xbd525d78	-0.05135867

rnn.weight_hh_l2 f4 [32, 32]
0	0x3d16ccc1	0.036816362
1	0xbdf3f584	-0.11912063
2	0x3e34b292	0.17646244
3	0xbc9354a9	-0.017984705
4	0xbc276367	-0.01021657
5	0x3bf99f11	0.007617839
6	0x3de55dda	0.111995414
7	0x3e465e6d	0.19371958
8	0x3d965154	0.07339731
9	0xbe21f6d9	-0.15816821
10	0x3e3638fb	0.17795174
11	0x3e29b03d	0.16571136
12	0xbd741504	-0.059590355
13	0xbd98a3c8	-0.07453114
14	0x3e26a70f	0.16274665
15	0x3e93b5e7	0.28849718
16	0x3d79daba	0.06099961
17	0xbc471b43	-0.012152496
18	0x3da210e0	0.07913375
19	0x3d4a99f0	0.049463212
20	0x3da5457d	0.080698945
21	0x3ce331df	0.027733741
22	0xbd97e380	-0.07416439
23	0x3dbf59a9	0.09343273
24	0xbe33f852	-0.17575195
25	0xbe2dc31a	-0.16968957
26	0xbe410de3	-0.18852954
27	0xbd890c31	-0.066917785
28	0xbe45ad3f	-0.1930437
29	0x3d5a9dc9	0.053373132
30	0xbd88e2aa	-0.06683858
31	0xbdb602bd	-0.08887241
32	0xbdba0eb3	-0.09084835
33	0xbe095cd0	-0.13414311
34	0xbd729134	-0.059220508
35	0x3e083844	0.13302714
36	0x3d05950c	0.032612845
37	0xbdd46aca	-0.10371931
38	0x3c582367	0.013192034
39	0x3d834272	0.06409158
40	0xbc308f3d	-0.010776338
41	0x3d6ff2b2	0.05858106
42	0xbd9fca3a	-0.078022435
43	0x3e1c6817	0.15274082
44	0xbe469f45	-0.19396694
45	0xbe1377a2	-0.14401105
46	0x3e0613d3	0.130935
47	0x3c779caa	0.015113035
48	0xbe1b8635	-0.15187915
49	0xbdb826a3	-0.08991744
50	0x3d967306	0.07346158
51	0xbe01e831	-0.1268623
52	0xbe37df24	-0.17956215
53	0xbe079da9	-0.13243736
54	0xbdbf9dd1	-0.09356273
55	0xbe0c8ddf	-0.13725995
56	0x3dc53b1a	0.09630413
57	0x3de63647	0.11240821
58	0x3e704b2c	0.23466176
59	0x3e0a04fb	0.13478462
60	0xbc46fc6f	-0.012145146
61	0x3d3b0dd8	0.0456675
62	0x3bce2a33	0.0062916516
63	0x3d76c9ad	0.060250927
64	0x3dae448c	0.08509168
65	0xbd10f2c1	-0.03538776
66	0x3e8e22c3	0.27760896
67	0x3e1a7b0d	0.15086003
68	0xbab4a06f	-0.0013780723
69	0xbcabd016	-0.020973247
70	0x3c79ae3f	0.015239297
71	0x3e1781c4	0.14795595
72	0x3e04941e	0.12947127
73	0xbdebdb7d	-0.115164734
74	0xbd99180c	-0.0747529
75	0xbe149a39	-0.14511956
76	0x3b8d012b	0.0043031177
77	0x3d925f54	0.07147089
78	0xbe61477d	-0.21999927
79	0xbd7e0a25	-0.062021393
80	0x3dbb6254	0.09149614
81	0xbdb8f815	-0.09031693
82	0x3e238ad5	0.15970929
83	0x3dd7b1cf	0.10531961
84	0xbe2d9c3e	-0.16954133
85	0x3e08997d	0.13339801
86	0xbd409def	-0.047025617
87	0x3e0d1a97	0.13779674
88	0x3dd8cb3e	0.1058564
89	0x3d9a19f9	0.07524485
90	0xbdd13a92	-0.102162495
91	0xbd838f71	-0.06423844
92	0xbe574c85	-0.21025284
93	0x3dca086e	0.09864889
94	0x3e22fa6b	0.1591584
95	0xbda4e365	-0.080511846
96	0xbdebd722	-0.11515643
97	0x3d47a67e	0.048742764
98	0x3e26fabe	0.16306588
99	0x3df2c87e	0.11854647
100	0xbe1d5ce1	-0.15367462
101	0x3b273095	0.0025511135
102	0x3e052489	0.13002218
103	0x3e283c0a	0.16429153
104	0xbdd8c993	-0.10585322
105	0x3e0d05e5	0.1377178
106	0xbdff02c5	-0.124517
107	0xbe125d42	-0.14293388
108	0x3e3cd6c9	0.18441309
109	0x3d2802b3	0.0410182
110	0xbd32f852	-0.043693848
111	0xbda168ed	-0.07881341
112	0x3d41898e	0.047250323
113	0xbdaab0c4	-0.083344966
114	0x3d85e027	0.06536894
115	0xbd714984	-0.058908
116	0x3df76784	0.12080291
117	0xbe5481c8	-0.20752633
118	0x3dfd2469	0.1236046
119	0x3e468eb5	0.19390376
120	0x3e44851f	0.19191407
121	0x3e231100	0.15924454
122	0xbd914d80	-0.0709486
123	0xbe032cae	-0.12810013
124	0xbcfb24e6	-0.030657243
125	0x3e1e4b2d	0.15458365
126	0x3c54450d	0.012955916
127	0xbc32b7e1	-0.010908098
128	0x3e6f4c0b	0.23368852
129	0x3d93fdd1	0.07226146
130	0xbd933489	-0.07187755
131	0xbd85f91d	-0.06541655
132	0xbbd6dcf1	-0.0065571
133	0x3e52a324	0.20570046
134	0x3d81cd1b	0.06337949
135	0xbd6d7790	-0.05797535
136	0x3e080560	0.132833
137	0xbe5a6390	-0.21327043
138	0xbe3bf328	-0.18354475
139	0xbd83b67d	-0.06431291
140	0xbd1fdd94	-0.039029673
141	0x3dff750c	0.12473497
142	0xbdc02033	-0.093811415
143	0x3e6126d7	0.21987472
144	0x3dc02cd1	0.09383548
145	0xbdd44dfb	-0.10366436
146	0x3a4b49cb	0.00077548315
147	0x3e25f8d8	0.16208208
148	0x3d639c83	0.055569183
149	0xbe5bc2c7	-0.2146102
150	0x3dc76d42	0.09737636
151	0xbe436fac	-0.19085568
152	0xbd5438c2	-0.05181194
153	0xbd33bd01	-0.04388142
154	0x3d9e20d6	0.07721107
155	0xbcca20b2	-0.024673793
156	0xbd967d42	-0.0734811
157	0xbd4bc316	-0.049746595
158	0xbd1b502a	-0.037918247
159	0xbd39051d	-0.045170892
160	0x3d90f408	0.07077795
161	0x3d9a3eb0	0.07531488
162	0xbdf0fe99	-0.11767311
163	0x3c94809e	0.018127736
164	0x3e206ee9	0.15667309
165	0x3e957d4b	0.29197153
166	0xba55032b	-0.0008125777
167	0x3e3c3d06	0.18382654
168	0x3d444f53	0.047927212
169	0xbdf04a59	-0.11732931
170	0x3e149b33	0.14512329
171	0x3e184b13	0.14872389
172	0xbe1a93f1	-0.15095498
173	0x3e0d079f	0.13772438
174	0xbd47fcd5	-0.048825104
175	0x3dd9dfed	0.106384136
176	0x3c94e1b9	0.01817404
177	0xbd4cb4ca	-0.0499771
178	0x3ceb6ae6	0.028737497
179	0xbd293680	-0.04131174
180	0xbe2183a9	-0.1577288
181	0xbdc49ded	-0.096004345
182	0xbd911f2c	-0.07086024
183	0xbda2389a	-0.07920952
184	0xbca2190c	-0.019787334
185	0xbdc81a5d	-0.097706534
186	0x3e0b6a44	0.13614756
187	0x3de7d0c0	0.11319113
188	0xbe46c8dc	-0.1941256
189	0x3cffff08	0.031249538
190	0xbdfc8549	-0.123301096
191	0x3c78cfca	0.0151862595
192	0x3d7447ab	0.05963866
193	0xbd3da5ce	-0.0463007
194	0xbe176e37	-0.14788137
195	0xbd0cb0b8	-0.03434822
196	0x3df07c8a	0.11742504
197	0xbcfc852a	-0.030825216
198	0xbe43f853	-0.19137697
199	0xbe0c5bae	-0.13706848
200	0xbde04b99	-0.10951919
201	0xbcc20db0	-0.023688167
202	0xbdc82970	-0.097735286
203	0xbc358c3e	-0.0110808
204	0x3dd71cce	0.10503541
205	0xbd89ebf5	-0.06734458
206	0x3e0e0199	0.13867797
207	0x3c891268	0.01673241
208	0xbe2b9318	-0.1675533
209	0x3dd10ca8	0.10207492
210	0xbe0d43c2	-0.13795379
211	0xbdca37e7	-0.09873944
212	0x3e31facf	0.17380832
213	0x3cee9102	0.02912188
214	0x3c2fc3df	0.010727852
215	0x3dd27552	0.10276283
216	0xbd07adab	-0.033124607
217	0x3e0ff6ee	0.1405904
218	0xbe11b6f9	-0.14229955
219	0xbdc40ebf	-0.09573125
220	0x3e0e568e	0.13900205
221	0x3e07dd50	0.13268018
222	0xbe2bc15a	-0.16772977
223	0xbbd7b515	-0.006582866
224	0x3e4132cc	0.18867034
225	0xbe104026	-0.1408697
226	0x3e845b09	0.25850704
227	0x3ca3ad36	0.019980054
228	0xbdcdd7ac	-0.10050902
229	0x3e6d8044	0.2319346
230	0xbbf3ad57	-0.007436435
231	0xbc56a097	-0.013099811
232	0xbd723389	-0.05913118
233	0x3e345ea4	0.17614228
234	0x3d17be57	0.037046757
235	0x3e2956d5	0.1653703
236	0x3e2396f6	0.15975556
237	0x3e0ff71d	0.1405911
238	0xbc184aaa	-0.009295145
239	0xbe2871ba	-0.16449633
240	0xbce12fba	-0.027488578
241	0xbd10e4d7	-0.03537449
242	0xbd078103	-0.03308202
243	0x3d15ff21	0.036620263
244	0xbd3cbb42	-0.04607702
245	0xbdf18d29	-0.11794502
246	0x3dfdab1c	0.12386152
247	0x3e05105b	0.1299452
248	0xbe0b316f	-0.13593076
249	0xbddb28d3	-0.10701146
250	0x3cac5ca9	0.021040278
251	0xbdac94a0	-0.084267855
252	0xbe87c16d	-0.2651476
253	0xbdc32329	-0.09528191
254	0xbd720c66	-0.059093855
255	0xbe28f95a	-0.1650137

rnn.bias_ih_l2 f4 [32]
0	0xbdaa41c6	-0.083133265
1	0xbe1fa3af	-0.15589784
2	0x3db575d3	0.08860364
3	0x3d6e6971	0.058206026
4	0x3d9058ab	0.07048162
5	0x3d7a9f51	0.061187092
6	0x3d38c410	0.045108855
7	0x3e18ce41	0.1492243
8	0xbd0c0418	-0.03418359
9	0x3d023c4c	0.031795785
10	0x3c1f93dd	0.009739843
11	0x3e221e82	0.1583195
12	0x3e0ffd07	0.14061366
13	0xbe20d783	-0.15707211
14	0x3d8bd2f4	0.068273455
15	0x3e010f41	0.12603475
16	0xbd94d6e4	-0.0726755
17	0x3da8a19a	0.08233948
18	0xbcbb6052	-0.022873078
19	0xbd6d687a	-0.057960965
20	0x3cf49a76	0.029858809
21	0x3d81aa94	0.06331363
22	0xbdc2539f	-0.09488606
23	0x3c1831cb	0.009289215
24	0xbbfc3e2f	-0.0076978425
25	0x3c2e3715	0.01063325
26	0xbe13cb87	-0.14433108
27	0x3d9949a3	0.07484748
28	0x3ad8b396	0.0016533013
29	0x3de33251	0.110935815
30	0xbdb266bd	-0.08711002
31	0xbc2ed577	-0.010671011

rnn.bias_hh_l2 f4 [32]
0	0xbd07ff96	-0.03320273
1	0x3db57c04	0.08861545
2	0x3d185db1	0.037198726
3	0xbd7073bc	-0.058704123
4	0x3ddc7df4	0.10766211
5	0xba61630f	-0.000859783
6	0x3d8b25d0	0.067943215
7	0xbdbb05fa	-0.09131999
8	0x3d6261ff	0.055269238
9	0x3db00739	0.085951276
10	0x3befeacc	0.007321691
11	0xbe2e4585	-0.17018707
12	0xbdb33800	-0.087509155
13	0xbcc9f29f	-0.024651824
14	0xbdce8f91	-0.10085977
15	0xbdd77093	-0.10519519
16	0x3dcbd28d	0.09952269
17	0xbe090f18	-0.13384664
18	0x3cc5735e	0.024102863
19	0x3dd2bff6	0.1029052
20	0xbc73681e	-0.014856366
21	0x3d07744b	0.03306989
22	0x3cc6d8ed	0.02427336
23	0xbdcc4d96	-0.09975736
24	0xbdd13947	-0.10216003
25	0x3c2768e5	0.01021788
26	0x3de81adb	0.11333247
27	0x3d755e9a	0.059904672
28	0xbcfa15a3	-0.030527895
29	0x3c7476e2	0.014920922
30	0x3dcb2326	0.099188134
31	0x3ccbca58	0.024876758
