Supervised/00_exercises/lab_10/lightning_logs/version_1/checkpoints/epoch=19-step=7800.ckpt (torch, 146116 bytes, 66 tensors)

rnn.weight_ih_l0 f4 [32, 10]
00000000: 8a2d b5bd dc7d 333c 50b6 debd a2e3 5ebd
00000010: 84f2 17bd f4f4 81bd 91ec f8bc 6d87 f6bd
00000020: 7e13 d7bd 8e35 62bc a8b1 803c 9313 1cbe
00000030: 5ec6 97bc 3566 6939 4780 c63b 8658 fabd
00000040: 72d8 79bd 8e7b c1b9 fa3a 263c 7c89 f53c
00000050: 149b f13d b0ff 53bd f6ae 76bd 05c0 b8bd
00000060: 5274 f23d a95e aa3d 4ae9 e839 969a 2bbe
00000070: e6b7 c9bd 7cae c3bd 4241 c13c 5feb b0bd
00000080: 65d0 e1bd 4879 c3bb e9e5 39bc 5b4b 7b3d
00000090: 74d9 b33d 4a5a 823d 139d ab3d f8fb c0bd
000000a0: 9ed5 cdbc 98a5 183d 8e5a 693c 725a f8bc
000000b0: 8f3f ef3d 64eb 0f3e b9e9 643c f05a 45bc
000000c0: 58dd e3bc 5f7a 763d 4541 b23d 5c81 f53c
000000d0: 4a15 be3c 2bfe bbbc 60be bdbc 4a1d 0c3e
000000e0: 56f4 06bd 062b 19be 7ad9 ab3d f207 9bbd
000000f0: 9f0f a3bc f83f 5cbd 0b32 32bc aaee 2abd
00000100: 8dcc ce3c bdba 0a3b b468 cfbd b884 cd3d
00000110: f959 7bbd cdd5 d53c ae3a 5d3d 81ee bcbd
00000120: e5c2 3abd 2eb9 7a3d 615d ec3c 569b 713c
00000130: 8245 ca3d 48c8 323c 2829 153c 3262 9fbd
00000140: 5f36 853c 0fbb 893b b787 873c c8cd 9e3c
00000150: 5bbe a73d 9d3a 0f3e f32c 4c3d 9167 c53d
00000160: 9ed8 f7bd 8184 b6bd d7f9 adbb 9974 3e3d
00000170: 31f3 e7bd 8624 99bc 9d02 c7bd 36f5 b23c
00000180: 6da8 3bbc c3c5 8dbc 66a0 78bc 2407 94bb
00000190: 69e0 9dbd b0b1 513d a2f2 173d 0812 f0bc
000001a0: 4527 6f3c d8ff 243d 7bc0 353e 76b2 71bd
000001b0: a729 76bd b396 02be 4a9e e2bd 3609 88bd
000001c0: eb02 91bd 54f6 aa3b 5645 603d e184 05bc
000001d0: 48d8 8a3d 0050 a6bd 4204 c2bc 4d71 d93c
000001e0: 951e ba3c 4d0e 053e a2a9 ce3d 183b 8d3d
000001f0: eea1 ab3d 0516 f1bd 12ab 543c fcb0 173d
00000200: 300d b1bd 2bd8 8bba 2904 0c3c a852 aebd
00000210: 6041 373d 8e8d 0a3e ac29 143d 8929 94bd
00000220: f49f 023e 5548 33be 0330 1abd 1b00 733c
00000230: e8a6 053c 457d f13d 00a5 0b3e fdad 263d
00000240: fd73 97bd 6283 efbd d404 ccbd 1ac0 0ebe
00000250: cc13 663d be6d 9bbd 6f4e 053d c7f5 df3d
00000260: ff9c 8e3d 601b a83d 18b2 863d bd21 3b3c
00000270: ad6a 593d 7ced 173d a99a 603c f6ae cfbc
00000280: 7db4 613d 4b5a 0c3e 26d7 933d 97ab 413c
00000290: 728d 013d c913 913d f180 1abc f91c 363d
000002a0: 58c7 853d 66d4 913d 8f80 64bd 6bb5 99ba
000002b0: 9e7f c9bc 4d59 c23c 3930 bdbd aed1 573b
000002c0: 9981 f83c 2d10 8dbd c840 8bbd e605 c0bd
000002d0: 1c48 f03d 655e 883d 3920 97bd 19c3 bcbd
000002e0: 82a7 803d 24de 003e fe99 2abe d005 21be
000002f0: ef94 823c 57ba d0bd 12a0 563d 21c2 8bbd
00000300: 7f0e 90bd f52f 413d b31f 05bd eab5 ccbc
00000310: cc42 ad3b b2f9 a93d ac01 873d b9f6 b83d
00000320: fd75 753d 0a47 063d 48a9 0bbe 0e57 3dbc
00000330: b712 a13d 5e0d 2c3d 13a4 4abc f002 043d
00000340: eb5c 9db9 868b a33d 8ca5 7c3d 60df 86bd
00000350: 1a80 22bb ff8e 203d bd3b 4bbd 768a 483d
00000360: 4bbe 7abc a75a 893d 81b8 693d c7b1 ffbc
00000370: 0fe1 e0bd 51f3 bdbd f9f3 2ebe 83a7 2bbc
00000380: b61b 0abe 591d 62bc 12f6 49bd bcb5 df3c
00000390: ad2d c1bc 88b4 a43c 1d3f 223e 28de ca3d
000003a0: dcf8 333e 24ba ff3d d2aa 153e c624 783d
000003b0: 8577 623e c486 e8bd 6f74 38bc e3b0 0dbe
000003c0: 4bf1 833d e31a 0cbe 0c40 123d cf3a 303e
000003d0: 725a 203d 61dc 003d 10ea 96bd 282c 373d
000003e0: 14ec fabc 49f1 f8bd 5bc8 6dbd 4a0c b63d
000003f0: a0a0 e1bd 889f 8b3d 5b98 9dbd 3002 c7bd
-0.088465765 0.0109553 -0.10874617 -0.054416306 -0.037096515 -0.06345549 -0.030386241 -0.12037549
-0.10501765 -0.013806714 0.015709713 -0.15241842 -0.018527206 0.00022258687 0.0060577723 -0.12223916
-0.060997434 -0.00036903884 0.010145897 0.029972784 0.11797157 -0.051757514 -0.06022545 -0.09021
0.118385926 0.08318836 0.00044424302 -0.16758189 -0.09849529 -0.09554765 0.023590688 -0.086386435
-0.11026076 -0.0059653856 -0.011346319 0.06135116 0.0878171 0.063648775 0.08379569 -0.09423059
-0.025126275 0.037267298 0.014242781 -0.030316565 0.11682045 0.14054638 0.013971739 -0.012045607
-0.027815506 0.060175296 0.087038554 0.02996891 0.02320351 -0.022948345 -0.023162067 0.13683048
-0.03294786 -0.14957818 0.0839109 -0.07569875 -0.01990491 -0.053771943 -0.010876189 -0.041731514
0.025244022 0.0021168434 -0.101273924 0.1003508 -0.0613651 0.026102925 0.05401104 -0.092251785
-0.045596022 0.061211757 0.02885312 0.014746508 0.09876539 0.010912009 0.009104051 -0.07782401
0.016261278 0.0042032073 0.016544206 0.019385234 0.08190604 0.13987203 0.049847554 0.09638894
-0.12101863 -0.08911992 -0.0053093242 0.046497915 -0.11325682 -0.018694174 -0.09717295 0.021845441
-0.01145373 -0.017306214 -0.015174961 -0.004517453 -0.077088185 0.051194847 0.037096627 -0.029305473
0.014596765 0.040283054 0.17749207 -0.059008084 -0.060098317 -0.127528 -0.110653475 -0.06642382
-0.07080635 0.005217353 0.054753624 -0.008149357 0.067795336 -0.081207275 -0.02368367 0.026543284
0.02271966 0.12993737 0.10090949 0.06896037 0.08380495 -0.11771778 0.0129802395 0.03703402
-0.086450934 -0.0010669281 0.008545914 -0.08511859 0.04474008 0.13530561 0.036172554 -0.07234485
0.1275633 -0.17508061 -0.037643444 0.014831568 0.008157469 0.117914714 0.13637161 0.040693272
-0.0739517 -0.11694981 -0.099618584 -0.13940468 0.056171224 -0.07589291 0.032545503 0.1093555
0.069635384 0.08208346 0.065769374 0.011421618 0.05308025 0.037091717 0.013708749 -0.025351983
0.055103768 0.13706319 0.07218771 0.011820695 0.031629033 0.07083852 -0.009430156 0.044461224
0.065321624 0.0712059 -0.055786666 -0.001172704 -0.024596985 0.023724223 -0.09237713 0.0032931375
0.030335234 -0.06887851 -0.067994654 -0.09376125 0.11732504 0.06658629 -0.07379193 -0.092168994
0.062819496 0.1258474 -0.16660306 -0.15724874 0.015940158 -0.101917915 0.05239875 -0.068241365
-0.07034015 0.047164876 -0.032500934 -0.024989087 0.005287504 0.08299579 0.06592116 0.090314336
0.059926976 0.032782592 -0.13638794 -0.0115564 0.07864898 0.042004935 -0.01236822 0.032229364
-0.00030014603 0.07985596 0.061681315 -0.06585574 -0.0024795593 0.03919887 -0.049617518 0.04896017
-0.015304158 0.06706744 0.057060722 -0.0312127 -0.109804265 -0.092749245 -0.17085256 -0.01047695
-0.13487133 -0.013800942 -0.049306937 0.027308337 -0.02358135 0.020105615 0.15844388 0.09905654
0.17575401 0.124866754 0.14615944 0.060581945 0.22115906 -0.113538295 -0.011258229 -0.13837008
0.06442507 -0.13682131 0.03570561 0.17209934 0.039148755 0.03146017 -0.07368863 0.044719845
-0.030630149 -0.121553965 -0.058052402 0.08889063 -0.11016965 0.068175375 -0.07695075 -0.09717214

rnn.weight_hh_l0 f4 [32, 32]
00000000: 900c 99bc ab3f aaba 6c69 2a3e 3b69 c93c
00000010: 4326 16be 2ba2 12be 1a26 2a3d da55 893c
00000020: 03e7 283c eafe 403d 56d9 e7bd fcc4 8fbd
00000030: 2afd c0bc 8d24 36bd 679a dcbc 1f12 27be
00000040: 383f 783d f651 a7bd dbd3 443d d2d8 d13c
00000050: d42a 1abe f914 10be 329f db3c a3f5 7bbd
00000060: 33f0 813d aa6e 95bd 766b 6d3c 8f3f c63d
00000070: 2e3c 343d 5ddc dfbd c1e0 b03d 4396 16be
00000080: 4d3a 223d 1777 94bd 20cc 763d 3249 a93d
00000090: 9526 54bd 8ce8 ef3d ca2d dbbd 0064 58bd
000000a0: 9d07 1cbe d8de 20be 440c 82bd 5ae9 e0bd
000000b0: 30d5 393e 1f3c 953c b0d7 0bbe be1b 423d
000000c0: 308f ffbd 5498 8a3d 3c3d 4cbe ba4a 6abd
000000d0: d819 f4bd 82ff 143d 29bf b13d 138f 9d3d
000000e0: 917e a73d 11e4 5dbd d683 3c3d caef 373e
000000f0: d2f6 c43d 5429 f83c 6de2 383e fc59 51bc
00000100: 9d2c 2ebe ef71 0dbe b73c 6b3e 84ba 213e
00000110: 9825 dd3d f103 0c3d 1858 22bd 4677 6dbc
00000120: 8e41 cc3d 32d5 0b3e 07eb a83d 1a14 893d
00000130: 79fe 94bd 914f 0ebd b9e5 4dbd 9b73 df3d
00000140: fde0 733d 5cc0 333e 500a 673e de32 afbd
00000150: 4b37 7abd 2f99 9a3d 9fc2 3abe 91e5 753e
00000160: a096 293e 7a1a 03be e127 14be 9574 26bd
00000170: 31e9 60bd c6c4 3dbe 836f febc fdd6 14be
00000180: 9786 a43d ace8 293e 5f66 843d b53c 17be
00000190: 3460 0bbe e406 bdbc 38cb e0bd ff43 013e
000001a0: e859 613e 12d0 3abe 9df9 c73c 1923 2bbb
000001b0: 4168 7b3c fa74 953c f7d8 5bbe 8646 633d
000001c0: 4ba0 b1bd 343e 87bd c00c ff3b 463d 69bd
000001d0: 9853 aa3d 0edf 583d 17df 8e3d 536a 883d
000001e0: f3d7 14be dcdb ed3d ce5e 11be 0091 16be
000001f0: ff48 22bd a413 083e 6185 48be 8d59 adbc
00000200: fb89 493e acca 323e 9e48 ab3d 75dc 44be
00000210: bcd5 30be 24bd 2c3e 5c5d 98bd ee7d d03b
00000220: 0c06 273e f6f8 bc3d d3fb 71bd ad2c 93bd
00000230: 0301 9cbd f4dd 8e3a 82f9 e1bd 9b45 993d
00000240: 8291 e7bd d70c 1bbe cf0f e13d 8345 4bbc
00000250: 3cd0 aebd f9f4 253d 5e08 143d 0687 84bd
00000260: 09b0 8ebc 7e32 3e3e 478e 1a3c 3b7f 2b3e
00000270: 3825 133e e0ee 77be 6237 423d dc3a dbbd
00000280: e4d9 7dbd c94e de3d 456f da3d a952 30be
00000290: b4f6 953c 1514 343e 3b7b b03d 5eb5 0a3d
000002a0: 4f67 c1bd 9f00 85bd 9464 a1bd 5e81 35bd
000002b0: df07 e9bd dc57 b2bd dbc7 69bd 2d70 a63d
000002c0: bfc7 9abd 22ba 393e 4969 c13d 77e5 57be
000002d0: eee6 363e 5579 17be 84c1 163e 0047 173e
000002e0: e096 5dbb 173f 423e 05af bcbd fa47 783e
000002f0: 6d8b 82be 06af c23d f984 483c 0274 c7bd
00000300: 0ec7 8c3b 8ff8 2cbd 964a 50bd 8cdf c03d
00000310: 7608 27be 581f 40be 3469 b13d 8c70 873d
00000320: 012f a9bd 8436 b73d 6774 b8bd 13ac 683d
00000330: de72 0a3e fb81 2f3d 950d d83d 12d5 4f3c
00000340: fffe a9bd 3a19 43bd bd85 e4bc 2ca3 f6bd
00000350: e617 5f3e 7db3 963d 47be 1dbe af61 29be
00000360: fe93 5e3d 877a 1739 2806 5fbd 0903 6ebd
00000370: adfb 06bc e649 30bd ec34 773c 8504 75bd
00000380: a0cc 6ebb 728d 7cbc f644 483e 24ae 93bd
00000390: 3b5e a4bd 00b4 8e3d a7af 74bd 8d4d 83bd
000003a0: 8716 80bd e71e 0fbe a468 1b3e cc48 cabd
000003b0: 8a03 19be f148 6d3d 0ba2 c23d 5f57 8dbd
000003c0: 2131 c0bc 21e0 b73d 2064 66bd 7219 59ba
000003d0: 9115 1c3c c6cc 633d e52e b3bd 146c b93d
000003e0: 6825 113e 6169 c33d 6dc4 cebd 5e5d 92bc
000003f0: cc79 39be 213c 323e 7fe0 22be b591 1fbe
-0.018682748 -0.0012988945 0.16641778 0.02458631 -0.14663033 -0.14319675 0.041540243 0.01676457
0.010308984 0.047118105 -0.113207504 -0.07019994 -0.023558218 -0.04446845 -0.026929094 -0.16315506
0.060607165 -0.0816993 0.048053604 0.025616083 -0.150554 -0.140705 0.026809309 -0.061513554
0.063446425 -0.07296498 0.014490953 0.096800916 0.044002704 -0.10930703 0.086366184 -0.14705758
0.03960638 -0.07249277 0.060253263 0.08265914 -0.051794607 0.11714277 -0.10702093 -0.052829742
-0.15237279 -0.15710008 -0.06349996 -0.10982008 0.18147731 0.018217145 -0.13656497 0.04738974
-0.12478483 0.067673355 -0.19945234 -0.05720017 -0.11918992 0.036376484 0.08679039 0.07693305
0.081784375 -0.05417258 0.046024166 0.17962566 0.0961739 0.030293144 0.18055125 -0.012777802
-0.17009206 -0.13812993 0.2297238 0.15793806 0.10798186 0.034183446 -0.039634794 -0.014493769
0.09973441 0.13655546 0.08247953 0.06693287 -0.07275099 -0.03474385 -0.05026791 0.10910722
0.059540737 0.17553848 0.22562528 -0.08554624 -0.061087888 0.07548749 -0.18238305 0.24013354
0.16561365 -0.12803069 -0.14468338 -0.040638525 -0.05490989 -0.18532094 -0.031059032 -0.14535137
0.080334835 0.16592664 0.06464838 -0.14769252 -0.13610917 -0.023074575 -0.10976261 0.12623595
0.22006953 -0.18243435 0.024411017 -0.002611345 0.01534468 0.018244255 -0.21469484 0.05548718
-0.086731516 -0.06603661 0.0077835023 -0.0569432 0.083167255 0.052947097 0.06976145 0.06660905
-0.14535503 0.116142005 -0.14196321 -0.1470375 -0.039620396 0.13288742 -0.1958213 -0.021160865
0.19681542 0.17460126 0.0836346 -0.19224723 -0.17269033 0.16869026 -0.07439682 0.0063626682
0.163109 0.09227173 -0.05907805 -0.071862556 -0.076173805 0.0010899887 -0.11033918 0.07483979
-0.1130705 -0.15141617 0.109893434 -0.01240671 -0.08535811 0.040516827 0.036140792 -0.06471066
-0.017417924 0.18573949 0.009433336 0.16747753 0.14369667 -0.24212217 0.0474161 -0.10704586
-0.061975375 0.10854871 0.10665754 -0.17219032 0.018306114 0.17585786 0.08617254 0.03386437
-0.09443533 -0.06494259 -0.07880512 -0.044312827 -0.113784544 -0.08708164 -0.057075363 0.081268646
-0.0755763 0.1813741 0.0944391 -0.21083628 0.1786153 -0.14792378 0.14722258 0.14773178
-0.0033811852 0.1896938 -0.0921307 0.24246207 -0.25496998 0.09506039 0.012238734 -0.097389236
0.00429619 -0.04222923 -0.05085238 0.09417638 -0.16311821 -0.18761957 0.08662644 0.066132635
-0.082609184 0.08945945 -0.09006577 0.056804728 0.13520381 0.04284857 0.105494656 0.012685077
-0.0830059 -0.04763148 -0.027895803 -0.12042841 0.2178646 0.073584534 -0.15404616 -0.1654117
0.054340355 0.00014446127 -0.05444923 -0.058108363 -0.008238715 -0.043039225 0.015088301 -0.059818763
-0.0036437884 -0.015414583 0.19557557 -0.07210949 -0.080257855 0.06967926 -0.059737828 -0.06411276
-0.06254297 -0.13976632 0.15176636 -0.09877166 -0.14942756 0.05793089 0.095035635 -0.0690143
-0.023460926 0.08978296 -0.05624783 -0.0008281685 0.009526626 0.05561521 -0.08749179 0.090538174
0.14174426 0.09541584 -0.10096059 -0.017866787 -0.18112868 0.1740575 -0.15905951 -0.15582927

rnn.bias_ih_l0 f4 [32]
00000000: f589 953c add9 15be 9db0 4dbe 16c6 62bc
00000010: 0b3c cbbd 2534 163b afbf a5bd eaa9 af3d
00000020: 09f0 8a3c dedf 3d3e 4c0d 51bd b45f cb3d
00000030: 59a2 45bd d592 613c 98c1 ed3d 3581 0cbd
00000040: d047 3abc 5510 87bd fa43 dd3c 52bc f33d
00000050: 7923 073e 8116 04bd b619 943c 28bb 84bd
00000060: 0fe8 8a3d 3d46 063e 78ab 88bd 82fe b2bd
00000070: 6502 1fbe 4ebf 08be 32e9 9bbd 90e5 013e
0.01825426 -0.14633818 -0.20086904 -0.013841173 -0.09923562 0.0022919264 -0.08093201 0.085773304
0.01696016 0.1854243 -0.05103807 0.09930363 -0.04825053 0.013767918 0.11609191 -0.03430291
-0.0113696605 -0.06594912 0.027009953 0.119011536 0.13197125 -0.032248024 0.018078666 -0.0648101
0.06782543 0.13112731 -0.0667333 -0.0873995 -0.15528257 -0.13354227 -0.07612838 0.12685227

rnn.bias_hh_l0 f4 [32]
00000000: 16ac 2dbe f24c 50be 6156 e63d b8e6 373c
00000010: b4d5 08be bc39 1abe 1fb1 bbbd 6b5f 94bc
00000020: 9e59 8bbd cc6a 183e cc66 e2bd 3796 0b3e
00000030: 77fe d03d 8332 72bc 638f a33c 1aa8 2bbe
00000040: 16ed 6cbd c3c5 d7bd bddb 99bd f539 59bd
00000050: 8efe c43d df58 013c 6ebc 733d 0bd2 c93c
00000060: 1ae8 3dbd e4d4 50bd 3d4f cabd 623f a03d
00000070: 00af b03b bf06 013e 48d0 27bc 2c2c 77bd
-0.16960177 -0.20341852 0.11246944 0.011224441 -0.13362771 -0.15061086 -0.091646425 -0.018111905
-0.068042025 0.1488449 -0.11054763 0.13631521 0.10204785 -0.014782551 0.019965833 -0.16763344
-0.05784329 -0.10535767 -0.07512615 -0.053033788 0.09618865 0.007894724 0.059505872 0.02463629
-0.046363927 -0.05098428 -0.09878395 0.07824589 0.0053919554 0.1260023 -0.010242529 -0.06034486

rnn.weight_ih_l1 f4 [32, 32]
00000000: a691 63bd 5f75 e9bd 4157 823d 0e09 453d
00000010: 9f33 373e 9a57 a4bd 3e09 e6bd ba00 973c
00000020: 5bbf f1bc cd3b debd 1501 14bc 2d39 ddbd
00000030: fcb6 12be f432 9d3d 1573 313e 1c15 863d
00000040: 1e68 b5bd 38ca b2bc 269e e0bd b4ea b73d
00000050: f926 573e 0c8c 18be 3408 a23d 2bb2 36bd
00000060: e69f 72bd 3840 64bd 726a 18bd 18f8 ac3d
00000070: 9191 33be d947 1d3c 3566 9bbd 4db2 dbbd
00000080: 2c8e 5dbd 146a 11bd 9083 16bd 27fc 053d
00000090: a23f 6c3d 310e 5ebc d052 bfbd 24c0 f4bd
000000a0: ddbc a9bd 7bef e93c 51ec d3bb dd20 dcbd
000000b0: 0034 00bd b2e6 373d 8917 acbd 180c d7bd
000000c0: 1a5e b7bc e9bc f33d cab5 823d ed30 2d3d
000000d0: d9ee adbd b85c 19bd 44e1 543d 06e8 723d
000000e0: 2a3f 79bc ba69 3bbd bed9 15bd 0557 66bc
000000f0: f729 04be fe7c 1cbe e51c 76bd f931 5ebd
00000100: 86ed a5bd 46b1 1a3e 883b fbbc 7574 dabd
00000110: c8cc 243d 9411 3f3e 7ae1 8f3a d97b af3d
00000120: 9e3c b3bd e289 093d b615 5ebc e73c c2bd
00000130: 6651 41bd fa6d ac3d 0755 503e 8169 c23d
00000140: e02d ab3d d969 273e e6f5 a43d 2bd8 33be
00000150: d30f f83c d811 87bb e981 723d 0ede 183e
00000160: f311 09be ae98 23bd 5d6b 9d3d a445 99bd
00000170: 6f3b d23d d397 0a3e a8ec 383e 9f9e babc
00000180: db56 bebd 770b b03d bde5 d0bd 578d b5bd
00000190: 11eb babd dcc5 753e 41c5 9abd d2d4 163d
000001a0: 1fb1 42bd 8565 e63d 43f5 b13d 96a2 8c3d
000001b0: 1286 a33d 61ac dcbd 881f a1bc e539 333d
000001c0: a08e c3bd 88ec f2bd 1cfe 2dbc 90af be3c
000001d0: ad07 ba3d 8673 c9bd 087e aabc fa02 55bd
000001e0: 893c 303d c0ba 8b3d e6c5 3cbd 9f08 87bd
000001f0: c210 5dbd 6e19 4f3d 54ee bfbd 0706 f33c
00000200: 96f0 e3bc efc6 2fbe 635f c1bd a9b1 a1bd
00000210: a7cd cfbd 0e02 50bd b20e 473e a9d5 c33d
00000220: 8358 8a3d be66 3dbb 5f61 1ebd a12c 283e
00000230: 195e af3b 51ad 893d cfff 29be f340 543c
00000240: 9d7a 543d 54cd 93bd bcde fc3c 0c86 bbbb
00000250: 1f94 af3d 4638 1abe 53bd 19be f7cc efbd
00000260: 79d4 0a3e a99e 2a3d 3b21 7fbb 1311 5d3b
00000270: 7462 c63c 97d1 783d 765b b33d 2330 eb3d
00000280: d12c acb9 4da1 c73d da5c 0fbe eb18 04be
00000290: 488a 503d 66ef d5bd fa92 873d 01f9 a73d
000002a0: 0e95 1f3e 4d5e 043e d197 6fbd 984e 063b
000002b0: 7568 263e 6f80 f93d f444 23bd ed3f 06be
000002c0: a600 e439 3781 11be 15a1 f83d b953 95bd
000002d0: e62c 943d 54c8 f9bb 166d 09be 91f7 51bd
000002e0: 68f5 f4bd 909f 093c 57e8 c63d 6a93 c03d
000002f0: a008 99bd 3999 c3bc c0a9 d93d d7bf 47bd
00000300: 786f f6bd 353d 0ebe be07 823b 7665 dcbd
00000310: c132 5e3c 8b9d f4bc 9040 cfbd fec4 84bd
00000320: 95a4 9a3d b522 c8bc fc84 88bd 026c efbd
00000330: 1a32 233e 4a93 95bd 62cb f93b ea1b 94bd
00000340: d5f7 07be 3bd2 0bbd deac 02be 4be2 f23d
00000350: e98f 093e 1ebd 123d fc69 153b 7e7b 3dbe
00000360: 3407 58be 0adf 49bd dd78 afbc 9d7c c63d
00000370: fc3b eb3c a928 983a af18 91bd 6485 663d
00000380: 5f56 e7bd e11f a8bd 204c 573c 6d4e d23d
00000390: 4e56 b9bd d46c a9bc fe54 76bc 4e42 b93d
000003a0: c1a2 803d 7bf1 6c3c 7f0e 5d3d 1357 ad3d
000003b0: 22f2 953d 2ef2 b23d 032e d43d a35a f3bd
000003c0: 50c0 8fbd 1743 0f3d 5854 7f3e a3fd bc3d
000003d0: 332e 4abe 2b53 c93d 425e 56bc 0dee 92bc
000003e0: 00f4 0e3c a138 173e 0e4d 453e d9be abbd
000003f0: 879a 20be 163e 82bd e736 d1bc 2909 7dbd
-0.055558823 -0.1139934 0.063642986 0.04810434 0.17890786 -0.08024521 -0.112322316 0.018432964
-0.02951019 -0.1085125 -0.009033461 -0.10801921 -0.14327615 0.07675734 0.17329057 0.06546995
-0.088577494 -0.021824941 -0.109676644 0.08980313 0.2101096 -0.14897174 0.07911721 -0.044603508
-0.059234522 -0.055725306 -0.03721089 0.08445758 -0.17535998 0.009599649 -0.07587854 -0.107273676
-0.054090664 -0.035501555 -0.03674656 0.032711174 0.057677872 -0.013553188 -0.09341967 -0.119507104
-0.08287976 0.028556576 -0.00646738 -0.10748456 -0.03129959 0.044897743 -0.084029265 -0.105003536
-0.022383738 0.11901266 0.0638233 0.042282987 -0.08492822 -0.03744194 0.051972643 0.059303306
-0.015212813 -0.045755126 -0.03658461 -0.014058833 -0.12906633 -0.15282056 -0.06008615 -0.054246876
-0.081019446 0.15106687 -0.030668035 -0.10666744 0.040234357 0.1865905 0.0010977231 0.08568544
-0.08751796 0.03357876 -0.013554981 -0.094842725 -0.04719677 0.08419414 0.20344935 0.094927795
0.08358359 0.16348971 0.08054714 -0.1756293 0.030280983 -0.004122 0.059205923 0.14928457
-0.13385753 -0.03994053 0.076864935 -0.07483986 0.10265242 0.13534479 0.18059027 -0.022780715
-0.0929391 0.08595937 -0.10200069 -0.08864849 -0.091268666 0.24001259 -0.075571544 0.036824055
-0.047532197 0.11249832 0.08689358 0.06866948 0.07984556 -0.10775066 -0.019668356 0.043756384
-0.09548688 -0.11861521 -0.010619666 0.023277074 0.09083495 -0.098364875 -0.02081205 -0.05200479
0.04302648 0.06822729 -0.04608717 -0.06593441 -0.05397106 0.05056136 -0.09371629 0.02966596
-0.027824681 -0.17165731 -0.09442022 -0.07895214 -0.10146647 -0.05078321 0.194392 0.09562237
0.067551635 -0.002890035 -0.03866708 0.16423275 0.0053517935 0.067225106 -0.1660149 0.012954938
0.051874746 -0.072168976 0.030867927 -0.0057227667 0.08573174 -0.15060529 -0.15013628 -0.11709016
0.13557614 0.041655216 -0.003892972 0.00337321 0.024216868 0.060746755 0.08757679 0.11483791
-0.00032839787 0.097475626 -0.14000264 -0.1290013 0.050913125 -0.10446052 0.066198304 0.082017906
0.15584204 0.12926598 -0.058494393 0.0020493623 0.16250785 0.121827 -0.03986068 -0.13110323
0.00043488032 -0.14209448 0.12140099 -0.072913595 0.07235126 -0.007622758 -0.13420519 -0.05126149
-0.1196087 0.008399859 0.09712284 0.09403117 -0.07472348 -0.023876773 0.1062808 -0.048766937
-0.1203298 -0.13890536 0.003968208 -0.1076154 0.013561905 -0.029860279 -0.10119736 -0.06482886
0.07550923 -0.024430612 -0.0666599 -0.11690523 0.15937081 -0.07303484 0.007623122 -0.07231887
-0.13278134 -0.03413604 -0.12761256 0.11859568 0.13433804 0.035824887 0.0022798767 -0.1850414
-0.21096498 -0.049284972 -0.021419937 0.09691737 0.028715126 0.0011608797 -0.07084786 0.056279555
-0.11295771 -0.082092054 0.013140708 0.10268865 -0.090496644 -0.020681776 -0.015034912 0.0904585
0.06281043 0.01446187 0.053968903 0.08463874 0.07321574 0.08737598 0.103603385 -0.11882522
-0.070191026 0.03497609 0.24934518 0.09228065 -0.19744186 0.09830316 -0.013083996 -0.017935777
0.008725166 0.14767696 0.19267675 -0.08386011 -0.15683948 -0.06359498 -0.025538875 -0.061776314

rnn.weight_hh_l1 f4 [32, 32]
00000000: 946c 323e 93c0 663d 2264 c13d 2f3a 0bbd
00000010: 908b fbbc 6566 b4bd 6c1d a0bd 391b 91bc
00000020: 6289 343d c99c a2bd 4ed2 7fbd 97df c83d
00000030: e967 a23d 10b8 1d3e fa99 d7bd eef2 563d
00000040: de7f 14bd 0acc 58be 7270 3fbd b9f6 18be
00000050: 1e36 183e 1f57 b6bd cc5c 44be 364d bf3d
00000060: 2599 83bd f6c3 8f3d 98fe b9bd 96e8 48bd
00000070: 53c8 3f3e 5ef3 edbd 8359 303e 238e b2bd
00000080: e6bd 72bd e11e 593e 5fdb 433e ddd9 2ebe
00000090: cd93 683d 4231 50be c96e e03d d2f4 a1bd
000000a0: e89c 91bd 76cc 5c3c f410 bb3d ee91 763d
000000b0: 9da0 0c3d fc6d 103e fa22 193e eb8e 2f3d
000000c0: f0c2 953d 8ded 5bbe 6d08 f23d becc 983d
000000d0: 285a 20bd db50 8f3d b1e6 cbbd 8c25 723d
000000e0: 166a 253c 873a 3f3e d199 71bc 1ebe 773e
000000f0: 9024 c1bd e955 253e a9d9 1bbe 5a73 53be
00000100: d74e 3abe 8a69 debb b830 b83e 2145 acbc
00000110: 6046 febd 7f02 743c 128b 043e 6335 16be
00000120: 2cff 59bc 2f52 dabd 207a 713b ac8e ff3d
00000130: 4ece 4a3e 1b2d 13be 6cf5 813d 9596 e93d
00000140: 64b6 27bc a571 1e3e 4328 773d 1123 b5bd
00000150: acfb 1fbe 136d ecbd 1769 b43d fd4e a2bd
00000160: c240 04be 40f4 20be 5e13 d6bc 0a5e 3b3e
00000170: 7d6b 3dbd 7647 1b3e 0514 423d 839d 2cbd
00000180: 47b4 96bd 0061 cebd bbce 70bd dfb5 123c
00000190: 9952 60bd 9cc5 ca3c 14d8 3a3e 1e22 c13d
000001a0: 79c9 bbbd 3302 573e 71b5 6bbc 8a03 8c3c
000001b0: ae0b 78bc d240 3f3e 5dde a23d 0a52 bebd
000001c0: 1b5b ec3d 1aca 02be 5e7a ea3d 882a b33d
000001d0: b1a1 bc3d 5f29 43be 1910 a73d 4ccf a3bd
000001e0: 95d1 f1bd 7370 3c3e cdc6 883d b6c0 753c
000001f0: 6279 643e 52f2 5cbe 0154 8dbd bdcd fb3d
00000200: 8b83 c83d 80cb dabd b2b3 8abe 72d7 563e
00000210: 3a36 213e b368 d93d 6d75 313d 5f64 87bd
00000220: a635 6f3d 3651 b4bb 1b10 6cbd a14b fb3d
00000230: e6a6 453e b2bc 62be 8145 3f3d b87b efbd
00000240: 8bff b13c aae1 45bc 5068 40bc 60c0 b6bd
00000250: 6402 373e 8ae7 89bd 9ea3 9bbd bd4a 0c3d
00000260: 808f 8b3c 8fa4 96bd 4725 033d b393 843d
00000270: b08f c33d c8fb 213c 7855 013e 57f5 b83d
00000280: 9415 c8bc 882c 77bc 85f8 d4bd e95c 10be
00000290: eb62 f8bd d6b1 a63d edb4 a0bd bca5 2cbe
000002a0: 78e0 183e febc 3c3e d141 abbb 3e52 ce3d
000002b0: 922f 8cbd bc5c 03be dcc9 ae3c 6f65 503d
000002c0: f201 2bbd 1afe c73a 7300 ad3d 3f5e ecbd
000002d0: ef99 23bd 24ea 20be 1e6f d2bd a470 013e
000002e0: 35a8 0fbe 389c f0bd e063 65bc 9f36 ab3c
000002f0: 0355 883d c15b 81be cf90 c9bd f6f0 073c
00000300: a62c 8e3b 3531 3dbd c715 bbbd e2f8 173e
00000310: 313d f8bc 8d1d 5e3d 96d6 3ebd ce48 223d
00000320: 38d3 f73d 108b 823d 0ff4 cf3d 8a74 62bd
00000330: 12a4 973b 3144 973d 291e 1b3e b2f5 0abe
00000340: 2f23 0abe ce1d 00be c41c e4bd ab88 353d
00000350: 9032 26be 9c6f 73be 2e4d d0bd 6ed9 e1bc
00000360: 068e e2bd 7157 f7bd a47a 063e 1b65 f3bb
00000370: efec d3bd 82ca cabd f432 3fbe 4e0f 233e
00000380: 7a47 52be 9d2f d73d 8b84 65be ab20 013e
00000390: 235f e53d 3fc9 353d be82 303d 3ce2 533e
000003a0: dd7f 36bd 72c6 12be ad1d 043d 15b1 9b3d
000003b0: 6b94 d83c a57d 67bd 97db 113c e095 bdbd
000003c0: 0a33 2fbe 55c5 e73d 56ac 2dba 681f 80bb
000003d0: 0b5a 363e c220 3ebe 349a a43d 6f31 1d3e
000003e0: 1b64 e9bc 57f8 08be 44ca f9bd 8717 55bc
000003f0: 0c2a b63d 8c2e d03c c67f 2c3d 0ece 2bbd
0.17424232 0.056335997 0.09442927 -0.033991035 -0.030706197 -0.08808593 -0.07818112 -0.017713176
0.04407633 -0.07940061 -0.06245642 0.098082714 0.079299755 0.15402246 -0.105274156 0.05247777
-0.036254756 -0.21171585 -0.046738096 -0.14937867 0.14864394 -0.08903336 -0.19176024 0.09340899
-0.064256944 0.070197985 -0.09081763 -0.049049936 0.18728761 -0.11618684 0.17221646 -0.08718517
-0.059263133 0.21203186 0.19126652 -0.17075296 0.05678158 -0.2033129 0.109586306 -0.07908024
-0.071100056 0.013476482 0.09134093 0.060197763 0.03433286 0.14104456 0.14954749 0.042860907
0.07312572 -0.21477337 0.11818013 0.074609265 -0.03914848 0.06997844 -0.0995611 0.05911784
0.010096094 0.1867467 -0.014746145 0.24193618 -0.09430802 0.16146053 -0.1521975 -0.20649472
-0.18194138 -0.0067874836 0.3597467 -0.021029057 -0.12415767 0.014893173 0.12943676 -0.14668803
-0.013305467 -0.106602065 0.0036846474 0.124783844 0.19805261 -0.14372675 0.06345639 0.11405674
-0.010236356 0.1547304 0.06034113 -0.08844579 -0.15623349 -0.11544242 0.08809107 -0.07925222
-0.12915328 -0.15718174 -0.026132282 0.18297592 -0.046245087 0.15163979 0.047382373 -0.042142402
-0.07358604 -0.10077095 -0.058790904 0.008954494 -0.05476627 0.02475243 0.1824649 0.094303355
-0.09169287 0.20996933 -0.014386521 0.017091531 -0.015139503 0.1867707 0.07952569 -0.092929915
0.115408145 -0.12772408 0.11449121 0.087483466 0.09210528 -0.1905875 0.08157367 -0.07998523
-0.11807553 0.18402271 0.06678543 0.014999559 0.22311929 -0.21576813 -0.06900788 0.12295101
0.09790715 -0.10683346 -0.27090222 0.20980623 0.15743342 0.10615673 0.043324877 -0.06610941
0.058400773 -0.005502845 -0.057632547 0.122702844 0.19301948 -0.22142294 0.046697143 -0.11693519
0.021728298 -0.012077728 -0.01174362 -0.08923411 0.17872006 -0.06733616 -0.07599567 0.034250963
0.0170362 -0.07355606 0.032017972 0.06473484 0.095488906 0.0098866895 0.1263026 0.0903117
-0.024424352 -0.015086301 -0.10398964 -0.14097942 -0.12128242 0.08139388 -0.07847009 -0.16860098
0.14929378 0.1843147 -0.005226352 0.1007428 -0.06845011 -0.12828344 0.021336488 0.050877985
-0.041749902 0.0015258223 0.08447351 -0.115414135 -0.039941724 -0.15714318 -0.102751 0.12640625
-0.1402901 -0.11748546 -0.014000863 0.020900069 0.0665684 -0.25265315 -0.09842073 0.008297196
0.0043388186 -0.046189506 -0.09135013 0.14841035 -0.030302616 0.0542274 -0.046591364 0.039620213
0.12100834 0.0637418 0.10153972 -0.05528692 0.004627713 0.07386053 0.15148224 -0.13570288
-0.13489984 -0.1251137 -0.11138299 0.04431979 -0.16230226 -0.23773044 -0.10170971 -0.027569499
-0.11062245 -0.12077225 0.13132721 -0.007427824 -0.10347926 -0.099019065 -0.18671781 0.15923807
-0.20535079 0.105071284 -0.22413842 0.12610118 0.111997865 0.044381376 0.043093435 0.2069177
-0.044555534 -0.14333513 0.032254864 0.07602135 0.026437959 -0.05651631 0.008902452 -0.09257102
-0.17109314 0.11316935 -0.00066251063 -0.003909994 0.17807786 -0.18567184 0.080372244 0.15350889
-0.028490117 -0.13375984 -0.12196782 -0.013006098 0.088947386 0.02541282 0.04211404 -0.041944556

rnn.bias_ih_l1 f4 [32]
00000000: 3f42 c6bc 3efa 8ebd 20c7 f53d 5514 733c
00000010: ca14 a63d 7165 eb3d 2e2c d93c bbee 12bd
00000020: 7176 43bd 03f4 bd3d 0c85 5c3e 15df 23be
00000030: 3c21 51bd a2fa 493d 0c40 4ebe 8c6e 183d
00000040: d007 ea3c 7878 afbd 28ec 243e 6a4c fcbd
00000050: 6df3 453c 7dd1 8dbc c28e ddbd 05da 9fbc
00000060: edba cabc 775e e63d 5a42 30bc 94d2 c53d
00000070: 781a debd 59d2 ad3c a362 57bd 26e5 adbc
-0.02420151 -0.06981324 0.12000871 0.0148363905 0.08109434 0.11493958 0.026510324 -0.035872202
-0.047720376 0.09275057 0.21535128 -0.16003068 -0.051057085 0.049311288 -0.2014162 0.0372148
0.028568178 -0.085678995 0.16105711 -0.12319262 0.012081963 -0.017311806 -0.108182445 -0.01951314
-0.024747336 0.112484865 -0.010758007 0.09659305 -0.10844892 0.021218466 -0.0525843 -0.02122743

rnn.bias_hh_l1 f4 [32]
00000000: 8dd5 1b3d 5ee5 c6bd d019 983d 5f8e bebd
00000010: 878b 59bd 8596 debd 2a06 6a3b 415b 08be
00000020: 19d3 d93d 8e86 fd3d fbe0 9cbd 07f9 31bd
00000030: 0710 e7bc fbed e1bc a2f8 b1bd 4174 e0bd
00000040: 01c6 16be d57b f5bd b2e0 043e 16c6 c7bd
00000050: db51 6fbd 1287 09be 3683 bb3c bd48 9cbd
00000060: d3cd 03be 4d8f f8bd 81d2 4c3d 7a6e 943d
00000070: e400 47be 8b9c 923d 5f78 f1bd 4f97 143e
0.038045455 -0.09711717 0.07426798 -0.09304499 -0.05311158 -0.10868553 0.003570924 -0.1331606
0.10635967 0.1237918 -0.07660099 -0.04345038 -0.028205885 -0.027579298 -0.08690001 -0.10959674
-0.1472397 -0.1198651 0.1297634 -0.09754579 -0.058427673 -0.13430431 0.022889715 -0.07631061
-0.12871484 -0.121367075 0.05000544 0.07247634 -0.19433933 0.071587645 -0.11790537 0.14510845

rnn.weight_ih_l2 f4 [32, 32]
00000000: f2d9 323d 3aba d23d 55b8 033d 66ee bc3d
00000010: 7b57 e0bd 4397 22bc 58d4 68bd 9fa5 763d
00000020: 8c72 8b3d ab46 da3d 8b87 063c 9954 003e
00000030: 6bbb 113d 7473 1e3e 2904 8c3d ff84 fe3d
00000040: 48b3 ecbd 94c3 c9bd dc33 92bd 8ac7 d8bd
00000050: e885 4dba d56f c93b 2cd3 ba3d 77da 343c
00000060: bdd2 893d aa67 cc3c 51e4 b83d 5904 123c
00000070: a865 91bd 3196 c2bc da66 cebc 7ea7 b03d
00000080: ab1d f03d 174e e5bd d314 9ebd c9bd 9bbb
00000090: 3fcc 1cbc 15b0 27bd 0fd4 1f3e 7a9f a5bd
000000a0: 1231 edbd 0c54 383d 2be1 bfbd 1c75 53bd
000000b0: de16 38be 0da2 783c 9c75 1b3e 3fa3 13be
000000c0: 5807 78bc 8622 8f3d 48b7 2a3e 3fba 8bbd
000000d0: 5589 d2bd 6553 cebd c429 f9bc 1baa 823c
000000e0: b7e7 003e fc4f 3ebc 47f5 e63d 784b 0ebd
000000f0: 5699 40bd f778 213e d21b c13d 4bea baba
00000100: f2e3 f539 b038 f13d 156a 973c 763d 87bc
00000110: c394 ea3d 4293 993d 05b9 a2bd 1940 a8bd
00000120: 454b dabd a7c0 e83d e62f b33d 03b5 c93c
00000130: 8409 c93b 7fe9 b23d 7aa7 f73c a81b 6ebd
00000140: 8f59 af3c 06e9 df3c 615d 2f3c bfbc 13bc
00000150: 1d7e aa3d 74f3 b1bd 7be3 bdbb 8365 3e3e
00000160: 54a7 1d3e 5f2c 2bbb c03d b93d f28c 15be
00000170: ffa8 383c fb34 983d 3277 2bbe a237 2abd
00000180: 1f08 933d 3225 29be 3337 1b3e 0f05 a8bd
00000190: dc64 08be 0dbe 8abd 7cd7 c0ba b419 833b
000001a0: 55bf 53bd 2d29 5dbd ca01 0e3c 819e 9b3d
000001b0: aba2 823d f775 f43d 311c cebd 0266 dbbd
000001c0: c44e c03c b8b4 62bd baf4 29bd 20c2 0dbd
000001d0: 18ff 45bd 1a04 8abd 5fdb 683c f014 82bb
000001e0: 6813 813d 82e1 383c 1e3c 86bc 36c7 0a3c
000001f0: 8f98 bcbc 4f3b bf3d 64aa 1ebd e60d 2bbe
00000200: 71d0 b93a 7cf5 213e 79fe d1bd a30d 833d
00000210: 97ee c13a d254 2ebe 771a 0e3e a84e 97bc
00000220: 66d1 05bd 4a2f d1bc 9944 49bd 9dd8 3b3e
00000230: b768 183e 15f2 95bd b76e 903c 5ebb 163e
00000240: 89c8 0ebe ed31 1339 64b6 28bd f913 16bd
00000250: f429 e83b bfc8 633c cd32 0d3e 2ca9 05be
00000260: 7dd5 903c 65ee 88bd 0c46 cdbd 17b4 89bd
00000270: 975e 7ebd 219b 153e 79b7 14be cb62 f5bd
00000280: faf6 09be 0864 373d 7cdd dbbd 26b7 0dbd
00000290: 6da6 1f3d cbc8 333d af70 563e 4bda 273e
000002a0: 7cec cb3d c28b b43d c9fe 28bd 4d4c b53b
000002b0: 7ccd 91bd 9daf fabd 954c f1ba 3fc3 143c
000002c0: b81d 1a3e 2ba8 ca3d de82 f93d ca99 adbd
000002d0: 3fa1 01bc 0878 ae3d abaf b3bd 7a94 a0bd
000002e0: 4f48 0cbd 1da8 5fbe 6f70 38be 889b 1cbe
000002f0: 4516 dfbd cdc7 0ebe 0361 af3d 93c7 853d
00000300: 9a94 8f3d 6a12 2a3c 23a1 0a3e 6864 27bc
00000310: 0681 a5bd 4316 2bbe 1c46 75be fe5d 8e3d
00000320: ad74 fbbc f524 fb3d f429 123e ca4d 30bd
00000330: 08d7 653c 5880 4cbe 93d6 6b3e 6657 95bd
00000340: cc10 12bc 3ad3 c73d c35a 423e 94b3 753d
00000350: 103c ae3d 8eaa a8bd 4519 103e 7795 e9bd
00000360: 334b 90bd 0368 aabd 0845 8b3c fd49 833d
00000370: 0528 2d3e fc8d 44bd 0d5c c13c 6b11 38bc
00000380: f39e a4bd d5fe 25bd 4b3b 283e a8be 91bd
00000390: 9b95 54bd cd2e f3bc 3dc4 15be 5e39 fe3c
000003a0: 30f5 efbd 6033 4e3c 823f 2bbd 41c5 0b3e
000003b0: 43cb 0bbe f53a a6bd 7a2e 9dbc c4ba 5d3e
000003c0: 570a 18be dee8 26be fe4f 173d 2bc4 afbd
000003d0: f65d babd a8dc cc3d 7759 323c 12ff f5bd
000003e0: a68f de3d 0b51 f13d e552 a93d 7982 98bd
000003f0: 4e09 10bd e9ba 25bd 0118 c4bd bd0b e93c
0.04366488 0.10289426 0.032158215 0.092251584 -0.109541856 -0.009923759 -0.05684313 0.060216542
0.068089575 0.1065801 0.008211027 0.12532271 0.035579126 0.1547373 0.06836731 0.12427711
-0.11557633 -0.09851757 -0.07138798 -0.10584934 -0.0007840083 0.0061473646 0.09122309 0.011038414
0.06729648 0.024951775 0.09027923 0.008912169 -0.070994675 -0.023753257 -0.025195528 0.086256966
0.11724409 -0.11196535 -0.07718816 -0.0047528488 -0.00957018 -0.04093941 0.15608238 -0.08087058
-0.11581625 0.04500203 -0.09369119 -0.051625356 -0.17977473 0.015175355 0.15181583 -0.14417742
-0.01513847 0.06989007 0.16671479 -0.06822633 -0.102801 -0.100745 -0.030415423 0.015950253
0.12588392 -0.011615749 0.11277252 -0.03473994 -0.047021233 0.157688 0.094291344 -0.0014260499
0.00046899874 0.117783904 0.018483201 -0.016508799 0.11454155 0.0749879 -0.07945446 -0.08215351
-0.10658888 0.113648705 0.0874937 0.024622446 0.0061351676 0.08735942 0.030231226 -0.058131844
0.02140501 0.027332794 0.010703416 -0.009017169 0.083248354 -0.08689013 -0.00579494 0.18593411
0.15395862 -0.0026118977 0.09044981 -0.14604548 0.011270761 0.0743198 -0.16744688 -0.04155696
0.07179283 -0.16518095 0.15157776 -0.0820409 -0.13319725 -0.067745306 -0.0014712657 0.004000867
-0.05169614 -0.053994346 0.008667419 0.075985916 0.06378683 0.119365625 -0.10063971 -0.10712816
0.023475058 -0.055348128 -0.041493155 -0.03460896 -0.04833898 -0.067390636 0.014212458 -0.003969781
0.063025296 0.011284234 -0.016386088 0.008470347 -0.023021964 0.09337484 -0.038736716 -0.1670452
0.00141765 0.15816301 -0.10253615 0.063990854 0.0014795837 -0.17024544 0.13877283 -0.018470123
-0.0326704 -0.025535244 -0.049137685 0.1834435 0.14883696 -0.07321564 0.017630918 0.14719912
-0.13943686 0.00014037611 -0.041189566 -0.03664014 0.0070850793 0.013902842 0.1378891 -0.13052815
0.017679924 -0.06686095 -0.10023126 -0.067238025 -0.062101927 0.14609958 -0.14523114 -0.11981734
-0.1347312 0.04477313 -0.10735604 -0.034598492 0.038977075 0.043892663 0.20941423 0.16391866
0.09957215 0.08815719 -0.041258607 0.0055327774 -0.07119271 -0.12240527 -0.0018409664 0.009079753
0.150504 0.09895357 0.12183164 -0.084765986 -0.007911979 0.08518988 -0.087737404 -0.0784082
-0.034248646 -0.21841474 -0.1801164 -0.15293705 -0.108929195 -0.13943405 0.085634254 0.065322064
0.070107654 0.010380367 0.13538031 -0.01021681 -0.0808125 -0.16707711 -0.23952526 0.06951521
-0.030695284 0.12262908 0.14273816 -0.043042935 0.014028318 -0.19970834 0.23031072 -0.072920606
-0.0089151375 0.09757085 0.18979935 0.059985712 0.0850755 -0.08235656 0.1407214 -0.11405461
-0.07045593 -0.0832062 0.01700069 0.064105965 0.16909797 -0.04798697 0.023603464 -0.0112346215
-0.0803813 -0.04052623 0.16428868 -0.07116443 -0.051900487 -0.029685402 -0.1462564 0.031033214
-0.11716688 0.012585491 -0.041808613 0.13649465 -0.13651757 -0.08116714 -0.0191872 0.21653277
-0.14847694 -0.1629977 0.03694152 -0.08582338 -0.09099953 0.10003024 0.010885588 -0.120115414
0.108672425 0.11783036 0.08267764 -0.07446761 -0.035165124 -0.040461455 -0.09574891 0.02844798

rnn.weight_hh_l2 f4 [32, 32]
00000000: 1635 393d 4c4f 09be f7b4 373e b071 3bbd
00000010: b9cb 38be f20e 113e 02e6 8a3d e815 c63d
00000020: 2817 0d3e 5c5f 84bd 1047 d33d f472 c93d
00000030: e86e 423e bc23 ab3d d573 c23d b7f3 5ebd
00000040: af67 2b3d 250f 713c d51b 45be 050f d63d
00000050: 258f 1ebe d4e8 adbd a137 d4bc 2f57 dcbd
00000060: a172 61bc 8d4d 74bc 65b5 203e 928d b5bc
00000070: 1693 50bd 0ae2 983d f64e 3ebe 4898 023e
00000080: 6ec7 cb3c 558c 303c b71c c6bd 8183 e8bc
00000090: d52a 9fbd cb40 ca3d a233 133d 5875 303d
000000a0: e75b 83bc 5a01 07be c980 413e 411a 2bbe
000000b0: 2a6a 1e3d a492 3ebd 7b7a 9bbd fffc 1ebe
000000c0: eb8e cfbd ec18 e4bd 5025 02bd 8820 5ebd
000000d0: dcf6 89bd 51c9 d23d 27c4 e63c 136b b53d
000000e0: c5bd 08be a658 a73b 772f 87bd 74be 1dbd
000000f0: 8650 193e 6997 22be 3469 e1bd 24dc 313c
00000100: c6f4 e7bd 2ef1 243e 409b 88bd 4238 c0bd
00000110: 2b65 c6bb 0de7 e5bd 625e 9f3d 03e6 1fbd
00000120: 33a8 e4bc 5bc3 f5bd b5fd 453d c7b9 f6bd
00000130: f238 083d 23f1 55be 6248 9dbd e1b1 dabd
00000140: f95f 183c a49f aabc 1daf 3fbe dd07 03bd
00000150: b20c 543e df7b 87bd 74e7 033e 9a34 de3c
00000160: 2951 1bbd 0051 743d e450 12bb 7fb4 cfbd
00000170: 9029 cf3d abe2 08be ac17 b6bd 2e67 373e
00000180: c543 993d fa4a 1dbe 29bc f9bd 8962 f03c
00000190: cd9c 0b3c f4ba ee3d 984a 3bbd e483 79bb
000001a0: 6d86 56bd e718 ab3d f0d8 663d 1125 3c3e
000001b0: c952 433d e3af ecbd c08d 223e 5663 d3bd
000001c0: 04da 03be 0592 6b3c 495a d43d 3547 9cbd
000001d0: 0160 be3d d9d1 1ebe e824 c3bd b4f7 263e
000001e0: b63d 7cbb 0781 4f3c 30fb d53d 4aad fc3c
000001f0: 67a3 c2bd ca1f 8c3e 09cd 563d 167d febd
00000200: fee3 af3d 66c4 49bc 8494 36bd bdf3 903d
00000210: 550b 18be c4f1 1a3d 75f7 5ebc 53c9 153e
00000220: 63fa 8d3d 21cf d1bd 5a49 5a3c b5bc ba3d
00000230: 3586 bfbd 7e8a e2bc ae63 19bd 77b5 7b37
00000240: 253e 65bd a7e5 103e 5793 533d 0b61 23be
00000250: 6782 9a3d e8a0 353e a1dc 4b3d 0ccb aabd
00000260: 195e dbbc 7e17 b4bd c97e dcbd 7269 11be
00000270: ff80 3dbc 42e1 27be 4b12 7bbd 9f95 c03c
00000280: 70de 1cbe 2814 723d dbde 073e d9c7 283e
00000290: 29b4 3dbd 5bae c0bd 3b1a 483b cc40 863c
000002a0: d621 0f3e 4042 9ebd 7bd1 223e 3e7c f3bd
000002b0: 6d19 183d 82b3 80bc a95a b6bd 36b4 363d
000002c0: c52d d73d bedd 39bd 0cbe 3abe d66a a93d
000002d0: 6196 4d3d a76b eebd 8045 42be d316 e63d
000002e0: 75a0 e43d 8fc2 6cbd be06 eb3c b88a 31be
000002f0: 8391 2d3e 0895 be3d 6a2a d1bd 7d4f a43d
00000300: 147d 1abd d96b bdbd 4993 043d 5433 17be
00000310: 3b08 29ba 24be 0abe 58db d8bc 58db ac39
00000320: 1a0f 333e c852 f5bb acfb 91bd 6520 7f3d
00000330: c836 22bb aae3 7b3e 6e94 57bd 610f c2bd
00000340: 45e9 52bd 784a febc 161d 5cbe 7f10 d73d
00000350: 5036 15be 32bc 4c3a abf5 6abb f6e6 11be
00000360: 5532 87bd 5dcd 853c b324 b6bc 0238 c93c
00000370: 8c95 883d d48f 1ebd 50d2 6fbd c147 cc3d
00000380: 4899 a83d 2ad6 9e3d 6732 313e bb68 23bc
00000390: 17f6 18be 2a14 e3bd 1e0d 853d 7be0 0f3d
000003a0: 8057 613d d624 b8bd 73ca fcbc 899d 56be
000003b0: 595e acbd b098 0d3e 4cb2 4f3d 5095 e53d
000003c0: 8add bf3d b90a 12be aa80 063e f60b 163d
000003d0: 830d c83c 6dbc 713d e8e3 883d 1de3 71bc
000003e0: 9fc1 1d3e 79bd 1dbe a0de 3c3e 0bbc 9d3d
000003f0: 7694 7a3d 903f 9cbc 24ab e3bd 335e aebd
0.045216642 -0.13409156 0.17940126 -0.045762718 -0.18046464 0.14165857 0.06782152 0.09672147
0.13778365 -0.06463501 0.103162885 0.09836379 0.1898762 0.08356425 0.094947495 -0.054431643
0.041846927 0.014713083 -0.19248898 0.104520835 -0.15484293 -0.08491674 -0.025905432 -0.107588165
-0.01376024 -0.014911068 0.15694197 -0.022162233 -0.050921522 0.074649885 -0.18584809 0.12753403
0.024875369 0.010775645 -0.09673446 -0.028383018 -0.077718414 0.098756395 0.035937913 0.043080658
-0.016035033 -0.1318411 0.18896784 -0.16709234 0.038675465 -0.046526566 -0.07591721 -0.15526198
-0.10134681 -0.11137566 -0.031773865 -0.054230243 -0.06736538 0.10292304 0.028169705 0.088583134
-0.13353641 0.0051070033 -0.0660085 -0.03851171 0.14972124 -0.15878071 -0.11006394 0.010855708
-0.11325984 0.16107628 -0.066702366 -0.0938573 -0.0060545406 -0.1122571 0.07781674 -0.039037716
-0.027912235 -0.12000152 0.048337657 -0.12047153 0.033257432 -0.20892768 -0.076798216 -0.10678459
0.009300225 -0.020828076 -0.18719144 -0.03198992 0.20707968 -0.066154234 0.12881261 0.027124692
-0.037919197 0.05964756 -0.0022326047 -0.10141849 0.10115349 -0.13367717 -0.08891234 0.17910454
0.07483629 -0.15360633 -0.12194092 0.02934386 0.008521271 0.11656752 -0.045725435 -0.0038072998
-0.052374292 0.08354359 0.05635923 0.18373515 0.047686372 -0.11556985 0.15874386 -0.10321681
-0.12876135 0.0143780755 0.10368783 -0.07630769 0.09295655 -0.15509738 -0.09528524 0.16305429
-0.003848893 0.01266504 0.10448301 0.03084435 -0.09503823 0.27368003 0.05244163 -0.12426202
0.08588408 -0.012314891 -0.04457523 0.070777394 -0.14848073 0.037828222 -0.013608803 0.1462758
0.06932523 -0.10244585 0.013323152 0.09118024 -0.0935177 -0.027653929 -0.037448578 1.5003016e-05
-0.05596747 0.14150105 0.051654186 -0.15954988 0.075444035 0.17737162 0.049770955 -0.08339509
-0.026778268 -0.08793543 -0.1076637 -0.1420038 -0.0115664 -0.16394523 -0.061296742 0.023508845
-0.15319228 0.059101254 0.13268606 0.16482486 -0.046314392 -0.09408256 0.0030533213 0.01638832
0.13977751 -0.0772748 0.15900223 -0.11888932 0.037133623 -0.015710596 -0.08904011 0.044605456
0.10506777 -0.045377485 -0.1823656 0.082723305 0.05019224 -0.11641627 -0.18971825 0.11234822
0.11163417 -0.057802733 0.028689738 -0.17338073 0.1695004 0.09305769 -0.10213168 0.08022974
-0.03771694 -0.09249086 0.032367025 -0.14765674 -0.0006448065 -0.13549095 -0.026471779 0.0003296982
0.1748623 -0.007486675 -0.07128081 0.062286753 -0.002475189 0.24598566 -0.052631788 -0.094755895
-0.051491994 -0.031041369 -0.2149547 0.10501193 -0.145715 0.00078100257 -0.0035851996 -0.14248261
-0.06601397 0.016333276 -0.022234296 0.02456284 0.06669149 -0.038711384 -0.05855018 0.099746235
0.08232361 0.07755692 0.17304383 -0.0099737 -0.14937626 -0.1108783 0.064966425 0.03512619
0.055015087 -0.08991401 -0.030858254 -0.20958532 -0.08416433 0.13827777 0.050707147 0.1121012
0.09368427 -0.14261903 0.13135019 0.0366325 0.024420505 0.059017587 0.06684095 -0.014763621
0.15405892 -0.1540431 0.184443 0.07701882 0.06117674 -0.019073278 -0.11116627 -0.08514061

rnn.bias_ih_l2 f4 [32]
00000000: f11e ec3d 6dcd 4fbd 859a 4ebd 1c28 03be
00000010: c6c9 e83c 09e3 c0bc db70 283d 6431 8dbd
00000020: 456f 123e 3def f13c d8e9 d3bd 8592 203d
00000030: 2016 133e 58c6 e2bd 1966 08bd 4053 ecbd
00000040: f6fa c8bd 5766 033e 4241 d2bd 3cc7 613c
00000050: 3dae c53c 3a2e 08be 4298 0fbd b54a b23d
00000060: 0250 b4bc 3d20 933d 0801 05bd 450c f8bd
00000070: 9d7a aebc 4dad 433d da38 81bd d53c 853d
0.11529339 -0.05073302 -0.05044033 -0.1280827 0.028416526 -0.023545759 0.041123252 -0.06894186
0.14300258 0.029533023 -0.103473365 0.039202232 0.14363909 -0.11072987 -0.033300493 -0.11539316
-0.09813492 0.12832008 -0.10266353 0.013780411 0.024130935 -0.13298884 -0.035057314 0.087056555
-0.022010807 0.07183883 -0.032471687 -0.12111715 -0.021298701 0.047772694 -0.06309672 0.065057434

rnn.bias_hh_l2 f4 [32]
00000000: ade9 823d 848a b1bd 86b6 eb3d 52bc 3dbd
00000010: 3f4c 12be 5c3b eebd 20a9 a23d db96 eb3d
00000020: f521 93bb 8e22 ef3d 31cb f73d 3d91 0cbe
00000030: 6ed2 de3c 8949 a43d 9684 583d 51ea 99bd
00000040: f2b2 043e 0ed3 23bd d514 a0bd 2572 343d
00000050: fc94 c1bd c4ac f13d 9b27 6f3b 0d7a 68bd
00000060: 58f5 b6bd 4552 26be a398 f03c b130 503e
00000070: 8ac1 fcbd 2347 843d 48b3 a43c a9f6 97bd
0.06392226 -0.08668998 0.11509423 -0.046322174 -0.14286898 -0.11632416 0.07942414 0.11503383
-0.004490132 0.11676513 0.120993026 -0.13727279 0.02719995 0.08021838 0.05286082 -0.075153954
0.12958887 -0.0399962 -0.078164734 0.04405417 -0.09452245 0.118005306 0.0036492113 -0.05675702
-0.08933514 -0.16242321 0.029369658 0.20331074 -0.12341602 0.06458881 0.02010502 -0.074200936

rnn.weight_ih_l3 f4 [32, 32]
00000000: 9ec8 133e d1fc ebbb f973 c33d 57ae 7f3d
00000010: 6515 5d3d b485 3dbd 4f19 0c3e fae7 01bc
00000020: 827e bfbd 1b57 bdbc 57c3 e83d 9182 03be
00000030: 1af4 abbd 42ab b43d 458b 65bc 55f4 333d
00000040: b01b 003d a2c2 c13d 76dc 053e 54b0 dfbc
00000050: 1cf2 413d db44 4a3c 4775 d1bd 75b6 4a3e
00000060: b3a6 5abe 981a 8ebc 968a ddbd 7f51 903d
00000070: dde7 28be 4e2c ce3c 34d9 43ba 8a64 4dbd
00000080: a0b5 23be b0a5 1b3e 622e 90bd ae84 1f3e
00000090: fd1b 78bd bb20 7e3d 8824 143d 350e 5bbe
000000a0: 2222 c93b 6a20 033c 215e 9fbd be4d f7bc
000000b0: a75a b8bd e978 073e 4906 11bd 27d1 103e
000000c0: 632c a1bd 4464 033e c0b4 543d 3f59 42bd
000000d0: 67c3 87bd e21f 683d 7823 88bc 3497 6ebe
000000e0: 379e 94bd cb11 d93d 6916 66bd bf8d d5bd
000000f0: b7d5 0e3e b693 743d 2775 35be e287 1abd
00000100: 5325 e63d 2384 253e c6e3 b9bc 7dd2 433e
00000110: b452 08bd 2900 dc3b 1cfc b8bc c0f9 413d
00000120: 7904 19be 021b eebd a2cf 5e3d c1c4 30bd
00000130: d4d9 8cbc 70cc adbd e2cb 8ebd 317e 073d
00000140: a0f8 da3d 5bb7 c83d 3123 d33d b986 49bd
00000150: 0722 053d 546e 983d 2d6a 84bc c47d f83d
00000160: b03d 69bd f46e e8bc db98 9e3d a5a6 c43d
00000170: e8e2 bfbd defa 3e3e c924 b23c df56 36be
00000180: dd48 933c ae74 0ebe edc5 31bd 2dda ae3d
00000190: 0c69 5a3e 35a5 06be 5209 6c3b 53e2 a33d
000001a0: 1ce1 1cbd 106f 4bbc e635 293d 7d87 133c
000001b0: c50a c33d f1d5 b3bd f069 4e3d 2d08 47bd
000001c0: acee 5fbd 7058 87bd c84d 843d 5fec abbc
000001d0: e533 fcbd e1f9 803b 94ff b1bd 1cde bbbd
000001e0: dfde adbd 4c9d 45be dd81 703d 80bf 67bc
000001f0: b238 aa3d cc41 f63d 4787 753d d2de 15be
00000200: 82e1 86bd 2f73 31bd 27a2 9cbc 8503 e83d
00000210: d0c9 9cbd 69b5 d43d 911b 0d3c 2a01 c83d
00000220: 0981 e73d e7a6 b43d 3cd4 4abd a5cb e73d
00000230: 2a3e 253e bb69 babd 955c 0abe bd5e 023e
00000240: 3e78 b43d f444 30be 1e06 c23c a31e 70bd
00000250: 1555 6fbd 232e 01be 6049 dbbc 14c0 8c3d
00000260: 3bbc 86bd f03e 493d 5546 e33d bc88 c13d
00000270: 9f89 adbc a859 be3d 2305 9bbd 9e3c 833c
00000280: c49a b23c 697d 19be 7059 073d 5c45 e73d
00000290: 5bbe 513e 1887 4bbe 2b6c 9c3d b27f 1a3e
000002a0: c780 bebc 9b82 733e e402 65bd 43ef d3bd
000002b0: dd76 0b3e 15b6 cabd 8307 e83d 8193 9d3d
000002c0: 7446 d13d 17e8 4bbd 4bf4 7bbc 4d80 da3d
000002d0: 9df0 b8bd afc1 62bc a67d 8cbb 1a9d c8bd
000002e0: 5cf3 b93c 57a8 2f3e fcdc 263d 9ff9 b3bd
000002f0: 6142 1abe fc81 bcbd a135 e83d 3d19 913d
00000300: 8ef3 09be 0a73 133d 4584 20be b2f0 d0bd
00000310: f8de 953d ee9a 843d f992 f0bd 9488 29be
00000320: 6457 2e3e 308b 363d c7e5 63bc 30be 043e
00000330: 43a0 dabd 4584 da3d 08fe 33be c0c4 4ebd
00000340: 388e 193e bddb 39bd 65ca 0abe 22f2 593d
00000350: 6ef4 7d3d d2bb 03be e60f e73d 266f 47be
00000360: be62 6b3d a55f 7dbd 32f6 a43b 17e9 713d
00000370: bcac 3d3e 207b 713d 63dd a1bb 4b54 313e
00000380: fb50 a03b 6025 033e 4203 33bd 24bd 313e
00000390: 5fe8 043b c879 473d e52c 173d 4c12 c2bd
000003a0: 4c94 163e 5b33 a3bd 24d0 12bd 0429 dc3d
000003b0: 1915 c0bc 27e4 423d 9c27 07be c39a 5fbd
000003c0: d33e f43c 7a8b 1b3e 3b6e 263e 7a2e 273e
000003d0: 0a55 093e 9b47 113e f480 043e a7ee 15bc
000003e0: 8be5 5bbd 607a e33c 4d94 c63b c860 ad3d
000003f0: 2120 3bbc d4af ab3d dc62 58bd 6070 493c
0.14431998 -0.007201769 0.095436044 0.062422123 0.05397548 -0.046270087 0.1368153 -0.007928843
-0.09350301 -0.023112824 0.11365383 -0.12842776 -0.08396168 0.08821727 -0.014010255 0.043934185
0.031276405 0.094609514 0.1307238 -0.02730576 0.047350034 0.012345518 -0.10227447 0.19796164
-0.21352653 -0.017346665 -0.10817449 0.07046794 -0.16494699 0.02516761 -0.00074710255 -0.05014471
-0.15987253 0.15199924 -0.07040097 0.15577957 -0.060573567 0.062042933 0.03616765 -0.21392138
0.006138102 0.008003334 -0.077816255 -0.030188438 -0.090016656 0.13229717 -0.035406385 0.14142285
-0.07869794 0.12831217 0.05193019 -0.047448393 -0.06629067 0.05667103 -0.016618475 -0.23299867
-0.072567396 0.10599097 -0.056173716 -0.104274265 0.13948713 0.05971118 -0.17720471 -0.037727244
0.11237588 0.16163687 -0.022691619 0.19123264 -0.033281997 0.0067138863 -0.022581153 0.04735732
-0.14943112 -0.11626245 0.054397233 -0.04315639 -0.017193712 -0.08486259 -0.06972481 0.03307933
0.10691953 0.09800597 0.103094466 -0.049200747 0.032503154 0.074429184 -0.01616391 0.12133363
-0.056943595 -0.02837322 0.077439986 0.096020974 -0.09369451 0.18650386 0.021746056 -0.17806576
0.01797908 -0.13911697 -0.043401647 0.085377075 0.21329135 -0.13148959 0.0036016298 0.08002152
-0.03830062 -0.012416616 0.041311167 0.009004471 0.095235385 -0.087810405 0.050394 -0.04859178
-0.054670975 -0.06608665 0.06460148 -0.020986734 -0.123145856 0.003936038 -0.08691326 -0.091732234
-0.08489775 -0.19298285 0.058717597 -0.014144778 0.08311595 0.120242685 0.059943464 -0.1463578
-0.06585981 -0.04332274 -0.019120289 0.11328796 -0.0765568 0.10386164 0.008612529 0.09765847
0.113039084 0.088208966 -0.04951881 0.11318139 0.16136995 -0.09102198 -0.1351188 0.12731452
0.08811997 -0.17213804 0.023684558 -0.058622967 -0.05843075 -0.12615256 -0.026768386 0.068725735
-0.06578871 0.049132288 0.11097399 0.09449908 -0.021183787 0.09294444 -0.07569339 0.016020115
0.021802314 -0.14989246 0.03304428 0.11292526 0.20482771 -0.19875753 0.07637819 0.15087774
-0.023254765 0.23780291 -0.05591096 -0.1034837 0.13619561 -0.09898011 0.11329558 0.0769415
0.10218516 -0.049781885 -0.015378068 0.10669003 -0.09030268 -0.013840123 -0.0042874394 -0.0979559
0.02269905 0.1715406 0.04073809 -0.08787846 -0.15064384 -0.0920448 0.11338354 0.07084892
-0.13471815 0.03599838 -0.15675457 -0.10202159 0.073179185 0.06474863 -0.11746783 -0.16556007
0.17025524 0.044566333 -0.013909764 0.12963176 -0.10675099 0.1066976 -0.17577374 -0.050480604
0.14995658 -0.045375574 -0.1355377 0.05320943 0.062000684 -0.12864617 0.11282329 -0.19475994
0.057467215 -0.06185879 0.0050342316 0.059060182 0.18522924 0.05895531 -0.0049397214 0.17317311
0.004892466 0.12807226 -0.04370428 0.17357308 0.0020280106 0.048700124 0.03690805 -0.09476146
0.14705008 -0.0796878 -0.03584303 0.107500106 -0.02344756 0.047580864 -0.13198704 -0.05459095
0.029815113 0.15189925 0.16252987 0.16326323 0.13411346 0.14187472 0.12939817 -0.009151137
-0.053685706 0.027768314 0.0060601593 0.08465725 -0.011421234 0.08383146 -0.052828655 0.012294859
