Supervised/00_exercises/lab_10/lightning_logs/version_6/checkpoints/epoch=19-step=7800.ckpt (torch, 146116 bytes, 66 tensors)

rnn.weight_ih_l0 f4 [32, 10]
0.09929282 0.062626004 -0.026884686 -0.04695605 -0.036027037 0.118693255 0.01952326 0.10190813
-0.028567288 -0.108199134 -0.08272939 -0.010941728 0.05066729 0.051197827 -0.08575736 -0.10520193
-0.04389933 0.07002443 0.10777983 -0.046736512 -0.13441145 0.03146047 0.054539938 -0.1542717
0.038613025 -0.043185458 0.06297289 -0.06788002 0.13206716 -0.08944154 0.14387766 0.024842918
0.011001785 -0.020075921 -0.0038011514 0.06845893 0.053239167 0.1532828 0.1671843 0.075760834
-0.0771675 -0.09575802 0.03979799 0.02227211 0.04577522 0.114947714 -0.0069441455 -0.059737682
0.03798632 -0.12568635 0.08572266 0.009106547 -0.028819567 0.09118972 -0.025107812 0.00074627943
-0.10349518 -0.10946822 -0.06987775 0.09605015 -0.04807045 -0.033319697 0.07670268 0.12291488
0.11813214 0.08384 0.07199253 -0.048680305 -0.02590758 0.033549443 -0.0062430725 0.06628691
-0.121635556 -0.0323722 -0.03942191 0.07481533 -0.03445728 -0.04222599 -0.01762659 0.08097847
0.010169143 -0.024499986 0.045117494 -0.024136974 0.08677395 -0.009065284 -0.022206113 0.13423814
0.024571603 0.054710668 -0.009743155 0.042020235 -0.0144894 0.06511239 0.104124464 0.049775627
0.08337438 0.010126434 0.095466554 0.077241205 0.009152525 0.083589405 0.003884305 -0.105220065
0.02132957 0.06825425 0.020299168 0.0479417 0.16981119 -0.0067645963 -0.119826935 0.03622398
0.03997594 -0.037578594 -0.11170255 -0.11843937 -0.044318262 0.028445944 -0.035617728 -0.13815482
0.041240145 -0.022425635 -0.083994545 -0.01519795 -0.010643881 -0.07005479 -0.10427782 -0.05763451
0.021744639 0.03377229 0.0026321344 -0.087294206 -0.058341227 -0.07796144 -0.026996238 -0.059751466
0.06459436 -0.02146972 -0.10595784 0.09572148 0.03984229 0.04115084 0.06973574 0.08381427
-0.092672184 0.00028486323 0.027025603 -0.038647205 -0.07169284 -0.053706147 0.09007127 -0.008811435
0.08322634 0.08428069 -0.059506293 0.06139119 0.015419303 -0.011546291 -0.03135286 0.009114198
0.062367354 0.031232405 -0.04222715 -0.0061932695 -0.08545424 -0.045725696 -0.07333108 -0.09812601
-0.035537772 -0.11311352 0.101437755 0.028628834 0.033770572 0.079705454 0.053535823 0.0005292954
-0.05331748 0.15478234 -0.057665125 0.07903416 -0.08486797 0.015665712 0.1389389 0.10009535
-0.009102159 0.17504522 0.03738924 -0.10314732 0.039627563 0.060566396 0.12001254 -0.102256656
-0.070595145 -0.11003678 -0.07449896 -0.018514968 -0.10468985 0.037603144 0.013281556 -0.019488605
-0.029877981 -0.027856708 -0.028497748 -0.03553586 -0.044991665 0.03545201 -0.075237796 -0.065503426
-0.061828006 0.03727197 0.07121348 0.102813266 -0.024068018 -0.0012256585 -0.06852565 0.020850208
0.05309579 0.1040483 -0.04222266 -0.06930723 -0.07229264 -0.042002935 -0.12311503 0.030500518
0.041856017 0.10101048 -0.13782525 -0.12325656 0.057274055 0.011075225 -0.007250047 0.083701506
-0.009117586 0.07850868 0.08346532 0.051492434 -0.009774996 0.12004497 -0.064093426 0.015058059
-0.0155189475 0.093754925 0.017693883 0.048305735 0.007313253 -0.025391053 0.113388896 0.0062355213
0.10711532 0.07359026 0.026492381 0.0029679684 -0.02883705 -0.095245 0.08350737 0.020727715
00000000: 095a cb3d 1042 803d 463d dcbc fd54 40bd
00000010: 1691 13bd 7315 f33d 3eef 9f3c 36b5 d03d
00000020: f205 eabc 8297 ddbd 076e a9bd ef44 33bc
00000030: 8188 4f3d d0b4 513d 8ea1 afbd 1c74 d7bd
00000040: c9cf 33bd f868 8f3d acbb dc3d c96e 3fbd
00000050: 28a3 09be b2dc 003d 4565 5f3d 67f9 1dbe
00000060: b128 1e3d 3ce3 30bd eef7 803d ae04 8bbd
00000070: 9d3c 073e 202d b7bd aa54 133e 6083 cb3c
00000080: d540 343c 4276 a4bc bd1c 79bb 3234 8c3d
00000090: 5011 5a3d 2bf6 1c3e 5c32 2b3e 7f28 9b3d
000000a0: ff09 9ebd c81c c4bd 3803 233d 0074 b63c
000000b0: cc7e 3b3d b569 eb3d b78b e3bb 80af 74bd
000000c0: 8b97 1b3d ecb3 00be 5d8f af3d a033 153c
000000d0: 0317 ecbc adc1 ba3d e6ae cdbc f7a1 433a
000000e0: 48f5 d3bd e030 e0bd 111c 8fbd f1b5 c43d
000000f0: 85e5 44bd 3c7a 08bd 4b16 9d3d ccba fb3d
00000100: 43ef f13d 4eb4 ab3d d270 933d 0065 47bd
00000110: 223c d4bc 246b 093d b092 ccbb 6ec1 873d
00000120: 101c f9bd b698 04bd de78 21bd c838 993d
00000130: 1423 0dbd 29f5 2cbd a365 90bc 0ad8 a53d
00000140: 7a9c 263c 32b4 c8bc 1fcd 383d e7ba c5bc
00000150: 8ab6 b13d 8f86 14bc 98e9 b5bc b975 093e
00000160: 634a c93c 4b18 603d c1a1 1fbc 691d 2c3d
00000170: f364 6dbc a559 853d 353f d53d 87e1 4b3d
00000180: 30c0 aa3d 58e9 253c f883 c33d a330 9e3d
00000190: 79f4 153c ec30 ab3d d38f 7e3b 9e7d d7bd
000001a0: 5abb ae3c e2c8 8b3d 714a a63c 845e 443d
000001b0: fce2 2d3e 8ca9 ddbb d367 f5bd 995f 143d
000001c0: d0bd 233d 03ec 19bd 4ec4 e4bd 5790 f2bd
000001d0: 1187 35bd 7807 e93c e5e3 11bd 7578 0dbe
000001e0: 6deb 283d f7b5 b7bc 5505 acbd d300 79bc
000001f0: ac63 2ebc e378 8fbd 9c8f d5bd 2a12 6cbd
00000200: d021 b23c d054 0a3d e37f 2c3b 4ec7 b2bd
00000210: 36f7 6ebd 3faa 9fbd 3727 ddbc f4bd 74bd
00000220: 0c4a 843d 44e1 afbc 6d00 d9bd a009 c43d
00000230: ab31 233d c98d 283d 9dd1 8e3d d1a6 ab3d
00000240: eaca bdbd b259 9539 cc64 dd3c 884c 1ebd
00000250: b2d3 92bd fafa 5bbd 4977 b83d d65d 10bc
00000260: 9272 aa3d 5b9b ac3d dfbc 73bd 5475 7b3d
00000270: 3fa1 7c3c a82c 3dbc db6b 00bd b853 153c
00000280: e974 7f3d 1adb ff3c 60f6 2cbd e9f0 cabb
00000290: a202 afbd de4a 3bbd 9b2e 96bd 4af6 c8bd
000002a0: 0e90 11bd 10a8 e7bd 99be cf3d 0487 ea3c
000002b0: 0353 0a3d 9d3c a33d 6148 5b3d 6ac0 0a3a
000002c0: 6e63 5abd 437f 1e3e 4432 6cbd a9dc a13d
000002d0: 42cf adbd 6155 803c 0046 0e3e cafe cc3d
000002e0: 3921 15bc 0e3f 333e 7625 193d e73e d3bd
000002f0: 8350 223d 7814 783d 22c9 f53d f06b d1bd
00000300: 3094 90bd f75a e1bd e992 98bd b4ac 97bc
00000310: a267 d6bd c105 1a3d e29a 593c 91a6 9fbc
00000320: abc2 f4bc c033 e4bc 1c74 e9bc 0d8e 11bd
00000330: 2e49 38bd 2036 113d 4616 9abd a926 86bd
00000340: 5d3f 7dbd 7eaa 183d 5fd8 913d c38f d23d
00000350: 4b2a c5bc 46a6 a0ba 2d57 8cbd 0ece aa3c
00000360: f97a 593d 4617 d53d abf1 2cbd f3f0 8dbd
00000370: 2a0e 94bd 450b 2cbd bc23 fcbd 39dc f93c
00000380: 3771 2b3d 95de ce3d 1022 0dbe ef6d fcbd
00000390: 3398 6a3d dc74 353c cd91 edbb b26b ab3d
000003a0: ed61 15bc 29c9 a03d deef aa3d bbe9 523d
000003b0: 4e27 20bc 23da f53d 6a43 83bd 14b6 763c
000003c0: 2f43 7ebc 9502 c03d c3f2 903c 3cdc 453d
000003d0: 03a4 ef3b e600 d0bc 7038 e83d 5853 cc3b
000003e0: 475f db3d 7eb6 963d 8d06 d93c 3f82 423b
000003f0: ad3b ecbc d00f c3bd e905 ab3d 2bcd a93c

rnn.weight_hh_l0 f4 [32, 32]
-0.17422582 0.086729385 0.02951133 0.03349334 -0.1373354 -0.010585516 -0.055781584 -0.11410335
0.042171933 -0.091029406 0.13609156 -0.0768775 -0.0317538 -0.18538594 0.03770125 -0.06660793
0.12599058 0.18088631 0.08703693 -0.06509616 0.06457931 0.13712521 -0.1542674 -0.15097953
0.10552235 0.06662955 0.0583897 0.026765347 -0.17663793 0.1469801 -0.13694672 0.024054535
-0.084293604 0.03770188 -0.11802881 0.0047161416 0.057393078 -0.020261185 -0.080841936 -0.09550022
-0.07723212 -0.10945831 -0.13960418 0.12816437 0.12775917 0.029390818 0.026961317 0.13637044
0.028371844 -0.13569075 0.017508099 0.02891911 -0.17162998 0.12265691 0.042003907 0.12350047
0.112279244 -0.14773881 0.070764326 -0.038264055 -0.0052055977 0.086366855 0.10432182 -0.17301479
0.0257834 -0.075160824 -0.026415989 -0.05254667 -0.11749802 -0.06558017 -0.092657074 0.03565905
-0.040994115 0.09372946 0.00056463445 -0.102556586 0.044414714 -0.14173822 0.026960464 0.15693493
-0.0905597 -0.07689766 -0.08892361 -0.13376923 -0.19075708 -0.0007861789 0.081673495 0.10058181
-0.009827968 0.12909564 0.1019497 -0.0026499599 -0.06987235 0.01010592 0.019626703 -0.10065975
0.20003575 0.03179716 -0.025260992 0.21892941 0.041218463 0.07630599 -0.14768215 -0.07492933
-0.004038693 0.03858968 0.14828372 -0.06271147 0.049101677 -0.014891672 -0.14378965 0.012120185
0.05912926 -0.16598669 -0.09859446 -0.13793336 0.04746822 -0.12923068 -0.021328565 0.030089978
-0.14587942 0.016489765 0.18175022 -0.16576126 0.018066447 0.14402281 0.10564323 0.095576935
0.067194335 -0.047168616 -0.17327869 -0.06697159 -0.06039754 -0.024824297 -0.025969315 -0.1028978
-0.009788419 -0.15868759 0.11709606 0.035722844 0.04400001 -0.08490232 0.08323059 -0.096587375
0.06845337 -0.10580885 0.12773 -0.19983886 0.015886279 -0.036669265 0.17558661 -0.14055468
0.12933567 -0.016561218 0.006866555 0.15340696 -0.010926967 -0.03789342 -0.07264866 -0.12434393
-0.03038272 -0.11489535 0.10070825 -0.1279172 -0.009903276 0.11172753 -0.092653766 0.153064
0.033574786 0.048668433 -0.07236637 0.069597244 0.1959997 -0.07341515 0.10492154 0.1461163
-0.12146574 0.1368351 0.0777597 0.1205169 0.009494201 -0.024722222 0.0049965647 0.053842615
0.08204165 0.21241595 0.19885705 0.14623632 0.18072969 0.053520683 0.15388995 0.0720091
-0.16381364 -0.031680614 0.11720915 -0.2074579 0.104395464 0.017379768 0.41306967 0.012631863
0.16713804 0.18003072 -0.06292031 -0.14995651 0.02841898 0.02273087 0.065045975 0.022892721
0.07068389 0.122453876 0.015040118 -0.18814176 -0.02229944 0.064041555 -0.111921854 -0.13534431
0.082943305 -0.15850145 0.088676386 0.021242106 0.11484319 -0.07872692 0.15116076 0.05578084
0.010809649 0.041396596 0.20375124 -0.053836092 -0.087654196 -0.12149428 0.12098861 -0.09831842
-0.10321958 0.04791939 -0.13759801 -0.046018466 0.094984695 0.11878176 -0.12741092 0.10446707
0.050876547 -0.015750084 -0.04312938 -0.08137996 0.08516384 0.14215364 0.11830014 -0.009027415
-0.1633221 -0.0716286 0.11325246 -0.12519918 0.112427935 0.07294142 0.08215783 -0.051564705
00000000: 4168 32be 2d9f b13d bfc1 f13c 5030 093d
00000010: a7a1 0cbe df6e 2dbc 3b7b 64bd 04af e9bd
00000020: 7abc 2c3d a06d babd 965b 0b3e f371 9dbd
00000030: 4610 02bd d0d5 3dbe a06c 1a3d bd69 88bd
00000040: ad03 013e 433a 393e 6b40 b23d 2351 85bd
00000050: 2842 843d 8d6a 0c3e 46f8 1dbe 619a 1abe
00000060: 1a1c d83d 1375 883d 0a2a 6f3d 0043 db3c
00000070: 93e0 34be f481 163e c33b 0cbe 040e c53c
00000080: 20a2 acbd 496d 1a3d 17b9 f1bd dd89 9a3b
00000090: 0115 6b3d c9fa a5bc 7590 a5bd 9f95 c3bd
000000a0: e02b 9ebd ae2b e0bd 66f4 0ebe 853d 033e
000000b0: 4dd3 023e 03c5 f03c fbdd dc3c b1a4 0b3e
000000c0: 126c e83c 84f2 0abe 256d 8f3c c5e7 ec3c
000000d0: c5bf 2fbe 8c33 fb3d 4a0c 2c3d d0ed fc3d
000000e0: a9f2 e53d d848 17be e3ec 903d c5ba 1cbd
000000f0: b893 aabb 1be1 b03d aea6 d53d ca2a 31be
00000100: b537 d33c ebed 99bd 5866 d8bc 2d3b 57bd
00000110: cda2 f0bd e54e 86bd fec2 bdbd 390f 123d
00000120: 72e9 27bd 3bf5 bf3d fa03 143a 3009 d2bd
00000130: 34ec 353d d323 11be 31dc dc3c 8db3 203e
00000140: 5d77 b9bd 857c 9dbd 951d b6bd cdfa 08be
00000150: d355 43be 9317 4eba 6f44 a73d d6fd cd3d
00000160: 7c05 21bc a631 043e 01cb d03d f3aa 2dbb
00000170: 3c19 8fbd 4d93 253c 2ec8 a03c b326 cebd
00000180: 2cd6 4c3e bd3d 023d 24f0 cebc 082f 603e
00000190: b1d4 283d 5146 9c3d fd39 17be 8c74 99bd
000001a0: 0357 84bb 3610 1e3d b0d7 173e df6e 80bd
000001b0: d71e 493d 33fc 73bc 983d 13be be93 463c
000001c0: 8631 723d 6af8 29be e4eb c9bd 673e 0dbe
000001d0: 096e 423d 0c55 04be 3eb9 aebc 427f f63c
000001e0: 6a61 15be 8b15 873c bb1c 3a3e 52bd 29be
000001f0: 1600 943c b77a 133e 7a5b d83d d7bd c33d
00000200: 2f9d 893d e133 41bd f86f 31be 6728 89bd
00000210: 6963 77bd 535c cbbc 9abd d4bc 15bc d2bd
00000220: 9b5f 20bc 007f 22be 0fd0 ef3d 1e52 123d
00000230: 5b39 343d 44e1 adbd cd74 aa3d 9acf c5bd
00000240: 4831 8c3d 4fb2 d8bd a7cb 023e 8fa2 4cbe
00000250: f123 823c 8332 16bd facc 333e 91ed 0fbe
00000260: 9270 043e 64ab 87bc d700 e13b b716 1d3e
00000270: 0507 33bc 2136 1bbd d2c8 94bd 08a8 febd
00000280: 2fe5 f8bc 414e ebbd 2140 ce3d bafc 02be
00000290: 5a41 22bc 67d1 e43d 42c1 bdbd cfbc 1c3e
000002a0: b785 093d 8d58 473d d234 94bd 0089 8e3d
000002b0: 25b4 483e af5a 96bd 1be1 d63d 839f 153e
000002c0: 08c3 f8bd 801e 0c3e 7a40 9f3d 91d1 f63d
000002d0: 918d 1b3c 4286 cabc 39ba a33b 138a 5c3d
000002e0: 7405 a83d 9183 593e 2fa1 4b3e f9be 153e
000002f0: 3411 393e 8138 5b3d 5495 1d3e 8279 933d
00000300: c3be 27be 88c3 01bd 5a0b f03d d86f 54be
00000310: 4acd d53d 0460 8e3c de7d d33e e0f5 4e3c
00000320: 3c26 2b3e f959 383e 5ddc 80bd 338e 19be
00000330: ecce e83c 1736 ba3c d336 853d 8489 bb3c
00000340: b7c2 903d 19c9 fa3d d46a 763c 3ca8 40be
00000350: 51ad b6bc 3828 833d 4937 e5bd b397 0abe
00000360: 2ede a93d 344e 22be f79b b53d ed03 ae3c
00000370: e832 eb3d 943b a1bd e3c9 1a3e 737a 643d
00000380: f41a 313c 7a8f 293d 2aa4 503e 3c83 5cbd
00000390: 0b84 b3bd fed1 f8bd e0c8 f73d 2b5b c9bd
000003a0: ca64 d3bd 1f47 443d 7ee6 0cbe dc7d 3cbd
000003b0: 5687 c23d da43 f33d 0278 02be d5f2 d53d
000003c0: ed63 503d 5206 81bc 6fa8 30bd 89aa a6bd
000003d0: 616a ae3d b990 113e 5847 f23d b9e7 13bc
000003e0: e93d 27be 04b2 92bd e8f0 e73d 3734 00be
000003f0: 9e40 e63d 5062 953d 5d42 a83d 8335 53bd

rnn.bias_ih_l0 f4 [32]
0.066138685 -0.04062916 -0.09270691 -0.045226313 -0.045468908 0.11076125 0.12458088 0.08353014
-0.02586092 -0.08276093 -0.013874997 0.009875862 0.14749712 -0.060733754 -0.023261305 -0.03215154
0.1199271 -0.10152172 0.03475732 -0.037469566 -0.07586967 -0.09004693 -0.0419227 -0.02242631
0.10618867 -0.0047360305 0.12478717 0.024720773 0.006735095 -0.13968302 -0.15647322 -0.10850799
00000000: b873 873d c36a 26bd 1fdd bdbd 3a3f 39bd
00000010: 9b3d 3abd cbd6 e23d 4324 ff3d da11 ab3d
00000020: 48da d3bc 907e a9bd f553 63bc 5ece 213c
00000030: 7c09 173e f5c3 78bd 7e8e bebc 55b1 03bd
00000040: 579c f53d 9fea cfbd b15d 0e3d b079 19bd
00000050: 8f61 9bbd 866a b8bd 23b7 2bbd 62b7 b7bc
00000060: 7279 d93d b430 9bbb 6a90 ff3d 3883 ca3c
00000070: 12b2 dc3b 1109 0fbe 843a 20be 7039 debd

rnn.bias_hh_l0 f4 [32]
-0.0724626 0.010611538 -0.097894214 -0.071674466 -0.0024734065 -0.052892994 -0.07150218 0.11220143
-0.027671222 -0.05234308 0.10616984 0.15196593 0.10145251 0.0765618 -0.02847851 -0.111906
-0.11387496 0.11562748 -0.074978486 0.113531314 0.085875526 0.09398963 0.10890836 0.020831995
-0.14040573 -0.11120177 -0.075103074 -0.075333916 -0.021773502 0.124310315 0.11038312 0.07593428
00000000: 4667 94bd 04dc 2d3c c37c c8bd 10ca 92bd
00000010: e018 22bb 53a6 58bd bc6f 92bd ddc9 e53d
00000020: c2ae e2bc b365 56bd 936f d93d f59c 1b3e
00000030: 55c6 cf3d 6fcc 9c3d c44b e9bc f92e e5bd
00000040: 4637 e9bd 1ace ec3d 528e 99bd 1b83 e83d
00000050: 82df af3d a37d c03d 590b df3d dca7 aa3c
00000060: 85c6 0fbe c1bd e3bd a4cf 99bd ab48 9abd
00000070: 585e b2bc 6896 fe3d 8c10 e23d 6f83 9b3d

rnn.weight_ih_l1 f4 [32, 32]
-0.1606839 0.11529275 -0.13886452 0.088461444 -0.10623465 0.029383767 -0.07092038 0.038524326
0.13877769 0.040588163 0.0052790157 -0.08123663 -0.11103911 0.029142423 0.029302001 -0.04565323
-0.06508638 0.10978734 0.034574784 -0.110835 0.13199742 -0.090144694 0.14127275 0.13773622
0.07507416 -0.003414182 -0.05966006 0.07577774 0.082371004 -0.15360305 -0.105198614 -0.09453679
0.05435857 0.07923454 -0.14813666 0.024424916 -0.03683296 -0.013669645 0.16739945 -0.08045996
0.034362502 -0.014850919 0.010015546 0.0066734753 -0.14453967 0.09351074 -0.01669108 0.14842463
0.17877166 0.09921232 0.11150331 -0.05743736 -0.09661913 0.18319926 0.04032628 -0.09191282
0.07532042 0.112186156 -0.009336787 0.15940845 -0.03028474 -0.042758275 -0.09846048 0.038862407
0.012106227 0.042006306 0.111065984 -0.022790438 -0.052790858 -0.060318656 0.16973588 -0.120322585
-0.09611792 -0.06737954 0.12582354 -0.119823456 -0.1305354 0.1215252 -0.005016054 0.03799706
-0.07754645 0.05166028 -0.12614654 0.07027291 0.17514524 -0.040129676 0.09843036 0.16083054
0.085093975 0.11169912 0.004893065 -0.0061669587 -0.14912254 -0.14461854 0.14726637 -0.030076927
0.016248913 0.008610206 -0.039383512 0.090632856 0.09024747 -0.0798793 0.08314894 0.038045257
-0.036691193 0.02405784 -0.1408399 0.16667141 0.15804736 0.15742032 -0.06778222 -0.022317749
0.012049642 -0.18498844 -0.10920029 0.09376636 -0.017516436 -0.11849628 -0.08790447 0.13588493
0.1521994 -0.06123838 -0.12762073 -0.0986616 -0.081988946 0.12050324 0.0910657 0.076200865
0.11527548 0.15402183 -0.0656005 0.11075239 0.077465676 0.10029637 0.16209827 -0.03797525
0.103131436 -0.029960562 -0.13358974 0.14372031 0.062423237 0.09559118 -0.03524441 0.027381184
0.036134884 0.17221157 -0.027239515 -0.15801193 0.01793276 -0.009407495 -0.098953635 -0.07600969
-0.08973038 0.046014838 -0.05406535 -0.13530132 0.0486582 -0.07929157 -0.014801823 -0.13775125
-0.09940478 0.10357027 -0.06238869 -0.15721808 0.073274486 -0.15177582 -0.0032360526 -0.009149536
-0.15183887 -0.11959689 0.012496007 -0.029093435 -0.090758115 0.12747204 -0.107949875 0.0001238311
0.10821324 -0.053278368 -0.14280537 -0.011717746 0.14860931 0.17109217 0.017055122 0.111888304
-0.069355644 0.0019794253 -0.09158206 -0.104264155 0.09759311 -0.1350949 -0.043128874 0.11746921
0.11517267 0.15219893 0.1950006 0.12855251 -0.09107751 0.12420363 -0.16989295 0.043566685
0.20618291 -0.17673896 -0.18071575 -0.09114875 -0.14651455 -0.12482198 0.059071757 0.109720305
0.050821036 0.03776872 0.11283036 -0.0014088206 -0.083341904 -0.1381968 0.123770826 -0.13501592
-0.16162343 -0.06452025 0.099739105 0.078837596 0.0322595 0.018132677 -0.016234849 -0.017987102
-0.03540034 -0.11254118 -0.11954988 0.07371326 0.011468545 0.18913488 -0.16400187 0.04970828
0.041461084 -0.10291507 0.11531939 -0.09257267 0.089155026 -0.05636471 0.06530775 -0.15257834
-0.12349686 0.0406291 0.1007598 -0.08429908 -0.13511851 0.08271038 0.053924832 -0.058294754
0.03566721 0.08127208 0.085375585 -0.0132917985 0.035583086 -0.027848825 -0.119430706 -0.1350943
00000000: 528a 24be 9b1e ec3d 8032 0ebe 462b b53d
00000010: 8d91 d9bd 3ab6 f03c b43e 91bd afcb 1d3d
00000020: bd1b 0e3e c63f 263d 98fb ac3b 645f a6bd
00000030: 7968 e3bd 17bc ee3c c00a f03c e2fe 3abd
00000040: 024c 85bd 2fd8 e03d 4a9e 0d3d 76fd e2bd
00000050: 552a 073e c89d b8bd cea9 103e b90a 0d3e
00000060: 7bc0 993d 78c0 5fbb 1b5e 74bd 5c31 9b3d
00000070: 21b2 a83d 1e4a 1dbe 5f72 d7bd 819c c1bd
00000080: 18a7 5e3d b845 a23d 23b1 17be c316 c83c
00000090: 28de 16bd a6f6 5fbc c36a 2b3e 31c8 a4bd
000000a0: b2bf 0c3d 4551 73bc 3f18 243c 2bad da3b
000000b0: 3502 14be 8f82 bf3d bbbb 88bc a0fc 173e
000000c0: eb0f 373e d42f cb3d d95b e43d 7043 6bbd
000000d0: 40e0 c5bd 9698 3b3e 2b2d 253d ca3c bcbd
000000e0: 9841 9a3d dbc1 e53d 53f9 18bc f83b 233e
000000f0: b417 f8bc 4d23 2fbd a6a5 c9bd 302e 1f3d
00000100: 3259 463c ce0e 2c3d 9076 e33d 03b3 babc
00000110: 3a3b 58bd b210 77bd 3ecf 2d3e b06b f6bd
00000120: 79d9 c4bd 49fe 89bd e3d7 003e 0066 f5bd
00000130: 12ab 05be 34e2 f83d b65d a4bb cea2 1b3d
00000140: acd0 9ebd bb99 533d 8f2c 01be 3eeb 8f3d
00000150: 4659 333e 045f 24bd db95 c93d c3b0 243e
00000160: c045 ae3d 82c2 e43d 0156 a03b 3314 cabb
00000170: 94b3 18be e216 14be ffcc 163e e363 f6bc
00000180: 711c 853c d211 0d3c 9b50 21bd b89d b93d
00000190: aad3 b83d c297 a3bd fe49 aa3d 58d5 1b3d
000001a0: 8149 16bd f314 c53c 5638 10be e9ab 2a3e
000001b0: 2bd7 213e cb32 213e 68d1 8abd b6d3 b6bc
000001c0: dd6b 453c 9c6d 3dbe 67a4 dfbd 9408 c03d
000001d0: a17e 8fbc 2dae f2bd 4207 b4bd 6b25 0b3e
000001e0: 29da 1b3e 18d5 7abd 02af 02be 180f cabd
000001f0: d2e9 a7bd 67ca f63d a780 ba3d 330f 9c3d
00000200: 8d15 ec3d e6b7 1d3e 8e59 86bd 26d2 e23d
00000210: 53a6 9e3d 2f68 cd3d 17fd 253e f08b 1bbd
00000220: 9336 d33d da6f f5bc c0cb 08be 6b2b 133e
00000230: 82af 7f3d 4fc5 c33d 715c 10bd 814e e03c
00000240: 2c02 143d 3b58 303e 6725 dfbc e1cd 21be
00000250: b9e7 923c e521 1abc 34a8 cabd f8aa 9bbd
00000260: 90c4 b7bd 0e7a 3c3d a173 5dbd 6e8c 0abe
00000270: d24d 473d 9e63 a2bd 5883 72bc aa0e 0dbe
00000280: bc94 cbbd a61c d43d 488b 7fbd c7fd 20be
00000290: ef10 963d 1f6b 1bbe f413 54bb efe7 15bc
000002a0: a67b 1bbe 37ef f4bd 0dbc 4c3c 5b55 eebc
000002b0: 64df b9bd 0888 023e d314 ddbd a8d8 0139
000002c0: e79e dd3d 6b3a 5abd 923b 12be cafb 3fbc
000002d0: 0a2d 183e c932 2f3e 2fb7 8b3c b225 e53d
000002e0: 550a 8ebd 3fb9 013b 608f bbbd 7288 d5bd
000002f0: e5de c73d 5156 0abe e7a7 30bd b293 f03d
00000300: a6df eb3d 09da 1b3e 3dae 473e 45a3 033e
00000310: d886 babd 795e fe3d 6bf8 2dbe fb72 323d
00000320: 9d21 533e 0ffb 34be 8d0d 39be 32ac babd
00000330: e907 16be aba2 ffbd 3af5 713d 0ab5 e03d
00000340: b829 503d 60b3 1a3d 9b13 e73d 2da8 b8ba
00000350: 29af aabd 7683 0dbe 8f7b fd3d 9d41 0abe
00000360: 9d80 25be 3123 84bd 0444 cc3d 9b75 a13d
00000370: 8a22 043d fb8a 943c f2fe 84bc b059 93bc
00000380: f2ff 10bd fd7b e6bd 91d6 f4bd faf6 963d
00000390: 90e6 3b3c 93ac 413e 1bf0 27be e99a 4b3d
000003a0: 19d3 293d 23c5 d2bd 932c ec3d bd96 bdbd
000003b0: e996 b63d afde 66bd 12c0 853d 7f3d 1cbe
000003c0: eceb fcbd b36a 263d 275b ce3d ffa4 acbd
000003d0: 825c 0abe 0f64 a93d 49e0 5c3d 7bc6 6ebd
000003e0: c817 123d fa71 a63d 65d9 ae3d d8c5 59bc
000003f0: 92bf 113d 3823 e4bc 1698 f4bd 2956 0abe

rnn.weight_hh_l1 f4 [32, 32]
-0.043343984 -0.118600026 -0.13264658 -0.026428368 0.096854016 -0.111413985 0.06371147 0.1250736
-0.096873075 0.14308324 0.1885905 0.062219203 0.017842546 -0.11139933 0.13995318 0.011176507
-0.107473694 -0.005595013 0.09626723 -0.05363061 0.12832458 -0.05752292 -0.069166854 0.022263607
-0.13950461 0.0040029567 -0.063703135 -0.16384955 0.018062564 0.1409172 0.1403472 -0.13147523
0.09938839 0.2524303 -0.15161939 -0.29965594 0.1265314 0.19579393 0.08816574 0.039015096
0.027736243 -0.11807582 0.017729495 -0.13016875 -0.088578306 0.0049920413 0.17088218 0.1679336
0.17881402 0.17631672 0.1878464 0.102571614 0.12246565 0.11725478 0.032390326 -0.010829572
0.032726403 0.06445331 0.017665135 -0.025203474 0.18081038 -0.016536431 0.1681464 -0.027199516
0.086100295 -0.11742656 0.24454702 0.06066902 0.088828884 -0.24488433 0.059071865 -0.18667376
-0.05002704 0.114171304 0.03620815 0.11464025 0.007641589 -0.21403931 0.07113909 -0.19089518
0.058560684 0.011428742 -0.20548962 -0.086992085 -0.035866927 -0.21933334 -0.056856256 0.080375165
0.02844866 0.05630459 0.14720325 -0.15548924 0.08891262 -0.05069306 0.14898466 0.0049607838
-0.21558765 -0.2616212 0.060298953 0.3856368 0.03139327 -0.079499446 -0.27324829 0.048488416
-0.11083621 0.000104663144 0.09064909 -0.11410676 -0.18340658 0.1487228 -0.054889396 -0.0035396891
0.14302796 -0.048869316 0.07689805 -0.045358554 -0.0026193503 0.0006478965 -0.16068837 -0.02694858
0.054775756 -0.05600371 0.2007049 -0.018169373 -0.25579464 0.019409018 -0.033780523 0.25178638
0.13855782 0.03518435 -0.023388159 0.10749145 -0.05911067 -0.035840612 0.06192233 -0.17476898
0.13475192 -0.10624772 0.088356495 0.14822215 -0.052570686 0.0828786 -0.073767625 0.099846505
-0.002908559 -0.038623415 -0.067902036 0.012765166 -0.11816393 0.11595084 0.102166966 -0.07901982
-0.14113022 0.038839795 -0.03632356 -0.08585451 0.1420998 -0.023970153 0.030159941 0.09129656
-0.03325448 0.12868057 -0.32483172 0.024971941 -0.17412277 0.3556931 -0.021005247 0.014891191
-0.06306632 -0.08798485 -0.031120686 -0.06914769 -0.0041271686 0.07357624 0.157001 0.22235449
-0.08859422 -0.014706287 0.23168713 -0.00622207 0.11405302 0.1328253 0.04784082 0.030811366
0.047566846 -0.031213734 0.011043208 0.10963188 -0.06583399 0.17044269 0.11147665 -0.09899798
-0.05333936 0.032085378 0.0398338 -0.27419686 0.08700707 -0.030474791 0.26775897 -0.07146805
0.01972981 -0.17886393 -0.1501615 -0.16113834 0.060206026 0.07094784 0.08835903 -0.13708138
0.16164505 0.06881784 0.06661854 0.07526279 -0.16807042 0.09751279 -0.11269035 -0.010659432
-0.019306764 0.18620288 -0.06210882 -0.18819988 0.09313923 0.11291012 0.1341815 0.043902688
0.044586822 -0.14578795 -0.13364726 -0.13571599 0.12809384 0.071532615 -0.13639782 -0.17413907
-0.039469548 -0.00626204 -0.08304861 0.08392252 -0.027920382 0.05821647 0.0033036172 -0.034467183
0.16674176 -0.2204051 -0.011855153 0.071726985 -0.2006422 0.05018495 0.08697037 0.07005861
-0.07837606 -0.12408864 -0.03978051 -0.09497903 0.08620326 -0.09222413 0.11270618 0.028306082
00000000: 7689 31bd 92e4 f2bd 81d4 07be 4e80 d8bc
00000010: 665b c63d 042d e4bd 297b 823d 4b13 003e
00000020: 6465 c6bd 6a84 123e de1d 413e 90d9 7e3d
00000030: 882a 923c 5525 e4bd e34f 0f3e ab1d 373c
00000040: 2b1b dcbd 5f56 b7bb c127 c53d c5ab 5bbd
00000050: 8567 033e 279d 6bbd 5aa7 8dbd 2b62 b63c
00000060: 4cda 0ebe 3c2b 833b ca76 82bd 2dc8 27be
00000070: f1f7 933c 994c 103e 2db7 0f3e 71a1 06be
00000080: 248c cb3d 8b3e 813e 1d42 1bbe 816c 99be
00000090: 7391 013e 347e 483e 3d90 b43d 4bce 1f3d
000000a0: 1e37 e33c bcd1 f1bd 723d 913c f54a 05be
000000b0: 8b68 b5bd 4794 a33b bdfb 2e3e c9f6 2b3e
000000c0: 061b 373e 5f8c 343e cf5a 403e 1111 d23d
000000d0: 45cf fa3d 4623 f03d b8ab 043d 846e 31bc
000000e0: 1f0c 063d 1900 843d 79b6 903c 8477 cebc
000000f0: 5b26 393e 6977 87bc 922e 2c3e 85d1 debc
00000100: 5a55 b03d 567d f0bd 896a 7a3e 1480 783d
00000110: ebeb b53d f5c2 7abe 57f5 713d 6827 3fbe
00000120: 27e9 4cbd a5d2 e93d ff4e 143d 82c8 ea3d
00000130: 4b66 fa3b 1f2d 5bbe 5fb1 913d 077a 43be
00000140: 54dd 6f3d 9e3f 3b3c df6b 52be e828 b2bd
00000150: 33e9 12bd eb98 60be 1be2 68bd bc9b a43d
00000160: 2a0d e93c a49f 663d 73bc 163e 9238 1fbe
00000170: d217 b63d 87a3 4fbd 6f8f 183e 128e a23b
00000180: 02c3 5cbe 37f3 85be 09fc 763d 3072 c53e
00000190: 3b96 003d 9bd0 a2bd 33e7 8bbe ca9b 463d
000001a0: 18fe e2bd 997e db38 3ba6 b93d ceb0 e9bd
000001b0: efce 3bbe ca4a 183e b4d3 60bd 21fa 67bb
000001c0: ec75 123e 312b 48bd ba7c 9d3d e4c9 39bd
000001d0: 68a9 2bbb 99d7 293a 7e8b 24be 45c3 dcbc
000001e0: 8b5c 603d 2564 65bd 9685 4d3e f0d7 94bc
000001f0: 84f7 82be a9ff 9e3c 725d 0abd 25ea 803e
00000200: 1ae2 0d3e 771d 103d 8698 bfbc 7a24 dc3d
00000210: 081e 72bd 9bcd 12bd 45a2 7d3d a4f6 32be
00000220: 68fc 093e 6898 d9bd 40f4 b43d 8cc7 173e
00000230: 5c54 57bd 41bc a93d 7b13 97bd 537c cc3d
00000240: 869d 3ebb 9633 1ebd 3910 8bbd fd24 513c
00000250: eeff f1bd a277 ed3d ea3c d13d 25d5 a1bd
00000260: 7184 10be 7a16 1f3d 03c8 14bd 7dd4 afbd
00000270: 9c82 113e 0e5d c4bc fb11 f73c b1f9 ba3d
00000280: da35 08bd d7c4 033e 5850 a6be f591 cc3c
00000290: 3d4d 32be 681d b63e 3213 acbc 2ffa 733c
000002a0: ea28 81bd 6731 b4bd cff0 febc 4e9d 8dbd
000002b0: 333d 87bb 24af 963d dfc4 203e e5b0 633e
000002c0: e370 b5bd a3f2 70bc 643f 6d3e 82e2 cbbb
000002d0: a194 e93d 5b03 083e bcf4 433d 1e68 fc3c
000002e0: 74d5 423d f2b3 ffbc 92ee 343c ae86 e03d
000002f0: f9d3 86bd 8788 2e3e df4d e43d 74bf cabd
00000300: 5f7a 5abd f56b 033d c428 233d 8863 8cbe
00000310: c330 b23d 45a6 f9bc b417 893e d75d 92bd
00000320: 69a0 a13c 1b28 37be f0c3 19be 7301 25be
00000330: 989a 763d 1a4d 913d 94f5 b43d 105f 0cbe
00000340: 4886 253e 5ef0 8c3d 4d6f 883d 6123 9a3d
00000350: a71a 2cbe c9b4 c73d 33ca e6bd e6a4 2ebc
00000360: 3829 9ebc f8ab 3e3e d165 7ebd 78b7 40be
00000370: c8bf be3d 6c3d e73d e066 093e 4ed3 333d
00000380: aca0 363d 7049 15be d4da 08be 22f9 0abe
00000390: 082b 033e b17f 923d dfab 0bbe 8351 32be
000003a0: d2aa 21bd cd31 cdbb 6415 aabd 92df ab3d
000003b0: 49b9 e4bc 6574 6e3d 8081 583b 762d 0dbd
000003c0: 5abe 2a3e e0b1 61be 1e3c 42bc 99e5 923d
000003d0: 2675 4dbe bc8e 4d3d 851d b23d e37a 8f3d
000003e0: a183 a0bd 2f22 febd e3f0 22bd 5e84 c2bd
000003f0: 568b b03d 01e0 bcbd 7fd2 e63d 28e2 e73c

rnn.bias_ih_l1 f4 [32]
0.02623087 -0.09909446 -0.10599604 0.1350224 -0.124297395 -0.026944762 0.097541176 -0.08091073
0.17827712 0.07415293 -0.059371673 0.106218815 0.08826064 -0.030917589 0.14131896 0.12174076
0.0037287066 -0.12433552 -0.08565943 -0.07015996 0.17222108 0.077689685 0.00033823634 -0.10940768
0.17761172 0.07051587 -0.16545357 0.0009972716 0.052658636 -0.20476624 0.024953755 0.14237724
00000000: 1fe2 d63c 09f2 cabd 7414 d9bd 5043 0a3e
00000010: a28f febd 43bb dcbc abc3 c73d 86b4 a5bd
00000020: 478e 363e 7edd 973d b62f 73bd 4089 d93d
00000030: ffc1 b43d e246 fdbc ebb5 103e 3853 f93d
00000040: 515d 743b 9fa3 febd 366e afbd 06b0 8fbd
00000050: b95a 303e c51b 9f3d 5055 b139 2211 e0bd
00000060: d9df 353e a06a 903d a96c 29be e2b6 823a
00000070: 95b0 573d 3eae 51be d16b cc3c 57cb 113e

rnn.bias_hh_l1 f4 [32]
-0.041671228 -0.005494327 -0.03576272 -0.15097669 0.028805261 -0.008372405 -0.0072876 -0.087390736
-0.1084607 0.107370466 0.044342034 0.11997522 -0.011967326 -0.043000918 -0.13649166 0.031867255
-0.0051265513 0.15151261 -0.07077578 0.019925138 -0.08543839 -0.18579142 0.04474196 -0.06379806
-0.088869154 0.0827893 0.11213505 -0.06451496 0.08709449 0.016556006 -0.019332083 0.11487166
00000000: 73af 2abd c109 b4bb ee7b 12bd a299 1abe
00000010: 03f9 eb3c 692c 09bc d2cc eebb eaf9 b2bd
00000020: a520 debd 0ce5 db3d fe9f 353d 91b5 f53d
00000030: 9a12 44bc bb21 30bd 78c4 0bbe 3d87 023d
00000040: a1fc a7bb 1f26 1b3e e4f2 90bd 0b3a a33c
00000050: 53fa aebd 1b40 3ebe 5843 373d 8fa8 82bd
00000060: 0801 b6bd 708d a93d 10a7 e53d 6b20 84bd
00000070: 995e b23d 76a0 873c 515e 9ebc d541 eb3d

rnn.weight_ih_l2 f4 [32, 32]
0.16153193 -0.035521287 0.17135173 0.01499957 -0.14196959 0.20807505 0.04778222 0.14361504
-0.034138445 -0.0019130005 0.119598724 0.013165412 0.0650311 0.15647656 0.24302752 -0.21251453
-0.08057654 0.08874676 -0.09060781 -0.07060499 0.050611835 -0.04152295 0.13302323 -0.04937689
0.13623805 0.030959575 -0.11391704 0.041909963 0.04529149 -0.14107363 -0.07569003 0.026147358
0.046709854 0.10711147 0.048350878 -0.06339093 -0.1682165 0.06331044 0.017816829 0.05370393
-0.01983734 0.14513117 -0.062766194 0.024412515 0.055684984 -0.020714497 0.0064758672 -0.14047204
-0.0035629321 -0.04891606 0.05750696 -0.093363024 -0.0074390857 -0.09682591 -0.00986972 0.10914775
-0.13846527 0.003281683 -0.025569284 -0.10556175 0.12443171 -0.08786709 -0.0023113806 -0.12961498
0.0030305176 0.19262499 0.013842833 0.09237568 -0.12587693 -0.08449814 0.03402873 -0.12817697
0.009548726 0.16062121 -0.05080345 0.09679956 -0.008548628 -0.05811783 0.07300877 0.012592859
0.113660306 0.104562774 0.0966768 -0.030615335 0.06189397 0.19838503 -0.08918929 0.07637877
0.03656449 -0.0028569729 0.12660006 -0.06353893 -0.08877643 0.17921086 -0.09561636 0.13098004
0.00914818 0.13308536 -0.05611503 0.13353993 0.053499404 0.12214097 0.04116932 -0.0795575
-0.15448545 0.07062221 0.16290818 -0.1020196 -0.0041957293 -0.019093147 0.01606479 0.18429229
-0.0026404103 0.0026139366 0.096546024 0.103731185 0.01987546 -0.07901202 -0.0018641131 0.038716935
-0.1398257 0.07362572 0.04887773 -0.06549296 0.0010888106 -0.067882724 -0.13570517 0.12669784
0.0437576 0.060063727 -0.12692471 0.08649063 -0.1413908 0.055026222 0.039951824 -0.13713105
-0.13833347 0.027219683 -0.0901236 -0.15365228 -0.004210281 0.09732766 0.027716631 -0.20581573
-0.08056864 -0.09613032 0.11688081 0.061485466 -0.11459936 -0.10673561 -0.052559983 0.06758717
0.083447084 -0.17701057 -0.084021196 -0.04605913 -0.056545224 0.05895863 0.015944274 -0.08204116
-0.038646527 -0.13415956 0.25660753 0.08079957 -0.008458582 -0.12931976 -0.046828013 0.056554697
0.12139558 -0.087583214 0.11663987 -0.13744238 0.048847985 0.05777949 -0.07224361 0.076687574
-0.09903859 0.05749163 0.029648839 0.1485901 0.15609664 0.12017407 0.12165129 -0.03555133
0.08198427 -0.06004643 -0.042291876 -0.06381553 -0.03152807 0.06495284 -0.054700647 -0.0042811297
-0.019460533 -0.015331121 -0.037543662 -0.047703672 -0.0062262113 0.063894846 0.13558936 0.21663308
-0.07677501 -0.018058853 -0.03530111 0.028520547 0.12724297 0.012729092 -0.15223753 -0.05553916
0.008891233 -0.011000287 -0.20451684 -0.040993672 -0.14779054 0.05180701 -0.17316188 0.10932439
0.13210262 -0.03215239 0.07449723 -0.07638996 -0.011737542 -0.08967953 0.018972332 -0.032574516
0.13614671 -0.016360236 0.08543408 0.12846969 -0.06782078 0.1212535 0.12996039 0.13030021
-0.02169217 -0.050362073 0.111156024 0.15931092 0.12204036 0.10639675 0.122253895 0.062435176
0.115316816 0.037952352 0.020239882 -0.15693773 0.07024111 -0.0005395721 0.121343866 0.0077568963
-0.0974601 -0.038152833 0.036169063 0.013332523 -0.041145988 0.084284045 -0.11989514 0.15126021
00000000: a068 253e c57e 11bd d476 2f3e c2c0 753c
00000010: 7a60 11be a011 553e 4ab7 433d d20f 133e
00000020: c1d4 0bbd a5bd faba 2df0 f43d bdb3 573c
00000030: 062f 853d 643b 203e 35dc 783e 699d 59be
00000040: 5005 a5bd dcc0 b53d 9690 b9bd 5999 90bd
00000050: 5b4e 4f3d f813 2abd 3e37 083e 6c3f 4abd
00000060: fd81 0b3e ef9e fd3c 564d e9bd c8a9 2b3d
00000070: 9283 393d 9b75 10be 6003 9bbd fc32 d63c
00000080: d552 3f3d 425d db3d 920b 463d 1bd3 81bd
00000090: f240 2cbe e7a8 813d 99f4 913c a7f8 5b3d
000000a0: eb81 a2bc 449d 143e 908b 80bd c1fc c73c
000000b0: f015 643d 73b1 a9bc 8333 d43b e7d7 0fbe
000000c0: 1580 69bb 355c 48bd 6b8c 6b3d 1d35 bfbd
000000d0: 93c3 f3bb aa4c c6bd 9bb4 21bc db88 df3d
000000e0: d7c9 0dbe 8111 573b ad76 d1bc c230 d8bd
000000f0: 0dd6 fe3d a9f3 b3bd 887a 17bb cab9 04be
00000100: a69b 463b 7c3f 453e 0dcd 623c 762f bd3d
00000110: e2e5 00be 5c0d adbd b661 0b3d d340 03be
00000120: 4272 1c3c e379 243e 4717 50bd d93e c63d
00000130: 8b0f 0cbc f60c 6ebd 9f85 953d 4752 4e3c
00000140: bcc6 e83d 0225 d63d 7cfe c53d 03cd fabc
00000150: 8884 7d3d 7225 4b3e e0a8 b6bd 796c 9c3d
00000160: a6c4 153d 0d3c 3bbb 72a3 013e b320 82bd
00000170: 6bd0 b5bd 0d83 373e 83d2 c3bd a21f 063e
00000180: 3fe2 153c 8747 083e e0d8 65bd b1be 083e
00000190: 3122 5b3d 0b25 fa3d 29a1 283d 0bef a2bd
000001a0: 6f31 1ebe 61a2 903d 67d1 263e a7ef d0bd
000001b0: 547c 89bb 3b69 9cbc 4e9a 833c 1eb7 3c3e
000001c0: bc0a 2dbb 944e 2b3b ecb9 c53d 0471 d43d
000001d0: dcd1 a23c 0ed1 a1bd 4255 f4ba a695 1e3d
000001e0: 782e 0fbe 15c9 963d 0434 483d 2c21 86bd
000001f0: 6cb6 8e3a 1906 8bbd 4cf6 0abe 14bd 013e
00000200: 2b3b 333d 6205 763d 8df8 01be 0022 b13d
00000210: c0c8 10be 2d63 613d 86a4 233d 156c 0cbe
00000220: 4aa7 0dbe d0fb de3c b992 b8bd 0657 1dbe
00000230: 66f6 89bb b953 c73d fd0d e33c 5cc1 52be
00000240: 2c01 a5bd f9df c4bd 355f ef3d 2fd8 7b3d
00000250: 12b3 eabd 3398 dabd 2349 57bd 246b 8a3d
00000260: 4ee6 aa3d 4242 35be 4e13 acbd 80a8 3cbd
00000270: f79b 67bd 9b7e 713d 919d 823c 3205 a8bd
00000280: d24b 1ebd 2061 09be 1062 833e 3f7a a53d
00000290: dd95 0abc 666c 04be bbce 3fbd e6a5 673d
000002a0: 3f9e f83d d45e b3bd e2e0 ee3d b2bd 0cbe
000002b0: d314 483d 30aa 6c3d 75f4 93bd 600e 9d3d
000002c0: bfd4 cabd 587c 6b3d 1fe2 f23c 0128 183e
000002d0: ccd7 1f3e d31d f63d 5024 f93d 459e 11bd
000002e0: 5ee7 a73d 3ff3 75bd 3f3a 2dbd b7b1 82bd
000002f0: 9423 01bd ff05 853d c90d 60bd b848 8cbb
00000300: b26b 9fbc 622f 7bbc 62c7 19bd ed64 43bd
00000310: 3f05 ccbb 4ddb 823d f0d7 0a3e 10d5 5d3e
00000320: 373c 9dbd 29f0 93bc e697 10bd eca3 e93c
00000330: fb4b 023e ae8d 503c 28e4 1bbe 087d 63bd
00000340: 89ac 113c 8c3a 34bc dd6c 51be fbe8 27bd
00000350: 6756 17be 9633 543d 5951 31be 77e5 df3d
00000360: e945 073e 39b2 03bd 0192 983d 5772 9cbd
00000370: d24e 40bc e7a9 b7bd dd6b 9b3c db6c 05bd
00000380: 0b6a 0b3e e705 86bc 10f8 ae3d 8f8d 033e
00000390: 9fe5 8abd c153 f83d 5614 053e 6b6d 053e
000003a0: c7b3 b1bc 7648 4ebd c5a5 e33d 6722 233e
000003b0: 4cf0 f93d 8ae6 d93d 4060 fa3d 07bc 7f3d
000003c0: 392b ec3d ed73 1b3d 1cce a53c 49b4 20be
000003d0: 92da 8f3d 1272 0dba 2283 f83d 902d fe3b
000003e0: 2999 c7bd 2546 1cbd 0326 143d a870 5a3c
000003f0: b288 28bd 1d9d ac3d 958b f5bd f5e3 1a3e

rnn.weight_hh_l2 f4 [32, 32]
-0.0018375104 0.15815464 -0.054853126 -0.13249595 0.07224657 -0.024822848 -0.0926207 0.04296955
-0.09437199 0.08886333 -0.0393585 -0.12737462 -0.1206872 0.07386864 0.10370318 0.038438216
0.009815449 0.02710095 0.012551562 -0.07810981 0.015261341 -0.088473015 0.15079814 -0.13868676
-0.12220268 -0.09072105 0.09647158 0.13426946 0.0454096 0.030477729 0.13401291 -0.09360909
-0.10500393 -0.15421948 0.15960424 0.0047129267 -0.12963204 0.029604351 -0.14606342 -0.008814907
-0.03377645 -0.092354156 0.051564023 0.054840177 -0.156228 -0.1330473 0.13334382 0.0062200776
-0.14326279 0.031151779 0.07128132 -0.12613846 0.019377463 0.1550098 0.14099352 0.13678169
-0.1106147 0.15259233 -0.20664039 0.09561382 0.10537723 0.039023366 0.060521603 -0.17711723
0.13499205 -0.1284709 -0.009057827 0.13291162 -0.0146354055 -0.09441974 0.082039386 -0.08412962
-0.053732567 -0.25922754 0.026952358 0.07183419 -0.07254078 -0.07952065 0.01167733 -0.10419447
0.119516134 -0.09817779 -0.08185815 -0.015579428 0.03890078 -0.07890366 -0.05492138 0.14297152
-0.04295183 0.07578171 0.21296027 -0.065810554 -0.18547589 0.19557594 -0.097151846 -0.1169438
-0.067958415 -0.11331772 0.016334156 0.024487767 -0.025931682 -0.11466117 -0.27066684 -0.09015839
0.003033927 -0.12624522 0.12394411 0.039793976 0.022132665 -0.14406638 0.19202894 0.02031037
0.16512576 -0.042745538 0.023041692 -0.06069067 -0.033939354 -0.063720785 -0.09032603 0.083384916
-0.02555588 -0.042207662 0.1112779 0.098844185 0.10591831 0.033267464 -0.016898412 0.0642227
-0.06788947 0.019877937 -0.13951519 -0.005663196 -0.07422252 -0.15141854 0.04905703 -0.14812861
-0.007915214 0.046976086 0.11069236 0.21615443 -0.027545655 0.12902847 -0.035932437 0.097909115
-0.09169556 -0.043541618 0.07612926 0.094774246 0.16756928 -0.08469935 0.11104945 -0.18650688
0.117842674 0.0037896016 -0.13856103 -0.087911665 0.017830633 0.086878754 -0.030281227 0.003675736
-0.065245464 -0.12313606 -0.008218779 0.113846846 -0.12900764 -0.08347366 -0.11758777 -0.10112465
0.13890933 0.090587094 -0.1149965 0.18087389 -0.1755499 0.012421577 -0.17415869 -0.166977
0.05354248 -0.06232566 -0.18080576 -0.17393565 -0.0014548274 -0.052869488 -0.17356385 -0.026349124
-0.11109334 -0.07276304 0.20456728 -0.06596158 -0.012267805 0.011962507 -0.064309485 0.03281561
-0.025092002 -0.13506573 -0.06062966 -0.23432212 -0.11874274 0.14073375 0.2667752 0.04898154
-0.3045207 0.19521573 0.10685454 -0.1883021 -0.025350064 0.0021124075 -0.011655533 -0.07754796
-0.054501195 0.11651172 -0.28435108 -0.24698448 0.13288464 -0.039480973 -0.22035114 -0.011946157
-0.016389744 -0.07168979 0.077310085 0.012952648 -0.113821454 0.05324021 -0.1833892 -0.067555405
0.11563511 0.022139497 0.124399915 0.14499503 -0.1538309 0.14829895 0.0054488927 0.014358221
-0.0013173231 -0.07616139 -0.026671452 -0.14447033 -0.1347416 0.2492839 -0.054002333 -0.11541744
-0.12667522 -0.11670613 0.10562282 0.09968373 -0.13388504 0.095118806 0.050883144 -0.15436348
-0.10279515 -0.07873837 -0.15291414 0.06323761 0.0755832 -0.010526285 -0.031087702 0.0041817757
00000000: 9ed8 f0ba 4af3 213e acad 60bd 05ad 07be
00000010: 02f6 933d 4959 cbbc ecaf bdbd d700 303d
00000020: 1a46 c1bd fafd b53d 6136 21bd 7e6e 02be
00000030: da2a f7bd 7148 973d 5562 d43d 6471 1d3d
00000040: fad0 203c d002 de3c 11a5 4d3c 09f8 9fbd
00000050: b40a 7a3c 5731 b5bd d46a 1a3e e703 0ebe
00000060: 6645 fabd f5cb b9bd e492 c53d ef7d 093e
00000070: 6bff 393d 6eac f93c ae3a 093e 1fb6 bfbd
00000080: 4d0c d7bd b6eb 1dbe 4b6f 233e e56e 9a3b
00000090: 43be 04be d384 f23c a691 15be 666c 10bc
000000a0: 2d59 0abd 2d24 bdbd cc34 533d 18a0 603d
000000b0: 3cfa 1fbe 8d3d 08be 488b 083e cbd1 cb3b
000000c0: 7bb3 12be 0432 ff3c f1fb 913d 712a 01be
000000d0: 7cbd 9e3c e4ba 1e3e 9b60 103e 8010 0c3e
000000e0: f689 e2bd 2a41 1c3e 8a99 53be 2ed1 c33d
000000f0: 04d0 d73d f7d6 1f3d 80e5 773d 385e 35be
00000100: 5b3b 0a3e e08d 03be 4867 14bc fc19 083e
00000110: 57c9 6fbc 235f c1bd 4404 a83d 264c acbd
00000120: ae16 5cbd 79b9 84be 31cb dc3c ce1d 933d
00000130: 4390 94bd b9db a2bd 4652 3f3c e963 d5bd
00000140: e0c4 f43d 7011 c9bd 3fa5 a7bd db40 7fbc
00000150: 6d56 1f3d 3e98 a1bd 3ef5 60bd 2067 123e
00000160: 42ee 2fbd 7133 9b3d 4212 5a3e afc7 86bd
00000170: 64ed 3dbe 0f45 483e 8cf7 c6bd 3b80 efbd
00000180: c82d 8bbd 1f13 e8bd 35cf 853c 929a c83c
00000190: ae6e d4bc 7ad3 eabd d894 8abe f6a4 b8bd
000001a0: d9d4 463b 6d46 01be 69d6 fd3d 02ff 223d
000001b0: 904f b53c 2386 13be 3ca3 443e ef61 a63c
000001c0: ba16 293e f215 2fbd eec1 bc3c c896 78bd
000001d0: fe03 0bbd 0b80 82bd dbfc b8bd b6c5 aa3d
000001e0: 915a d1bc f1e1 2cbd abe5 e33d d26e ca3d
000001f0: b3eb d83d 7743 083d 8a6e 8abc 3187 833d
00000200: a209 8bbd 0ed7 a23c 12dd 0ebe 5592 b9bb
00000210: fa01 98bd 760d 1bbe 06f0 483d 07af 17be
00000220: d0ae 01bc ff69 403d adb2 e23d 9657 5d3e
00000230: 6da7 e1bc 0a20 043e e42d 13bd 9384 c83d
00000240: e2ca bbbd b258 32bd a8e9 9b3d 0019 c23d
00000250: 4897 2b3e da76 adbd e56d e33d a9fb 3ebe
00000260: 8057 f13d f75a 783b f1e2 0dbe 080b b4bd
00000270: 8c11 923c 7ded b13d 5610 f8bc 9ee4 703b
00000280: 6a9f 85bd c22e fcbd 0fa8 06bc 8928 e93d
00000290: 941a 04be 3df4 aabd dbd1 f0bd 711a cfbd
000002a0: 3f3e 0e3e ba85 b93d 4983 ebbd 0137 393e
000002b0: 5ac3 33be df83 4b3c a856 32be 05fc 2abe
000002c0: 5c4f 5b3d 3149 7fbd 2525 39be 301c 32be
000002d0: e8af beba ad8d 58bd b9ba 31be 1eda d7bc
000002e0: e884 e3bd ca04 95bd 167a 513e dd16 87bd
000002f0: e7fe 48bc 64fe 433c b1b4 83bd a969 063d
00000300: be8d cdbc ac4e 0abe ce56 78bd 23f2 6fbe
00000310: 652f f3bd 821c 103e c296 883e dea0 483d
00000320: 23ea 9bbe a2e6 473e 8ed6 da3d 44d2 40be
00000330: f0aa cfbc 5170 0a3b d9f6 3ebc 77d1 9ebd
00000340: a53c 5fbd b29d ee3d 7796 91be 80e9 7cbe
00000350: e912 083e cdb6 21bd bba3 61be d0b9 43bc
00000360: c943 86bc 19d2 92bd c054 9e3d 5837 543c
00000370: 391b e9bd 6812 5a3d 61ca 3bbe 7d5a 8abd
00000380: 1ad2 ec3d e45d b53c 62c5 fe3d 9479 143e
00000390: d985 1dbe aedb 173e a08c b23b be3e 6b3c
000003a0: 07aa acba 81fa 9bbd 177e dabc 08f0 13be
000003b0: b4f9 09be 4744 7f3e 8d31 5dbd fb5f ecbd
000003c0: 26b7 01be a003 efbd c750 d83d fc26 cc3d
000003d0: 2919 09be a6cd c23d d86a 503d 7611 1ebe
000003e0: 4386 d2bd 9541 a1bd 8695 1cbe b882 813d
000003f0: 5dcb 9a3d 7076 2cbc a3ab febc 4707 893b

rnn.bias_ih_l2 f4 [32]
0.040686183 -0.08122578 0.1174829 0.14718711 -0.11202149 -0.111479156 0.06670145 -0.10070422
0.17344503 -0.021047968 -0.061361406 0.06903864 -0.08523025 -0.0355588 0.10294492 -0.02397862
-0.10569168 0.07563103 0.10852509 0.052021783 0.06143023 -0.0474245 0.008083851 0.05066293
0.10865973 -0.08542871 -0.013855747 -0.00035268918 0.07123875 -0.0855002 -0.03063774 -0.011060791
00000000: 8ea6 263d b459 a6bd e09a f03d 38b8 163e
00000010: 866b e5bd 2f4f e4bd c59a 883d 043e cebd
00000020: 939b 313e ca6c acbc 1956 7bbd 2164 8d3d
00000030: 338d aebd 1ba6 11bd c9d4 d23d d06e c4bc
00000040: e174 d8bd 71e4 9a3d 6742 de3d cb14 553d
00000050: 449e 7b3d 3140 42bd 2172 043c ef83 4f3d
00000060: fe88 de3d 3ff5 aebd 3703 63bc 24e9 b8b9
00000070: 9fe5 913d bb1a afbd fffb fabc 5238 35bc

rnn.bias_hh_l2 f4 [32]
-0.036157623 0.10911326 0.007527746 0.002365269 -0.14611861 0.048701383 0.11609691 0.17639293
-0.010524927 0.047440227 -0.14180103 -0.063722305 0.036205705 0.13198043 0.14062019 -0.063887514
-0.11499434 -0.051672447 0.05153667 0.12767075 -0.015975239 0.038142394 -0.029611629 -0.1418419
0.10305427 -0.052406736 -0.1034098 0.12709098 -0.092042826 0.047748644 0.08753707 0.10861549
00000000: 041a 14bd c676 df3d 4fab f63b a102 1b3b
00000010: 1ea0 15be 1a7b 473d 37c4 ed3d 59a0 343e
00000020: be70 2cbc af50 423d 4a34 11be d780 82bd
00000030: 6f4c 143d e125 073e bdfe 0f3e 75d7 82bd
00000040: 2782 ebbd 7da6 53bd 1e18 533d 1fbc 023e
00000050: 81de 82bc 333b 1c3d 1694 f2bc 013f 11be
00000060: 1e0e d33d 72a8 56bd 84c8 d3bd 2324 023e
00000070: f380 bcbd 1594 433d a346 b33d cc71 de3d

rnn.weight_ih_l3 f4 [32, 32]
-0.14019622 0.09367086 0.05136799 -0.12655143 0.07238648 -0.15966935 -0.020303885 -0.12905304
-0.03226344 -0.032799277 0.08590933 -0.18928656 0.23730057 0.0004387782 0.022873808 -0.15904267
-0.02467559 0.020026917 0.060643334 -0.04243788 0.062440313 0.0426716 0.08889844 0.17149413
0.14022583 0.06824777 -0.06816982 0.010273977 0.079041004 -0.04072601 0.05382396 0.03730858
-0.055818006 0.08313324 -0.048347197 -0.074555665 -0.05496584 0.06352321 0.03658227 0.11959001
-0.093292385 -0.1464384 0.15240532 -0.1839366 0.1099865 0.18830416 -0.048698958 0.08541198
0.05454927 -0.005270445 0.10694995 -0.21759453 -0.08179012 0.013825443 0.18203408 -0.020335965
-0.05222672 -0.029561292 0.08389526 0.071972474 0.07213215 0.106289916 0.06813766 0.05094303
-0.15476231 -0.05743918 -0.08641719 -0.12107052 0.011096073 0.089706555 -0.16174623 -0.024335954
-0.07038155 -0.011146964 0.017064266 -0.03741952 -0.037083026 -0.063671775 -0.004334287 0.11429211
0.1295956 -0.053745892 -0.046604764 -0.015810065 0.019099884 -0.093638785 -0.051427748 -0.0072424486
-0.11828306 0.11767069 0.04051774 -0.11123597 0.098453365 -0.08856048 -0.11408643 -0.075591795
-0.11616516 -0.0333714 0.09271618 0.0073247477 0.09192918 -0.018682228 0.15516728 0.059615243
0.021304825 0.02288182 -0.08943169 0.08950891 -0.029957185 0.041940063 0.17312114 0.13587047
-0.0005802367 -0.060524333 -0.011872293 0.11747248 0.051346775 -0.023026235 0.036480915 0.088754185
-0.104919374 -0.038130574 0.088899665 -0.14481463 0.07080302 -0.034914903 -0.05261689 0.011185861
-0.07171047 0.13220821 0.1880668 -0.19368167 -0.019974656 0.08670666 -0.15334885 0.11352191
-0.11452721 -0.02688137 0.19157411 -0.08317838 0.14755629 0.05244074 -0.06247776 0.17024419
0.07574826 -0.07715734 0.05759514 0.027895551 0.023176894 -0.03323571 0.0143806515 -0.02914864
-0.100675374 -0.029842949 0.10308205 -0.030373586 0.06160594 0.054864947 -0.1058323 -0.020748837
0.1168819 0.009628932 0.12508333 0.117805004 0.15664795 -0.14707404 0.03706087 0.14429544
-0.1328943 -0.013699225 -0.072216876 0.09587314 -0.017037403 0.033470802 -0.1443189 0.1467363
0.07764321 0.16692796 -0.05997189 -0.114571445 0.044265576 0.08477937 0.11701709 0.04942222
0.01126842 0.0135856625 -0.034287073 -0.04222089 0.09721365 0.048059564 -0.116218 0.06781989
0.116956584 -0.082360305 0.061657347 0.044816673 0.04875168 0.10118692 0.09587886 0.0800225
0.13558981 0.06385821 -0.050716482 0.062958084 -0.118642874 0.0007416678 -0.22453874 0.03268705
0.18954708 -0.11355235 0.02525995 0.11234965 -0.1121537 0.08753545 -0.12444191 -0.1847804
-0.03485753 -0.042210557 -0.115865566 -0.21583283 0.11931594 -0.026473323 0.06408912 -0.034826156
0.03246357 -0.12502569 -0.069273256 0.096472256 -0.038194507 0.12868667 0.10331876 -0.16882017
0.11215812 0.14289354 0.13447899 0.032490466 0.011267354 -0.04386894 0.031763025 -0.0562227
0.117859766 -0.12710452 0.16490585 -0.015359941 -0.024047378 0.12340251 -0.032750834 -0.17870301
-0.039223686 -0.16959004 -0.18884894 -0.15442164 0.05177618 -0.01453205 0.07426887 -0.12579304
00000000: 998f 0fbe 82d6 bf3d 3e67 523d b396 01be
00000010: 5d3f 943d 5d80 23be 5554 a6bc 7b26 04be
00000020: ab26 04bd 8958 06bd 3bf1 af3d 56d4 41be
00000030: ecfe 723e d00b e639 da61 bb3c 15dc 22be
00000040: 7724 cabc 7d0f a43c 2565 783d 58d3 2dbd
00000050: 6ac1 7f3d 6ac8 2e3d 6310 b63d 289c 2f3e
00000060: 5c97 0f3e 7dc5 8b3d 9e9c 8bbd 2f54 283c
00000070: 40e0 a13d 51d0 26bd 8376 5c3d e2d0 183d
00000080: 6ca1 64bd c341 aa3d b607 46bd a4b0 98bd
00000090: dc23 61bd 7518 823d 4ad7 153d 9beb f43d
000000a0: 1410 bfbd f3f3 15be 2410 1c3e e059 3cbe
000000b0: 9a40 e13d ced2 403e 8f78 47bd 7aec ae3d
000000c0: 0e6f 5f3d b2b3 acbb 9308 db3d 1ad1 5ebe
000000d0: 9481 a7bd 1c84 623c 2467 3a3e 9c97 a6bc
000000e0: afeb 55bd 862a f2bc 47d1 ab3d 4e66 933d
000000f0: 05ba 933d 87ae d93d c28b 8b3d a3a9 503d
00000100: 037a 1ebe 5845 6bbd 7ffb b0bd d2f3 f7bd
00000110: 4ecc 353c 12b8 b73d cea0 25be 325c c7bc
00000120: 3424 90bd c1a1 36bc 5cca 8b3c 3645 19bd
00000130: 5fe4 17bd 5966 82bd a206 8ebb fb11 ea3d
00000140: b5b4 043e a724 5cbd a3e4 3ebd 1c84 81bc
00000150: 5c77 9c3c b1c5 bfbd e7a5 52bd 1052 edbb
00000160: 643e f2bd 55fd f03d eef5 253d afcf e3bd
00000170: eba1 c93d 325f b5bd 25a6 e9bd dfcf 9abd
00000180: 00e8 edbd 73b0 08bd fbe1 bd3d 7004 f03b
00000190: 5e45 bc3d 790b 99bc 2ce4 1e3e 1d2f 743d
000001a0: 7587 ae3c a872 bb3c f627 b7bd 7350 b73d
000001b0: c568 f5bc 58c9 2b3d ab46 313e a121 0b3e
000001c0: 071b 18ba 5de8 77bd 0284 42bc 6995 f03d
000001d0: ff50 523d 84a1 bcbc 036d 153d c1c4 b53d
000001e0: f8df d6bd ce2e 1cbd 0711 b63d 494a 14be
000001f0: 2c01 913d ee02 0fbd cf84 57bd e744 373c
00000200: f0dc 92bd 9761 073e 9594 403e 7d54 46be
00000210: e4a1 a3bc 4393 b13d 7b07 1dbe 2d7e e83d
00000220: 3e8d eabd 5236 dcbc 012c 443e 6d59 aabd
00000230: ff18 173e 1acc 563d aee8 7fbd 7e54 2e3e
00000240: e721 9b3d ab04 9ebd e2e8 6b3d 3685 e43c
00000250: 78dd bd3c 2b22 08bd d39c 6b3c 21c9 eebc
00000260: e42e cebd 3379 f4bc af1c d33d 07d2 f8bc
00000270: 8356 7c3d 11ba 603d 9bbe d8bd 77f9 a9bc
00000280: c75f ef3d abc2 1d3c d815 003e c043 f13d
00000290: 5268 203e 949a 16be 24cd 173d 2fc2 133e
000002a0: 7215 08be b772 60bc 71e6 93bd 2359 c43d
000002b0: 0692 8bbc ae18 093d 55c8 13be 0a42 163e
000002c0: 6703 9f3d 2aef 2a3e 16a5 75bd 6fa4 eabd
000002d0: d24f 353d cea0 ad3d a8a6 ef3d f46e 4a3d
000002e0: 2e9f 383c 6696 5e3c 9a70 0cbd d0ef 2cbd
000002f0: f317 c73d 1bda 443d b403 eebd 28e5 8a3d
00000300: ef86 ef3d 85ac a8bd 6a8c 7c3d b091 373d
00000310: d7af 473d 173b cf3d 235c c43d d6e2 a33d
00000320: 0ed8 0a3e 18c8 823d 16bc 4fbd 2bf0 803d
00000330: 09fb f2bd 7c6c 423a 7ced 65be dbe2 053d
00000340: a118 423e 228e e8bd f4ed ce3c 9317 e63d
00000350: d7b0 e5bd c945 b33d 66db febd 1337 3dbe
00000360: c5c6 0ebd fae4 2cbd ed4a edbd 4803 5dbe
00000370: ea5b f43d 95de d8bc 2841 833d dfa5 0ebd
00000380: 85f8 043d bc06 00be 23df 8dbd 3f93 c53d
00000390: d871 1cbd 70c6 033e c998 d33d 32df 2cbe
000003a0: 28b3 e53d af52 123e dcb4 093e b914 053d
000003b0: b59a 383c ebaf 33bd f219 023d c649 66bd
000003c0: 7660 f13d b027 02be 14dd 283e 43a8 7bbc
000003d0: 02ff c4bc 75ba fc3d bd25 06bd ecfd 36be
000003e0: 04a9 20bd 03a9 2dbe 9e61 41be b520 1ebe
000003f0: 4213 543d d617 6ebc 471a 983d e4cf 00be
