Supervised/00_exercises/lab_10/lightning_logs/version_0/checkpoints/epoch=8-step=3510.ckpt (torch, 29844 bytes, 18 tensors)

rnn.weight_ih_l0 f4 [32, 10]
000000 2d 0f c2 bd 25 55 dd bc 2f 6e a9 3d 08 43 84 bd
       -0.09475551 -0.02701814 0.08272969 -0.06458098
000010 ab 92 94 bd 5f b6 09 3e ac c0 35 3d 6f c6 f5 3b
       -0.07254537 0.13448475 0.0443732 0.007500462
000020 07 81 87 bc 00 00 f4 ba 66 ee 0a 3d 65 16 0b 3e
       -0.016541017 -0.0018615723 0.03391876 0.13582762
000030 2b be 3c 3d 46 58 b5 3d 42 72 12 3e a9 fc 2a 3c
       0.046079796 0.088547274 0.14301398 0.010436215
000040 fb f6 9b bd 86 a6 1e 3e f1 34 f0 bc 25 89 2f 3e
       -0.07615467 0.15493211 -0.02932212 0.1714216
000050 a2 4c a2 3d 44 fc c9 bd c4 b7 86 bd b5 e3 d2 bd
       0.07924773 -0.09862569 -0.06578019 -0.10297338
000060 1f 9c b1 bd 88 f4 8a 3d ca a5 97 3d c5 e5 98 bd
       -0.08672356 0.06784922 0.07404669 -0.074657
000070 81 06 cd 3d 20 7b 27 3d 04 db 04 3d 2b 1e 6f 3d
       0.10011006 0.040888906 0.032435432 0.05837838
000080 56 31 dc ba cd 83 83 bc fb d1 42 bd fc 26 8a bd
       -0.0016799371 -0.016054058 -0.047563534 -0.06745717
000090 0a 7a aa bc 8b 2f bd 3d 09 e3 9f bd 0b 6b 2c bd
       -0.020810146 0.09237584 -0.078069754 -0.04209427
0000a0 c9 ab 06 3d c1 c1 b0 3d ad 12 7d 3d aa ee a0 bd
       0.03287867 0.086307056 0.06178539 -0.078580216
0000b0 cd 91 f8 bd e4 53 3b 3b 14 c7 ce bd ba 9b cb bd
       -0.12137184 0.0028583938 -0.10096565 -0.09941812
0000c0 c0 87 62 bb 09 b1 da b8 75 e4 d0 bd 9f 8b 60 3b
       -0.0034565777 -0.000104280254 -0.10199825 0.0034262908
0000d0 55 a8 7f bb ef 33 9f bd 1c 84 50 bb 15 ee a2 3d
       -0.0039010246 -0.077735774 -0.0031817025 0.07955567
0000e0 08 52 6a bd a9 08 4d bd 87 c2 d7 bd 25 5d e2 bd
       -0.057207137 -0.050057087 -0.1053515 -0.11052922
0000f0 21 31 f0 3c fd 5f 81 3d 3a 6f e6 bd a4 10 13 3e
       0.029320301 0.063171364 -0.112516835 0.14361817
000100 c7 7a 23 bd 1a b9 83 3d 1f 99 12 be 4c 69 d5 bd
       -0.03991201 0.0643179 -0.14316224 -0.104204744
000110 f3 20 39 3d f7 36 d4 bd 9d 41 c2 3d b6 f4 51 bd
       0.04519744 -0.10362046 0.09485171 -0.051258765
000120 e2 e2 d1 bd 28 95 a4 3c 32 6d b8 ba 58 a5 18 bd
       -0.102483526 0.020090654 -0.0014070629 -0.03726706
000130 e2 1e b1 bd a0 78 f3 bc bf 7e d9 3c 91 bc 98 ba
       -0.086484686 -0.029720604 0.026549695 -0.0011652877
000140 d0 81 2a 3d d0 36 fb bc fb cc c4 bb 15 aa 7d 3c
       0.041627705 -0.030665785 -0.006005881 0.015482445
000150 de d2 7e 3c ed 7b 1c 3e 95 de 11 3b 8d 0d f1 3d
       0.015553204 0.15281649 0.0022257913 0.11770163
000160 73 0d 99 3d 15 45 d7 3b e6 45 24 bc f4 e0 ad bd
       0.07473268 0.0065695145 -0.010026431 -0.08490172
000170 be 3e 9d bd 09 57 14 bd 52 60 c4 bd 59 68 19 bd
       -0.07677983 -0.036215816 -0.09588684 -0.03745303
000180 f3 a8 cc bd 9a d5 32 3d 02 81 e1 bd be e1 04 be
       -0.09993162 0.043660738 -0.110109344 -0.12976739
000190 dd 9d 50 3d ab 44 f1 bb af 42 0a bd ab ba 14 3e
       0.0509318 -0.007362922 -0.033755 0.14524333
0001a0 3f 70 b6 bd bc 74 48 3d 04 d6 a5 bd 32 79 ca 3c
       -0.08908128 0.04893945 -0.08097461 0.024715994
0001b0 c6 a4 b9 bd 2f ef 87 3d 95 56 a1 bd 06 0b 80 bd
       -0.09064631 0.066374175 -0.07877842 -0.062521026
0001c0 06 e7 cb 3c 9f cc 2e 3d be 4e 0c 3c 9b c9 80 3d
       0.024890434 0.04267561 0.0085636955 0.06288453
0001d0 92 07 92 3d 46 b1 67 bc 84 62 4f 3d d6 2e c7 bd
       0.0713035 -0.014141386 0.05063106 -0.0972573
0001e0 56 7a 6f bd 41 90 de 3d d6 29 0b bc da 74 98 bc
       -0.058466278 0.10867358 -0.008493861 -0.018610407
0001f0 2e 6c d8 bd 56 44 9d bc fb 3b f1 3d 4b 55 b8 bd
       -0.10567509 -0.019197624 0.117790185 -0.09000643
000200 73 a6 74 bd e7 a1 d2 bc 3a 0e c6 bd 1b 31 97 3b
       -0.05972905 -0.025711967 -0.09670682 0.004614008
000210 77 40 f6 3c 0c c2 2b 3b e6 a0 7b 3d 64 a8 e8 3d
       0.030060036 0.002620819 0.06143274 0.11360243
000220 b6 35 87 3d b0 cd 55 3d 58 9b 9f bd 20 15 39 bb
       0.066020414 0.052198112 -0.07793301 -0.0028241351
000230 7d 68 00 be 3b c9 a8 bd 16 d8 69 3d 0f be 82 bd
       -0.12539859 -0.08241507 0.05709084 -0.06383907
000240 d3 09 8e bc 30 32 10 bc 45 44 14 bd 78 fb ca 3d
       -0.017338669 -0.008801028 -0.03619792 0.09911245
000250 69 70 6c 3d 0f b5 33 3d 55 0b 31 bd ba 84 ab bb
       0.05772439 0.043873843 -0.043223698 -0.005234328
000260 6c df de 3d 4c c5 b2 bd 11 6b 30 bd 58 01 05 3e
       0.10882458 -0.08729038 -0.043070856 0.12988794
000270 bc ee 4a bd 83 2b 5b 3d 9a 87 20 3d 79 ef 04 3c
       -0.04954408 0.053508293 0.03919182 0.008113735
000280 25 80 0e be 10 87 03 bd 73 1b 75 3c 1b 13 59 3d
       -0.13916071 -0.032111228 0.014960158 0.052996736
000290 18 00 6b 3d c7 40 5d 3d 07 61 35 3c 36 ad fa 3c
       0.057373136 0.054016855 0.011070496 0.030600172
0002a0 10 40 99 3d 3f 02 95 3d e5 0a 48 bd 61 12 52 3d
       0.07482922 0.07275819 -0.048838515 0.05128706
0002b0 97 58 44 3d ba c0 15 3d 9c cd 80 bd ab 18 65 3d
       0.04793605 0.03656075 -0.06289217 0.05593173
0002c0 0d 68 45 3e 41 7a bf 3d 5a 8e 85 3d f9 30 6d 3d
       0.19277973 0.0934949 0.06521292 0.057908032
0002d0 95 32 6e bd b8 ff e5 3d ec 64 25 bd 38 cc 7f bd
       -0.058153708 0.11230415 -0.04037945 -0.062450618
0002e0 75 01 fd bd 60 07 cd 3d ae 55 36 be 11 27 38 bd
       -0.123537935 0.10011172 -0.17806122 -0.04495913
0002f0 ec df 4a bd 50 30 f7 3b f1 e5 95 bd 07 8a 91 bd
       -0.049529955 0.007543601 -0.073192485 -0.07106405
000300 ec 4b 02 be 54 39 88 bd e5 13 da 3d 69 4e 02 be
       -0.12724274 -0.066515595 0.10648326 -0.12725224
000310 a4 cf c0 bc ed a9 fd bd b1 27 10 be b6 3d 0b 3d
       -0.02353651 -0.123859264 -0.14077641 0.0339944
000320 65 39 e7 bd f4 9a f4 3d e1 7a 86 3d e4 83 e2 bd
       -0.11290244 0.119436175 0.06566406 -0.110603124
000330 91 fc ef 3c 9a e7 3e 3b 70 f1 b2 3d 64 95 46 3e
       0.029295238 0.0029129745 0.08737457 0.19392926
000340 30 c2 f7 bd 2f e7 ad bd 3e 46 da 3d f4 d1 72 bd
       -0.12097585 -0.084913604 0.10657929 -0.05928226
000350 ce 4c 94 3b 36 4b 7c 3d d9 a6 bd 3d 77 1b bb 3b
       0.0045257574 0.061595164 0.09260339 0.005710061
000360 86 18 f3 bc ba e1 fd 3d f1 bd 2e 3d f0 71 85 3d
       -0.02967478 0.123965696 0.04266161 0.065158725
000370 81 c2 8a 3c 8d 4d 04 3e d1 29 8c 3d c0 ad 44 bd
       0.01693845 0.12920208 0.06843913 -0.048017263
000380 e0 1a 02 3d fa 7d 7f 3b f4 dd a3 bd 5f 1e ad bd
       0.03176391 0.0038985 -0.080013186 -0.084530585
000390 43 06 c9 bd 9a 11 95 bd 88 92 bf bd 6e 70 33 3d
       -0.098156475 -0.07278748 -0.093541205 0.043808393
0003a0 b2 51 d1 3d 21 9c f3 bb ab 3d 7b 3d f0 1a c7 3d
       0.1022066 -0.0074343835 0.061338108 0.09721935
0003b0 27 04 70 3d 2d 1f 0d bd 5d 48 6d bd 28 f2 3f 3d
       0.05859771 -0.03445356 -0.05793034 0.046861798
0003c0 6f e3 ce 3d d3 25 48 3d 71 a0 12 3d e3 a5 f5 3d
       0.10101973 0.048864197 0.03579754 0.11994531
0003d0 94 29 fc 3d 79 ae c4 bd 02 57 05 bd c6 62 90 3b
       0.12312618 -0.096035905 -0.03255368 0.004406306
0003e0 38 d3 84 3d 34 8b ac 3d a4 92 28 3e 21 69 91 bd
       0.06485599 0.084249884 0.16462189 -0.0710013
0003f0 72 b6 b2 3d 2f dc 0b 3d 08 11 93 3d 26 e1 f2 bd
       0.08726205 0.03414553 0.07180983 -0.1185935

rnn.weight_hh_l0 f4 [32, 32]
000000 10 27 07 3e 9f c2 8a 3c ba 0a 6a 3d 40 87 e1 bd
       0.13198495 0.016938506 0.057139136 -0.11012125
000010 a9 e1 a8 3d b7 af a8 3c 80 8f 23 3d ee b3 2c be
       0.08246166 0.0205916 0.039931774 -0.16865513
000020 77 77 30 be b0 f3 01 3e 15 90 72 3d a2 a9 f9 3d
       -0.17233072 0.12690616 0.05921944 0.12190558
000030 ce 87 dc bd 6a cf 2f 3e c9 fd 05 bd 40 0a 2a be
       -0.1076809 0.17168966 -0.03271273 -0.16605473
000040 65 ec ed 3d 13 ee e5 3c e9 45 fc bc d6 00 3c bd
       0.11617354 0.028067624 -0.030795055 -0.045899235
000050 68 37 80 bc c6 9a 18 be 6f 86 91 3d 01 bc 2a 3e
       -0.01565142 -0.14902791 0.07105719 0.1667328
000060 0b ba 36 be 01 c3 26 3e 61 a7 88 3d 91 18 62 bd
       -0.17844407 0.16285326 0.0667255 -0.05519921
000070 2a 83 f7 bb a9 65 e8 3d a4 74 ca 3d 58 4e e6 bc
       -0.007553478 0.11347515 0.09885529 -0.02811353
000080 1f 7c bb bd fd b5 ed 3d ff f8 fc 3d 38 cd 8a 3d
       -0.091545336 0.11606977 0.1235218 0.067774236
000090 a8 bf 65 bb 83 23 64 3d 92 d7 d3 bd 60 75 42 be
       -0.0035056863 0.05569793 -0.10343851 -0.18990088
0000a0 fd d1 6d 3d a9 1c 81 b9 39 4f 1c 3e 82 e1 a3 bd
       0.05806159 -0.0002462615 0.15264596 -0.080019966
0000b0 62 83 ff 3d bf 7c 5a be a0 e9 74 bd 5b e0 1d bd
       0.12476231 -0.2133665 -0.059793115 -0.03854404
0000c0 54 75 d1 bd f0 e2 b7 bd c9 c9 e5 3d fc 5c 25 3e
       -0.10227457 -0.08978832 0.11220128 0.16148752
0000d0 51 db da 3c cf 79 97 3d 04 cf 16 be ac 8c 0c be
       0.026715906 0.0739628 -0.14727408 -0.13725537
0000e0 32 81 a2 3d c1 6a 17 be 1d f1 f2 bd 10 46 79 3e
       0.07934798 -0.14786817 -0.11862395 0.24343133
0000f0 ab cd 97 bd 66 ee 3c 3d 22 84 c6 bd 20 05 91 3c
       -0.07412275 0.046125792 -0.09693171 0.01770264
000100 e2 44 cd bd 9c 4f a9 3d ac d2 2f 3d 92 54 93 3d
       -0.10022904 0.082671374 0.04292552 0.07193865
000110 1e 13 24 be c5 86 9d bc 69 4b a2 3d fe e2 bc bd
       -0.16022918 -0.019229302 0.079245396 -0.09222983
000120 55 d2 5d bd ca 21 79 bd 6b 0f 9a 3d fc 09 13 3e
       -0.054155666 -0.06082324 0.07522472 0.14359277
000130 ce e7 7b bd 89 22 28 be aa fc cd 3d 1a b4 d0 3d
       -0.061500363 -0.16419424 0.100579575 0.10190602
000140 50 c4 d5 bd 8a 92 b5 3d b8 21 03 3e 00 58 67 3d
       -0.10437834 0.08865841 0.12805831 0.056480408
000150 1d 99 62 3d d2 05 13 3d 05 bd 08 3e e5 37 db bd
       0.0553218 0.035894223 0.13353355 -0.107040204
000160 29 93 01 3e 80 78 a7 bd a4 71 8e 3d ef e7 7c 3b
       0.12653793 -0.081772804 0.06955269 0.0038590392
000170 04 32 40 be e7 7b 92 bc 45 52 d4 3d eb a8 08 be
       -0.1876908 -0.017881347 0.10367254 -0.13345687
000180 62 e9 af 3c 3e 95 66 3c db b5 06 be 61 3e 16 3e
       0.02147359 0.014073668 -0.1315531 0.14672233
000190 aa 99 1b be a4 f8 1f be 02 5d a4 bd ca 1a 8c 3d
       -0.15195337 -0.15622193 -0.08025552 0.06841047
0001a0 85 e9 46 be 38 86 b3 3d a4 1a a3 3d 13 bd de 3d
       -0.19425018 0.087658346 0.07964066 0.10875907
0001b0 6d ea d5 bd d7 33 8d be e8 00 25 bd f5 a8 a5 3c
       -0.10445104 -0.27578613 -0.040284067 0.020222167
0001c0 c3 75 07 3e a2 a0 bb bc 0b ed 19 3e 5f 40 33 be
       0.13228516 -0.022903744 0.15031831 -0.17505024
0001d0 80 6a 3d 3e 4d c7 60 3d 1b 9d 37 be c8 97 3c 3d
       0.18497658 0.054877568 -0.17931025 0.046043187
0001e0 1d e8 aa bd ec f9 73 bd 20 d2 44 3d 68 d2 72 bd
       -0.08345053 -0.059564516 0.048051953 -0.05928269
0001f0 f8 13 e0 bd 9c 55 87 3d 9e 5b 13 3e bb 27 35 be
       -0.10941309 0.066081256 0.14390418 -0.17690937
000200 a2 96 28 3e fc 49 05 3e e5 bb 04 be 69 c9 be bd
       0.16463712 0.13016504 -0.12962301 -0.0931576
000210 68 f1 b9 3c 24 ae 9f bd 3e 4a a0 3d e6 fe de bd
       0.02269812 -0.077968866 0.078266606 -0.10888462
000220 7b b9 db bd 85 3a 00 3e b2 e6 cb bd 1e 93 e9 bd
       -0.10728737 0.12522323 -0.09956111 -0.114050135
000230 b8 a0 47 3e 22 e5 d6 3d e0 72 c5 bd ac 3b 0b be
       0.19494903 0.10492922 -0.09641051 -0.13596982
000240 45 30 b2 bd b5 67 52 3c 93 dd 58 3c 92 7f 7c 3d
       -0.08700613 0.0128421085 0.013236421 0.061645098
000250 bd c6 84 bc 9c 18 bc 3d 53 6d 96 3d aa 1d 51 be
       -0.016208047 0.09184381 0.07345071 -0.20421472
000260 e7 a4 84 bd c7 4b 39 3b b9 af 18 be 49 04 0f 3e
       -0.06476765 0.0028273927 -0.14910783 0.13966478
000270 89 0c 17 be a7 fb b7 bd 23 b4 aa 3d 04 ba bc 3d
       -0.14750876 -0.08983546 0.083351396 0.09215167
000280 f9 c2 a9 bd 53 a9 a8 bd fe 33 d9 bd 34 a1 83 bd
       -0.08289141 -0.08235421 -0.1060562 -0.064272314
000290 1b 22 1e 3d 06 80 39 3d 4b 5a 34 be 82 a2 2a be
       0.038606744 0.04528811 -0.17612569 -0.16663554
0002a0 b6 3f 31 3e 7f 8a 5a 3c 9a 54 d2 bd 93 0d 1b be
       0.1730946 0.013338684 -0.10270043 -0.15141897
0002b0 ba 2a 99 bd 7d 8b f8 3d b5 14 ef bd fd a5 bc 3d
       -0.074788526 0.1213598 -0.116738714 0.09211347
0002c0 eb a6 79 3d ba c8 99 bc 9a bc 6f 3e a9 02 87 bc
       0.0609502 -0.018772472 0.2341179 -0.01648076
0002d0 a6 0c f3 bd a9 48 7d bd e4 01 3c 3d 75 ac bb 3d
       -0.11867647 -0.061836872 0.04590024 0.09163753
0002e0 a8 25 7f 3d fe 6d 0e 3e 12 0e b7 bd 0a f1 74 bd
       0.06229177 0.13909146 -0.089382306 -0.059800185
0002f0 bc 1f 59 bc 64 52 68 3c 4b 4d 65 be b7 b4 b0 3d
       -0.013252195 0.0141798 -0.22392766 0.086282186
000300 d6 81 0c be 5d af a3 3d 3f eb 18 bb 95 81 66 3d
       -0.13721403 0.07992432 -0.0023333577 0.056275923
000310 03 5c 6d bd 7c f6 2d bd 1f e3 0b be cf 74 97 3c
       -0.057949077 -0.042471394 -0.13660859 0.018488316
000320 64 a1 34 be 00 08 fc 3d 3b d5 56 be bb 21 16 3e
       -0.1763969 0.123062134 -0.20979778 0.14661305
000330 7e bb c9 3b b5 62 03 be 04 85 30 bc dd db b6 bd
       0.006156384 -0.12830622 -0.010773901 -0.08928654
000340 08 ff 57 3d be a6 8c 3d 72 82 bf 3d bf 5c b4 3c
       0.05273345 0.06867741 0.09351052 0.022016881
000350 a3 1c 27 be 9e 5d b1 3d d3 c4 d5 3c 61 09 4c 3e
       -0.16319518 0.08660434 0.02609483 0.19925453
000360 65 a2 20 bc e6 7a f1 3c 3b 84 05 3e 24 8c 98 bc
       -0.009804343 0.029477548 0.13038723 -0.018621512
000370 61 6c 3b 3c e3 41 ca 3d f2 bf 96 3d 3a 1a 1a bc
       0.011439414 0.09875848 0.073608294 -0.009405667
000380 ab b6 96 bd 6d 8b f9 bd d5 18 84 bd d0 13 39 be
       -0.0735906 -0.121847965 -0.06450049 -0.18073964
000390 f5 ad 02 3e c4 57 e3 bd c5 4e 44 3d fb 1e 28 be
       0.12761672 -0.11100724 0.047926683 -0.16418068
0003a0 0b 69 fb 3d 9f 14 5c bd 93 9d 03 3e 3a a6 a2 bc
       0.12275895 -0.053730603 0.12853079 -0.019854654
0003b0 fb 7d d3 bd 58 b3 78 bb ba 5a ff bd 1b 2d 44 3e
       -0.10326763 -0.0037948694 -0.124684766 0.19157831
0003c0 be 9a 92 3d eb 02 51 3e 14 b4 78 bb e0 0f 55 3d
       0.07158421 0.2041127 -0.0037949132 0.052017093
0003d0 85 11 29 be 9f 5e f1 3d 82 61 d5 3d bd 95 2c bd
       -0.1651059 0.11785626 0.10418989 -0.04213499
0003e0 00 07 6e 3e 91 e2 a8 bd b6 78 da 3d 39 3b 93 3d
       0.23244858 -0.08246339 0.10667555 0.0718903
0003f0 fe 21 ef 3d 74 06 f1 bd 42 9e bf bd 8f f9 8d bb
       0.11676405 -0.11768809 -0.09356357 -0.004332728

rnn.bias_ih_l0 f4 [32]
000000 57 89 e3 bd 14 59 f4 bc cb d1 3d bd e3 ce 13 be
       -0.1111018 -0.029827632 -0.046342652 -0.1443439
000010 24 2a 5a 3d 39 21 a6 3b 82 1e b4 3b fd 5f 76 bd
       0.053262845 0.0050698784 0.005496801 -0.060150135
000020 be 0b c3 bd 36 9c 3e 3d 52 3d 32 3d b9 7b 50 3d
       -0.09523724 0.046535693 0.04351551 0.05089924
000030 50 1a 6d bd 99 55 fa bd e0 5a 11 3e 33 e3 96 bc
       -0.05788642 -0.12223358 0.14194822 -0.018418884
000040 36 33 a4 bd 1b 3a 5b bd d1 41 e1 3d 7b e7 0c bc
       -0.0801758 -0.05352221 0.109988816 -0.008600111
000050 73 1d 25 bd 0d f1 82 bc 2b fe 83 bd 7c dc 07 be
       -0.040311288 -0.015984083 -0.06444963 -0.13267702
000060 04 c4 eb bd 56 f8 20 bc 48 ab f8 3d 28 7e 56 3d
       -0.115119964 -0.009824833 0.12142044 0.052366406
000070 01 2a 9b bd 1c e0 9d bd 4a 78 e2 37 68 9a 3d 3d
       -0.07576371 -0.07708761 2.6997313e-05 0.04628983

rnn.bias_hh_l0 f4 [32]
000000 0b 28 6d bd 5b f7 2a bd 79 7e 55 bd 02 a6 c6 bd
       -0.057899516 -0.041739803 -0.052122567 -0.09699632
000010 4d e8 bb bd cb ec 5a bd 33 a9 55 bd 54 4d e2 bc
       -0.09175167 -0.05344848 -0.052163314 -0.027624764
000020 da 65 3d 3d 8d ff 92 3d 3c 08 86 bd 21 8b 4d bd
       0.04623971 0.07177649 -0.06544539 -0.05018151
000030 24 bc b2 3c 2d 89 6f 3c 21 06 f9 bd 4b 20 f5 bb
       0.021818228 0.014620108 -0.12159372 -0.0074806563
000040 9f 11 1f 3d b4 7b 0c be e8 b7 83 3d e3 d3 2e 3c
       0.038835164 -0.13719064 0.06431562 0.010670635
000050 b0 fb 43 3d d6 25 e0 bd 21 77 75 bd 7e 40 d5 3d
       0.04784745 -0.10944717 -0.059928063 0.104126915
000060 db 23 3f 3d 05 28 0c bd 5f cd 3a 3a 83 59 3b bd
       0.046665054 -0.034217853 0.00071259396 -0.045739662
000070 53 51 a4 bc 33 5d 12 3d 05 2f bf bc 91 5f dc 3d
       -0.02005831 0.035733413 -0.02333785 0.10760415

fc.weight f4 [10, 32]
000000 2e 5b 0c be 37 eb 01 3d 68 00 55 bd 7c f2 e5 bc
       -0.13706657 0.03171846 -0.05200234 -0.028069727
000010 88 d8 05 3b 70 3d 1f 3e 52 59 02 be a7 6a 0c 3e
       0.0020423252 0.1555078 -0.12729385 0.1371256
000020 b2 47 16 3e 5d b7 ae 3d aa a4 02 be aa f5 de bd
       0.14675787 0.085310675 -0.12758127 -0.108867005
000030 f6 1b ae bd 9a 62 cb bd 71 8b c7 bc 63 76 f9 bd
       -0.08501427 -0.09930916 -0.024358483 -0.121807836
000040 ce c0 95 3d f2 68 cc bd 7e 10 3c bd 4e 03 03 bd
       0.07312165 -0.09980954 -0.045914166 -0.031985573
000050 fb ba 39 3d e1 8f 07 be 35 96 ef bd ec 01 d2 3d
       0.045344334 -0.13238479 -0.116985716 0.10254273
000060 0b 2b 4a bd 32 bd 34 3d f1 84 04 3e 89 fe 25 be
       -0.049357455 0.044125743 0.12941338 -0.16210379
000070 da 0f dd bd fe 61 08 3d 9e bc 1d 3c c2 da 68 bd
       -0.10794039 0.033296578 0.009627489 -0.05684925
000080 8d f3 40 3d cd 21 b5 3d 28 21 93 bd 17 5a 80 bc
       0.047107268 0.088443376 -0.071840584 -0.015667958
000090 22 f5 e8 3d 63 d9 05 3d af 34 6f 3d 9f 87 06 be
       0.113748804 0.03267802 0.058399852 -0.13137673
0000a0 93 38 06 3e b0 b6 63 3d 3d 99 1b be 41 50 59 3c
       0.13107519 0.055594146 -0.15195175 0.013263763
0000b0 d5 4f 17 3d c6 f9 c8 bd c0 b9 65 3d 7c 25 de bd
       0.036941368 -0.098132655 0.056085348 -0.10846993
0000c0 a3 04 1c be ec 64 05 3e 93 d2 ab 3d d3 84 89 3d
       -0.15236144 0.1302678 0.08389773 0.06714787
0000d0 7d 1a df bc b9 c2 37 3e eb 4e e5 bd 73 44 16 3e
       -0.02723431 0.17945375 -0.11196693 0.14674549
0000e0 3e 42 a7 3d b1 10 a4 3c 88 f1 2c bd eb a0 d2 3c
       0.081669316 0.02002749 -0.04222253 0.025711497
0000f0 f9 f4 9b bc 27 2d 67 ba 26 ed 61 bd 72 b6 3d 3c
       -0.01903771 -0.0008818679 -0.055157803 0.011579143
000100 77 80 2e 3e ad a0 81 bc c6 9a d6 3c 36 d9 11 3e
       0.17041193 -0.015823686 0.026196849 0.14243016
000110 67 13 01 3d f1 4a 3f bd 77 25 b5 bc 68 6f 0a 3e
       0.031512644 -0.04670233 -0.022112591 0.1351906
000120 f3 98 56 3d 7f 3e b1 3c b5 e6 d7 bd bb 53 20 3c
       0.052391957 0.021636246 -0.10542051 0.009785588
000130 ff 20 03 3d 5f 28 ec 3d 59 57 85 bb e9 e5 d8 3d
       0.03201389 0.11531138 -0.0040692505 0.10590727
000140 d2 8e 18 3e e8 16 fe 3d 96 80 a6 3d 85 63 60 3d
       0.14898232 0.12406713 0.081299946 0.05478241
000150 88 6e 1e 3d b7 47 14 3e d7 9c 15 3d af 90 bd bd
       0.03867963 0.14480482 0.036526527 -0.09256112
000160 72 7a 25 3e 2b 0c 2f 3e e8 34 0a be 61 6c d8 bd
       0.1615999 0.17094485 -0.13496745 -0.10567547
000170 ec c2 13 bd 07 71 f6 3c 45 df 67 3c 21 61 ff 3b
       -0.036074564 0.030083193 0.014152353 0.007793561
000180 2d 2f 24 bd 27 2c 21 be f1 2c 02 bd 7c 41 f1 bd
       -0.040084053 -0.15739499 -0.03178114 -0.11780068
000190 ca 0b a8 bd a2 b8 ac bc c8 de 19 bd 04 0e ee bd
       -0.082053736 -0.021084134 -0.037565976 -0.11623767
0001a0 d7 b2 b6 bd b0 15 87 3d 78 73 52 3c aa f1 16 bd
       -0.0892083 0.065959334 0.012844913 -0.036851563
0001b0 76 0a 91 3d 81 38 69 3c d2 c7 2d 3d 85 d5 58 3c
       0.070820734 0.014234663 0.04242689 0.013234501
0001c0 cf 36 b2 bd e2 98 17 be 08 7f be 3d 2e 69 f9 3c
       -0.0870186 -0.14804414 0.09301573 0.030445661
0001d0 b0 23 9a 3d e9 3a ae 3d 45 aa 51 bd e7 0f 44 bd
       0.07526338 0.0850733 -0.051187772 -0.04786673
0001e0 10 51 8d 3e fe 80 4d be 25 95 fa 3d aa d9 a7 3d
       0.27600908 -0.20068738 0.12235478 0.08195813
0001f0 20 67 7a bd 9b fb ec bc ca 9a f2 3d d5 e4 2a be
       -0.061133504 -0.028928569 0.1184593 -0.16688855
000200 b4 13 b5 3c e8 22 51 be f4 fe 86 3d f8 58 f6 bd
       0.022104122 -0.20423472 0.06591597 -0.12028688
000210 29 56 ee bd 77 cd 48 3d 8f e7 0b 3d 6c 0b 4e bd
       -0.116375275 0.04902407 0.03415638 -0.05030386
000220 c6 58 2f bd dd 8a 64 3d 0e 39 0d bd 2a 7a 8f bd
       -0.04280927 0.055796493 -0.03447824 -0.07005723
000230 23 5e d0 3d e8 23 1e be fb 23 3e bd 1f dc 50 3e
       0.10174205 -0.15443385 -0.046421032 0.2039647
000240 dc cf 7b 3d 58 fe 08 be 73 65 4b bd 95 88 ff 3d
       0.061477527 -0.13378274 -0.049657296 0.12477223
000250 a9 5d 45 3e 2d d8 b7 3d 03 6f 2e 3d e8 54 bd ba
       0.1927401 0.08976779 0.042586338 -0.001444486
000260 f4 45 64 3e c3 44 01 be 57 5b 93 3d 70 bb 94 3d
       0.2229231 -0.12623887 0.07195156 0.07262313
000270 12 21 46 be 55 90 08 bc b6 a9 30 3e 9a 31 ae 3c
       -0.19348553 -0.008335193 0.1725224 0.021263886
000280 b5 bc 29 3e 65 0d 27 bc 69 20 8a bc 37 f3 ce 3d
       0.16575892 -0.010196065 -0.016861157 0.10104983
000290 c9 1f c5 3d 91 14 59 3e 3a 82 23 be 73 7a 1c 3e
       0.09625203 0.21199252 -0.15967646 0.15281086
0002a0 08 11 7c bd e3 3d 4a be c0 31 0d bd 7b b3 f5 bc
       -0.06153968 -0.1975017 -0.034471273 -0.02999281
0002b0 c8 c1 d3 bd 86 79 95 3d f0 9a 39 3c 97 4a 3a 3d
       -0.10339695 0.072985694 0.011328444 0.04548129
0002c0 9b 6e 0d be 53 aa 14 3e af 2d 22 be 2b 47 2f 3d
       -0.13811724 0.14518099 -0.1583774 0.04279248
0002d0 c6 5c f2 bd 81 1b 05 bc cd ce 1a 3c e6 2b a0 bd
       -0.118341014 -0.008124233 0.009448719 -0.07820873
0002e0 15 90 02 3d 6b 02 f9 bd ff 46 4e be b8 37 86 bd
       0.03187569 -0.12158664 -0.2014427 -0.06553596
0002f0 5b 86 be bc c7 d8 42 bd 4f 7d 5b 3d bb 5b 1c 3e
       -0.023257425 -0.047570016 0.0535863 0.15269367
000300 15 02 2d 3c da 25 b2 3d 5c cc 85 3c 81 66 04 bc
       0.010559578 0.08698626 0.016332798 -0.008081079
000310 7b 4a fa bc 41 33 50 be a8 e1 c4 3d 5c 25 b2 bd
       -0.030553093 -0.20332052 0.09613353 -0.08698532
000320 0c 03 3d bd 4a df 1f be 45 f8 a1 bd f8 bf 0c 3e
       -0.046145484 -0.15612522 -0.07908682 0.13745105
000330 a8 57 d0 3d d1 e9 ab 3d ae 09 9c bd 58 79 3f 3e
       0.10172969 0.08394206 -0.07619034 0.18698633
000340 c1 05 18 3d 24 14 9c bd 34 8b c8 bb d1 0f ec 3d
       0.037114862 -0.07621029 -0.00612011 0.11526454
000350 e9 cf e0 3d b9 dc cf 3d a4 92 e9 3d ed 48 a2 bd
       0.10977156 0.101495214 0.114049226 -0.07924066
000360 22 b2 6c 3d 07 95 d9 bd fb a7 22 3e ee f3 0a 3e
       0.05778707 -0.10624128 0.15884392 0.13569614
000370 cd 19 88 bd fe 81 34 3c ef 40 15 be e9 96 60 3d
       -0.06645546 0.011017321 -0.14575551 0.05483142
000380 09 af 06 be 86 76 e1 3d 70 14 8f 3d 0b 9c 2e 3e
       -0.13152708 0.11008935 0.0698632 0.17051713
000390 ce ab 09 bd 36 be 30 3d 79 31 40 bd 83 96 f7 bc
       -0.03361111 0.04315015 -0.04692218 -0.030223137
0003a0 02 bc c7 bd 82 08 5b 3d e1 ca 27 be 19 ba bd bc
       -0.097526565 0.05347491 -0.16385986 -0.023160027
0003b0 b6 be 28 bd 8a cd 39 bd b5 92 eb bd 59 fc 03 3e
       -0.0411975 -0.045362033 -0.115025915 0.12889232
0003c0 0e 42 d1 bc be fb 1c bb 2e 05 24 bd 3d 90 80 bd
       -0.025544193 -0.002395376 -0.040044002 -0.06277511
0003d0 66 ba b7 bd d3 db 95 3d 69 27 ce bd 51 8e 86 3e
       -0.089710996 0.07317319 -0.10066111 0.26280454
0003e0 3f 13 18 3d b4 e5 e9 bd 75 60 a6 3d 1c 33 31 bd
       0.03712773 -0.114207655 0.081238665 -0.043261632
0003f0 f7 7b 01 3d fb d3 46 bd 29 85 71 3c f4 fb 11 3d
       0.031612363 -0.048542004 0.0147412205 0.03564067

fc.bias f4 [10]
000000 a2 1a e8 bd 94 a1 e8 bc b6 33 b2 3d 10 92 01 be
       -0.11333205 -0.028397359 0.08701269 -0.12653375
000010 ad d9 b4 bd c9 c6 d4 3d d6 dd 52 bd c7 a4 73 bd
       -0.08830581 0.10389478 -0.05148109 -0.059483316
000020 1e e9 bb ba 22 83 1b 3c
       -0.0014336442 0.009491714

exp_avg f4 [32, 10]
000000 91 a3 7a ba f0 00 45 ba eb 66 07 3a 2c 15 20 b8
       -0.00095611165 -0.00075150933 0.0005165177 -3.816669e-05
000010 16 7a bd b7 fb d4 8f 39 90 bb 0e 3a f9 24 26 ba
       -2.2587406e-05 0.00027433768 0.0005444819 -0.0006337907
000020 e8 87 ca b9 30 5e e6 b9 6b 4e ca 3a f4 0f 8d 3a
       -0.000386297 -0.00043939194 0.0015434747 0.0010762201
000030 31 75 8a ba e0 9c 6f 38 36 c7 6d b8 95 93 d9 b9
       -0.001056349 5.712814e-05 -5.6690733e-05 -0.00041499423
000040 44 2d 60 ba e1 2f 8b 3a ae e6 36 3a c7 0b 45 3a
       -0.0008551667 0.0010619127 0.0006977123 0.00075167086
000050 f5 51 22 3a ef ff fb 39 bb 7d a8 b9 19 71 11 39
       0.0006192022 0.00048065136 -0.00032137134 0.0001387041
000060 37 c7 2d 39 f6 58 2b b9 92 1d 73 b9 89 a6 0f 3a
       0.00016572779 -0.00016340971 -0.00023185302 0.0005479833
000070 c6 94 ad 39 ab b8 f8 39 4e 6a 1b b9 30 f6 03 39
       0.00033107976 0.00047439834 -0.00014821553 0.00012584846
000080 cb 52 b7 b7 e0 89 b9 38 35 a1 5b 39 4b 02 90 38
       -2.1853853e-05 8.847169e-05 0.00020945522 6.866882e-05
000090 9a c3 d7 38 b1 db b2 38 6f 4d 2e 38 0e 4d 40 39
       0.000102884325 8.528622e-05 4.155695e-05 0.00018339252
0000a0 b9 00 f9 39 3d 3c 29 37 df 41 d7 b9 e9 4a f5 b8
       0.0004749352 1.008721e-05 -0.00041057073 -0.000116964635
0000b0 c7 fd c8 b9 c6 92 98 b9 97 30 f8 b9 ff bb ab b7
       -0.00038336052 -0.00029101054 -0.00047338448 -2.0472331e-05
0000c0 af f6 b3 38 23 bb 1f b9 76 ec 43 38 13 34 c6 b8
       8.5813335e-05 -0.00015233135 4.6711844e-05 -9.451075e-05
0000d0 0d 5e 9b b8 f9 48 10 b8 85 ac 4f b9 37 e7 b5 b7
       -7.408494e-05 -3.4400236e-05 -0.00019805327 -2.168455e-05
0000e0 98 41 3b b8 e0 7b f6 b8 9b 37 38 b6 2c 75 29 b9
       -4.4645363e-05 -0.000117532676 -2.7450503e-06 -0.00016160746
0000f0 c6 6a a2 ba c1 79 07 ba 79 c9 4e 3a f2 ea 48 38
       -0.001239144 -0.0005167984 0.0007888298 4.7902526e-05
000100 e3 5e 26 3a 79 1b 19 3a bd eb 72 3a 05 1f 0f ba
       0.00063465367 0.00058405806 0.0009266695 -0.00054596394
000110 5a a9 c5 b9 dc fc 07 b9 7f a6 90 3a 59 eb ee 39
       -0.00037700945 -0.00012968801 0.0011035948 0.00045570245
000120 b3 69 43 ba 0e 20 94 38 f5 3e 06 ba 9b 8b db b9
       -0.000745441 7.0631606e-05 -0.00051210757 -0.0004187495
000130 7d 54 52 ba f1 fe 02 3a ea 8d df 39 90 89 4e 39
       -0.0008023454 0.00049970957 0.0004263961 0.00019696937
000140 c2 96 bd 38 08 52 fb 37 4e 50 6e b8 bd 2f ef 37
       9.040303e-05 2.995973e-05 -5.681841e-05 2.851325e-05
000150 e9 7d 8d 38 d6 bf 1e b8 1b bb 4d 37 a8 5d fb 38
       6.7468565e-05 -3.7848797e-05 1.2262516e-05 0.000119860575
000160 ba 33 67 b8 db 71 27 b8 b7 1e d7 b7 91 48 45 b9
       -5.5122866e-05 -3.992194e-05 -2.56443e-05 -0.00018814417
000170 4e 64 63 38 75 18 a8 b8 76 3c 37 b9 0a 06 b9 b8
       5.4214433e-05 -8.01542e-05 -0.00017474763 -8.822612e-05
000180 f8 43 f9 b8 08 be ec b8 2a 4b ec b8 a2 ff 95 b9
       -0.000118859054 -0.00011288753 -0.00011267357 -0.00028609956
000190 03 69 ea b9 6f d6 bd b8 d0 2c a0 39 5b 81 a3 38
       -0.00044710198 -9.052164e-05 0.00030550966 7.79654e-05
0001a0 ad 93 88 39 c3 26 89 39 9c b9 d5 39 32 18 1e b8
       0.00026049968 0.00026159556 0.00040764816 -3.769267e-05
0001b0 71 97 80 b8 f4 c7 f3 38 ef 14 31 b7 28 ac 85 37
       -6.131724e-05 0.00011624387 -1.0554896e-05 1.5935002e-05
0001c0 b5 ac a0 b7 8b 7f 8d b6 f2 5b 0e b8 5a 5d c0 37
       -1.915391e-05 -4.2169754e-06 -3.394107e-05 2.2931654e-05
0001d0 05 7c 23 38 b8 c5 9c 38 8f f8 3c 37 4b be b7 38
       3.897773e-05 7.475488e-05 1.1263545e-05 8.761565e-05
0001e0 8b 82 e2 ba 13 11 50 ba f2 b9 94 3a e1 28 e3 38
       -0.0017281336 -0.00079371146 0.001134692 0.00010831818
0001f0 bc ae 1b 3a bd fd 50 3a 3e 35 a7 3a e0 87 46 ba
       0.0005938818 0.000797238 0.0012756956 -0.00075733475
000200 02 9b 18 ba b6 5a 97 b9 ed 06 90 b9 2c 94 27 ba
       -0.0005821438 -0.0002886855 -0.0002747098 -0.0006392624
000210 5a 41 3b 38 cb 58 33 b9 d5 49 23 ba fc 3b 57 b9
       4.4645138e-05 -0.00017103848 -0.00062289584 -0.00020526344
000220 d3 98 82 b9 c7 28 3d ba b4 da cf b9 17 9e 2f ba
       -0.00024909395 -0.0007215854 -0.00039645063 -0.00066992774
000230 b8 00 c6 39 d6 7e 6b 38 86 f1 85 b9 86 f4 ef b7
       0.00037766038 5.614649e-05 -0.00025547686 -2.8604885e-05
000240 f7 a7 48 b9 f4 16 0d b9 b0 3b 75 b9 ce 67 47 39
       -0.00019136058 -0.00013455359 -0.00023387256 0.00019016789
000250 af 6a 17 39 13 2f bb 38 6c 89 b8 ba 12 32 d5 b9
       0.00014440225 8.925623e-05 -0.0014079041 -0.0004066383
000260 55 5b 74 3a 32 90 09 39 09 6b 43 3a 30 de 10 3a
       0.0009321471 0.00013119055 0.0007454609 0.00055262726
000270 95 f9 85 3a 2d d2 11 ba c3 68 a7 b9 b6 d7 fa b8
       0.0010221476 -0.00055626297 -0.00031930776 -0.00011961108
000280 60 56 9c b9 45 54 82 b8 cb d7 17 39 ca e4 ad 38
       -0.00029818993 -6.2145795e-05 0.00014480871 8.291898e-05
000290 48 7e ba 38 85 c4 1b 37 b6 e3 98 38 73 e2 36 b9
       8.892693e-05 9.284476e-06 7.290339e-05 -0.00017441231
0002a0 e9 76 a5 b8 15 d2 f3 b8 f6 3e bb 38 85 f9 ca 39
       -7.889962e-05 -0.00011626274 8.928582e-05 0.0003871435
0002b0 20 33 38 b9 17 03 2b 39 08 c1 be 39 00 cc 99 38
       -0.00017566653 0.00016308982 0.00036383444 7.3336065e-05
0002c0 45 2f e1 38 7a e0 06 3a a0 7b 9e 39 e4 83 00 3a
       0.00010737641 0.0005145144 0.00030228216 0.0004902466
0002d0 89 82 84 ba e1 8d e6 b9 e2 40 23 3a a9 05 a3 38
       -0.0010109703 -0.00043974727 0.0006227625 7.7735e-05
0002e0 db ed cd 39 f5 d9 c2 39 2c 20 38 3a cf a5 db b9
       0.00039277863 0.00037164954 0.0007023837 -0.00041894472
0002f0 49 a3 b5 b9 49 f8 40 b9 7f db 80 ba 93 68 1e b9
       -0.00034644667 -0.0001840304 -0.000983104 -0.00015107011
000300 42 0a 33 3a bc 11 2a 39 0d d8 58 3a 25 78 00 3a
       0.00068298366 0.0001621907 0.000827194 0.00049007154
000310 1f 12 82 3a ab 46 06 b9 20 14 3e b9 fc f3 3b 39
       0.0009923613 -0.00012805562 -0.00018127309 0.00017924601
000320 0c 59 00 ba 7f c0 68 b7 fd 50 d7 39 07 48 12 39
       -0.00048960815 -1.3873097e-05 0.00041068337 0.00013950477
000330 49 58 1c 3a 15 a8 ce 39 70 1b 1e 3a 02 15 4c 38
       0.0005964083 0.00039416613 0.000603131 4.8656955e-05
000340 c4 a4 88 b8 ae c1 65 39 0c ed 97 b8 5e c6 31 b9
       -6.515675e-05 0.00021911293 -7.2443945e-05 -0.00016953933
000350 c1 48 5e 38 e7 b7 11 b8 bf 06 01 b9 3f 22 23 b7
       5.2996682e-05 -3.4741966e-05 -0.00012304912 -9.723531e-06
000360 51 40 80 b8 0c 73 08 b8 a7 73 44 b8 31 7c 46 b8
       -6.1154955e-05 -3.2532073e-05 -4.683775e-05 -4.732254e-05
000370 26 5a 80 ba f5 92 0d ba 1a b7 19 3a b6 e5 46 37
       -0.0009792491 -0.00054006214 0.0005863771 1.1855203e-05
000380 7c 4b de 38 a1 e0 a4 39 d3 5b 02 3a f0 b1 23 ba
       0.00010599845 0.0003144788 0.00049727893 -0.00062444713
000390 dc 7c 9e b9 a8 7d c9 b9 f6 bb a4 3a 58 45 1b 3a
       -0.00030229136 -0.0003843133 0.0012568224 0.0005923114
0003a0 84 d3 53 ba 80 25 a8 b8 21 4e fb b9 06 59 02 ba
       -0.00080805295 -8.017849e-05 -0.0004793266 -0.0004972372
0003b0 97 fb 63 ba 47 8d 18 3a 98 d4 b6 39 a8 cb 96 39
       -0.00086968526 0.0005819392 0.0003487214 0.00028761965
0003c0 f6 b4 4d bb 21 67 b8 ba 87 68 08 3b f7 02 39 39
       -0.0031388379 -0.0014068821 0.0020814256 0.0001764408
0003d0 1f 6b ba 3a 64 89 ac 3a 45 83 1c 3b da 49 bd ba
       0.0014222598 0.0013163504 0.0023881954 -0.0014441565
0003e0 a2 8b 7e ba a9 0d f7 b9 b8 34 8f 3a 3e 1c 41 39
       -0.0009710138 -0.0004712169 0.0010925746 0.00018416435
0003f0 55 01 50 ba 58 7b 7b b8 cf bd 42 ba a1 c9 36 ba
       -0.0007934769 -5.9957936e-05 -0.00074287964 -0.0006972794

exp_avg_sq f4 [32, 10]
000000 a5 8c 11 37 f4 8e 08 37 98 98 12 37 cd 01 08 37
       8.67542e-06 8.139516e-06 8.737807e-06 8.106651e-06
000010 4e 9a 07 37 e4 26 30 37 5a b6 24 37 8c d5 32 37
       8.082554e-06 1.0499472e-05 9.817619e-06 1.0659347e-05
000020 56 39 10 37 8f 3b 05 37 1f b7 bd 37 ea c8 a7 37
       8.596418e-06 7.941285e-06 2.2615828e-05 2.000151e-05
000030 d8 bc a8 37 a9 eb af 37 c4 14 ac 37 46 f2 cb 37
       2.0115098e-05 2.0971363e-05 2.0513668e-05 2.4312303e-05
000040 ad 5e bd 37 d2 3e d3 37 8a 03 ad 37 c7 73 9d 37
       2.2574643e-05 2.5182413e-05 2.0624855e-05 1.8769771e-05
000050 5f 7b bb 36 24 9c a4 36 4b 87 af 36 aa 98 af 36
       5.5873966e-06 4.905758e-06 5.2311566e-06 5.233179e-06
000060 b2 5a b3 36 ac 7b c9 36 2e bc c8 36 1e a8 ca 36
       5.345174e-06 6.004664e-06 5.9823715e-06 6.0396405e-06
000070 88 a3 b0 36 7e 17 ac 36 d7 8f 7f 35 e3 a4 7f 35
       5.2642463e-06 5.1287343e-06 9.5204217e-07 9.5234844e-07
000080 73 cc 6a 35 7c 5a 79 35 d6 e7 6e 35 b1 ea 64 35
       8.7469306e-07 9.28914e-07 8.8999275e-07 8.527814e-07
000090 94 9c 6c 35 ee da 7c 35 10 7b 68 35 1d 85 70 35
       8.81447e-07 9.41959e-07 8.6605814e-07 8.960067e-07
0000a0 d0 ed 90 36 d3 08 80 36 3f a9 65 36 78 ef 88 36
       4.3192194e-06 3.8157245e-06 3.4222173e-06 4.0809937e-06
0000b0 75 82 75 36 0d f5 88 36 d8 3c 7f 36 2a 1f 77 36
       3.658378e-06 4.0816435e-06 3.8033377e-06 3.6824008e-06
0000c0 b8 01 8f 36 8b 12 83 36 bd 37 3e 35 a3 0b 47 35
       4.261932e-06 3.906263e-06 7.0861626e-07 7.415021e-07
0000d0 81 87 37 35 3d 7f 3a 35 30 3f 39 35 d6 cd 3f 35
       6.8369997e-07 6.9475556e-07 6.900982e-07 7.1452575e-07
0000e0 0a 00 3c 35 a2 e7 4b 35 25 81 46 35 da 7c 32 35
       7.0035514e-07 7.5960463e-07 7.394868e-07 6.649185e-07
0000f0 6e eb 53 37 21 16 2d 37 ba 7e 1a 37 78 77 36 37
       1.2631395e-05 1.0316756e-05 9.208621e-06 1.0875861e-05
000100 78 40 31 37 e4 0f 50 37 4d 9d 3e 37 8d dc 4f 37
       1.0565032e-05 1.2401466e-05 1.1361507e-05 1.2389512e-05
000110 af 03 4b 37 f9 e3 22 37 34 c4 19 37 d6 6e f2 36
       1.21006005e-05 9.7090315e-06 9.165193e-06 7.225065e-06
000120 db ff d5 36 96 ea 04 37 8d 4f fe 36 51 a0 13 37
       6.37768e-06 7.922432e-06 7.579051e-06 8.799209e-06
000130 10 ef 10 37 15 e8 17 37 1b 0d 13 37 e3 94 ec 36
       8.63873e-06 9.054337e-06 8.764934e-06 7.050681e-06
000140 97 ad 82 33 3d d1 7b 33 d3 99 63 33 2a bc 69 33
       6.0851725e-08 5.8630793e-08 5.299246e-08 5.4420674e-08
000150 ee 76 54 33 ce d7 67 33 74 f6 67 33 83 b4 6d 33
       4.9468262e-08 5.3980152e-08 5.4008026e-08 5.5345037e-08
000160 a6 71 7f 33 59 e8 5d 33 c9 44 9c 35 75 3d 9e 35
       5.9475177e-08 5.166689e-08 1.1642925e-06 1.1789804e-06
000170 3e 5c 95 35 42 9f 99 35 33 4e 9e 35 1e 9a 97 35
       1.1128211e-06 1.1445738e-06 1.1794676e-06 1.1295231e-06
000180 28 ea 9e 35 64 2f 94 35 aa 16 a0 35 67 58 9f 35
       1.1840066e-06 1.1040652e-06 1.1927525e-06 1.1872152e-06
000190 66 6c 2b 36 f2 29 0d 36 89 c2 fc 35 38 e7 23 36
       2.5544082e-06 2.1035053e-06 1.883208e-06 2.442348e-06
0001a0 c7 2e 10 36 46 99 21 36 38 20 15 36 ed 2b 1a 36
       2.14849e-06 2.4080086e-06 2.2221484e-06 2.2973356e-06
0001b0 bf ae 22 36 57 87 19 36 8a 28 b5 33 69 b8 b0 33
       2.4241597e-06 2.2877555e-06 8.435843e-08 8.229183e-08
0001c0 08 1f b4 33 54 84 b6 33 d9 f9 ad 33 e5 73 a9 33
       8.387548e-08 8.499106e-08 8.101387e-08 7.890757e-08
0001d0 9b 37 c1 33 19 e0 b6 33 05 22 b5 33 79 2b b4 33
       8.9973774e-08 8.5157986e-08 8.4346574e-08 8.389811e-08
0001e0 3b 6b cc 37 6e 21 a5 37 a4 01 a1 37 4b 24 ba 37
       2.4368628e-05 1.96851e-05 1.919346e-05 2.2189828e-05
0001f0 8c 92 a9 37 19 51 d8 37 ef 71 c6 37 23 41 d3 37
       2.0214611e-05 2.578697e-05 2.3656494e-05 2.5183492e-05
000200 59 e3 c1 37 0f cb a6 37 9b 50 77 37 df 6c 7e 37
       2.311326e-05 1.9883299e-05 1.4741115e-05 1.5164928e-05
000210 9a 07 78 37 e2 17 83 37 b7 a4 82 37 ee fb 81 37
       1.4783722e-05 1.5627538e-05 1.5573909e-05 1.5495312e-05
000220 b3 2f 83 37 5a 2a 84 37 2b c5 78 37 e5 9c 81 37
       1.5638629e-05 1.5755348e-05 1.4827859e-05 1.5451058e-05
000230 f0 d8 30 35 27 0b 1a 35 31 9d 05 35 c1 4f 1f 35
       6.5880795e-07 5.73857e-07 4.9775105e-07 5.9348173e-07
000240 4b 36 15 35 a1 e4 2c 35 ee 0f 3e 35 f3 22 3d 35
       5.558583e-07 6.440769e-07 7.0803696e-07 7.0458844e-07
000250 5c 91 44 35 55 43 04 35 0f 9d 77 37 e4 79 4e 37
       7.3227216e-07 4.9271813e-07 1.4758915e-05 1.2306937e-05
000260 72 ed 31 37 05 26 52 37 0c 36 48 37 65 2f 6a 37
       1.0605307e-05 1.25258275e-05 1.1933513e-05 1.3958522e-05
000270 36 2c 5e 37 92 77 66 37 78 f2 74 37 a9 79 44 37
       1.3242525e-05 1.3736908e-05 1.45999875e-05 1.1710837e-05
000280 aa 49 c7 34 01 ed b6 34 77 63 b4 34 02 5d c1 34
       3.7120236e-07 3.4072585e-07 3.3599983e-07 3.6016723e-07
000290 ee d8 ba 34 c0 09 d5 34 a6 5d d2 34 5b a4 ef 34
       3.4803037e-07 3.9681436e-07 3.9183686e-07 4.4636803e-07
0002a0 fc 92 c3 34 a2 92 b3 34 1d 87 aa 36 2a 8e b4 36
       3.6428526e-07 3.3448038e-07 5.082124e-06 5.380968e-06
0002b0 79 61 b3 36 38 21 b5 36 76 99 a6 36 f2 61 b8 36
       5.345963e-06 5.3980875e-06 4.9650507e-06 5.4950297e-06
0002c0 75 86 be 36 f8 3d c0 36 4b a8 b3 36 f8 d4 b2 36
       5.678094e-06 5.72926e-06 5.3542076e-06 5.329606e-06
0002d0 a0 2e fb 36 9e b5 bd 36 16 6b bd 36 e4 22 de 36
       7.485811e-06 5.653782e-06 5.6451054e-06 6.6201774e-06
0002e0 0b bd d0 36 96 36 e9 36 a7 cc e6 36 c8 e9 f6 36
       6.2208906e-06 6.9502958e-06 6.878359e-06 7.358587e-06
0002f0 9e f3 ef 36 05 1b c5 36 87 b5 51 37 b0 fe 31 37
       7.151116e-06 5.874203e-06 1.2499636e-05 1.0609321e-05
000300 83 6c 16 37 b7 a5 3b 37 54 2d 30 37 5d b6 43 37
       8.965962e-06 1.1184652e-05 1.0500971e-05 1.16653655e-05
000310 4c 72 40 37 09 a3 37 37 a1 6c 4c 37 e8 70 33 37
       1.1470704e-05 1.094561e-05 1.218464e-05 1.0695519e-05
000320 36 fa e4 36 1c 9d c7 36 80 de b4 36 98 61 d2 36
       6.824058e-06 5.948952e-06 5.3903204e-06 6.269849e-06
000330 d8 34 ce 36 f1 ef d8 36 32 55 d1 36 ee 4a c2 36
       6.1454302e-06 6.4652345e-06 6.2386034e-06 5.7903735e-06
000340 d6 06 e2 36 15 9f ca 36 58 2c 20 34 4f b2 08 34
       6.7361207e-06 6.0385887e-06 1.4917293e-07 1.2730855e-07
000350 bb b0 fc 33 79 9b 00 34 d3 69 0a 34 b8 98 04 34
       1.17668115e-07 1.197749e-07 1.289075e-07 1.2349017e-07
000360 85 73 fe 33 c9 f8 0c 34 62 05 12 34 9e b3 07 34
       1.18488096e-07 1.3129024e-07 1.3599268e-07 1.2638199e-07
000370 b9 c4 e0 36 29 16 c5 36 18 f3 c1 36 ad 18 c3 36
       6.6986217e-06 5.8736373e-06 5.780148e-06 5.8143255e-06
000380 13 0e ca 36 e3 5f ee 36 2a 53 d5 36 8c 6e ec 36
       6.0217076e-06 7.1041154e-06 6.3575762e-06 7.0462174e-06
000390 f9 4d c6 36 b2 d4 ad 36 ef a6 4a 37 8d 08 2e 37
       5.909937e-06 5.1805628e-06 1.20790055e-05 1.0373199e-05
0003a0 19 7d 20 37 dc 99 3f 37 ca 36 31 37 e8 01 59 37
       9.56587e-06 1.142031e-05 1.0562779e-05 1.2934652e-05
0003b0 6d 1e 49 37 31 26 54 37 9a 11 41 37 50 53 27 37
       1.1987618e-05 1.2645077e-05 1.1507795e-05 9.973373e-06
0003c0 58 49 a4 38 37 63 8a 38 40 b0 7d 38 44 56 97 38
       7.833791e-05 6.598833e-05 6.0484046e-05 7.216309e-05
0003d0 3b 71 8f 38 71 6f aa 38 28 db 9e 38 ff 5c a6 38
       6.839862e-05 8.126989e-05 7.574848e-05 7.932819e-05
0003e0 28 3b 9f 38 5c bf 86 38 86 6f 78 37 31 0b 4e 37
       7.5927295e-05 6.4252614e-05 1.4807918e-05 1.22811625e-05
0003f0 c1 12 3c 37 8a c0 67 37 30 04 56 37 d1 c9 65 37
       1.121004e-05 1.3813502e-05 1.2756369e-05 1.3696453e-05

exp_avg f4 [32, 32]
000000 3a 93 5c 39 72 28 f3 37 92 28 8e 39 15 c0 de 39
       0.00021035681 2.8986691e-05 0.00027114578 0.00042486252
000010 a0 7c 9d 39 7e 27 2b b7 29 66 81 38 1a ec c9 39
       0.00030038226 -1.0201589e-05 6.170228e-05 0.00038513617
000020 33 53 31 b8 38 3e 83 b7 47 64 15 38 4e 4a 0e 38
       -4.2277574e-05 -1.564539e-05 3.561776e-05 3.392464e-05
000030 38 99 33 b9 13 c5 91 37 65 10 2b b8 3a af dd b8
       -0.00017127849 1.7377117e-05 -4.0784846e-05 -0.0001057074
000040 95 d3 22 b9 74 31 6b 39 67 9d f9 b8 8a 7a 0d b8
       -0.00015528344 0.00022429769 -0.00011902564 -3.3731143e-05
000050 6a d0 f6 b8 90 85 84 38 07 45 5c 38 4e 20 4e b8
       -0.00011769014 6.3191284e-05 5.2516374e-05 -4.9144313e-05
000060 a3 9b f3 b8 6c e3 11 39 f3 05 b5 b9 2a 99 60 b7
       -0.000116161325 0.00013912999 -0.00034527443 -1.3387102e-05
000070 b0 69 2b 39 5e de 90 39 b3 ba 0b 38 1a 14 61 39
       0.00016347202 0.00027631497 3.331406e-05 0.0002146516
000080 eb c8 84 b9 cf 98 a8 b8 d0 c1 ed b9 a2 5a 2e ba
       -0.00025326698 -8.039327e-05 -0.00045348564 -0.00066510786
000090 d6 6a f0 b9 e2 ae 8b 38 66 fb 0b b9 c6 d1 1c ba
       -0.00045855966 6.660611e-05 -0.00013349726 -0.00059821864
0000a0 18 18 3f 38 8b e1 43 37 62 26 af b8 0e 47 0c b8
       4.5560388e-05 1.1675419e-05 -8.3517996e-05 -3.3444776e-05
0000b0 cc ad 96 39 a9 15 62 38 ba 71 9d 38 77 19 1b 39
       0.00028739718 5.390277e-05 7.5075266e-05 0.00014791438
0000c0 40 41 8e 39 df 2d bf b9 3b ca 23 39 1e 2f 82 38
       0.00027132966 -0.00036464536 0.00015620228 6.207659e-05
0000d0 25 55 48 39 2b e0 c9 b8 a3 0c e1 b7 4b 6b e8 38
       0.00019105205 -9.6261814e-05 -2.6827975e-05 0.00011082607
0000e0 04 4c 20 39 6b 2b 46 b9 94 44 04 3a e2 ad 5d 37
       0.00015287107 -0.00018898926 0.00050456193 1.3213112e-05
0000f0 a9 b7 7f b9 e7 46 de b9 7a 17 49 b8 c6 6c b1 b9
       -0.00024387114 -0.00042395966 -4.7944e-05 -0.00033841113
000100 dd be 96 b9 9a 99 93 37 d6 27 a6 b9 3c d9 e5 b9
       -0.00028752434 1.7595292e-05 -0.00031691667 -0.00043840136
000110 2a e0 8f b9 8f 02 4e b7 0c 11 55 b8 98 ab a1 b9
       -0.000274421 -1.22791525e-05 -5.0799033e-05 -0.0003083616
000120 f0 0c c3 36 2c df 5b 38 99 ae 8f b8 66 ca 7e b8
       5.812959e-06 5.2421514e-05 -6.851293e-05 -6.0746817e-05
000130 a2 af cd 38 e6 3e 27 b8 7a ac 0a 38 2d b3 91 38
       9.807876e-05 -3.987448e-05 3.3062395e-05 6.947513e-05
000140 12 e5 e2 38 94 54 a2 b9 d9 95 05 39 e6 13 e2 b6
       0.000108191874 -0.00030962063 0.00012739691 -6.7376413e-06
000150 84 95 dc 38 d9 16 24 b8 ad 59 94 b8 25 c0 ee b6
       0.00010518267 -3.9121926e-05 -7.073893e-05 -7.1153213e-06
000160 17 b9 2f 39 c5 f6 03 b9 a2 5d ae 39 f6 ad bb 37
       0.00016758252 -0.00012585062 0.00033257628 2.2373144e-05
000170 73 7d 0d b9 31 fd 65 b9 e9 f1 d2 b7 0b c2 ad b8
       -0.00013493541 -0.00021933463 -2.5146599e-05 -8.285426e-05
000180 03 ee 17 b9 54 8f eb 37 6c c8 d1 b8 c6 ed 30 b9
       -0.00014489148 2.8080925e-05 -0.00010003228 -0.00016873245
000190 60 c1 95 b7 7c 70 69 b7 09 fb 03 b7 00 6c 25 b7
       -1.7852231e-05 -1.3914072e-05 -7.866657e-06 -9.859912e-06
0001a0 73 c0 84 b7 e3 64 2a 38 7e b9 b6 b7 6c 31 5f b6
       -1.5825242e-05 4.0625117e-05 -2.1782467e-05 -3.3258357e-06
0001b0 5d 52 e8 b7 e4 bf e1 36 dc e3 43 b6 c4 b8 45 b8
       -2.7694909e-05 6.7278615e-06 -2.9189896e-06 -4.7140536e-05
0001c0 97 1d 7e 34 f0 10 16 b9 1a 60 47 38 0b 4d b7 b8
       2.3666358e-07 -0.00014311424 4.75348e-05 -8.7404704e-05
0001d0 2f af 05 b8 09 54 40 36 fa d8 87 b8 c9 ad 76 37
       -3.1872823e-05 2.8659144e-06 -6.477717e-05 1.4703205e-05
0001e0 33 83 e7 37 6f 36 8b b6 e8 59 c1 38 aa c9 60 b8
       2.759844e-05 -4.1488597e-06 9.2197035e-05 -5.3593576e-05
0001f0 d8 ad 91 35 b3 f8 05 38 da 0d 56 38 25 81 ff 38
       1.0853937e-06 3.194129e-05 5.1034476e-05 0.000121834026
000200 9c ad c0 39 fc 22 f6 b8 57 f0 ad 38 66 7a 66 39
       0.00036750443 -0.000117367104 8.2940496e-05 0.00021980106
000210 96 f9 4e 37 49 ae f7 38 59 ab 73 37 ed da 68 b8
       1.2336668e-05 0.00011810341 1.4523824e-05 -5.5517e-05
000220 f6 1d 5f 38 67 f0 ba b8 e6 43 74 38 21 be 97 38
       5.3195246e-05 -8.9139496e-05 5.823737e-05 7.235655e-05
000230 f0 1f 2b 39 6e 20 01 39 d0 5d 8e 37 56 c6 b1 38
       0.00016319728 0.0001231448 1.6971404e-05 8.476961e-05
000240 f6 14 b9 38 78 f7 5d 39 b2 67 39 b8 d1 ae 11 39
       8.825392e-05 0.00021168392 -4.420401e-05 0.00013893402
000250 fa 70 c7 38 e8 85 51 b7 27 24 48 39 6e 37 35 38
       9.510103e-05 -1.2488548e-05 0.00019086954 4.3205386e-05
000260 2d 34 cc b8 2f 77 44 b8 17 3a 14 b9 80 fd 6f 37
       -9.7371965e-05 -4.684104e-05 -0.0001413602 1.4304533e-05
000270 8e 08 72 b7 e5 cd a8 b8 8c 3b 08 b8 70 f3 98 b9
       -1.4426316e-05 -8.049215e-05 -3.2480384e-05 -0.00029173074
000280 fe ec 3a 39 a9 4c a4 b8 b3 cf a3 36 21 81 01 39
       0.00017826629 -7.8344085e-05 4.881958e-06 0.00012350503
000290 b1 62 0e 38 b6 01 31 38 f3 df 86 38 b3 96 92 37
       3.394735e-05 4.2201682e-05 6.431332e-05 1.7474731e-05
0002a0 5c 4a aa 37 b3 6b e0 b7 6b 72 83 38 15 97 89 37
       2.0300206e-05 -2.6753032e-05 6.267879e-05 1.6402026e-05
0002b0 41 01 b6 38 25 d7 95 38 2e be 60 b8 16 d0 22 38
       8.67867e-05 7.1449474e-05 -5.358288e-05 3.8817605e-05
0002c0 d8 c6 a5 37 93 5f 28 38 5b 4d 66 b5 b0 ab 73 38
       1.9762127e-05 4.014333e-05 -8.5794244e-07 5.809561e-05
0002d0 82 26 67 37 64 a5 b8 37 02 94 03 39 3f 17 76 b8
       1.3777639e-05 2.2011525e-05 0.00012548271 -5.867262e-05
0002e0 74 3e 17 38 9a 63 18 b8 8a 55 89 b8 b8 68 45 38
       3.605937e-05 -3.6332385e-05 -6.548602e-05 4.7065987e-05
0002f0 10 5f b6 35 11 8e 81 b7 cc c5 fb b7 18 5f a6 b8
       1.3587724e-06 -1.5444153e-05 -3.0013638e-05 -7.9332094e-05
000300 44 08 a6 b9 5c ba 46 39 1e 88 21 39 50 1c 69 38
       -0.00031668146 0.00018952176 0.00015404864 5.5577897e-05
000310 0c cc 4a 39 4e 62 1e b9 c7 85 80 38 3a 77 bc 39
       0.00019340235 -0.00015104676 6.1284336e-05 0.00035946985
000320 c6 85 b4 b8 75 3d bd 38 57 66 32 b8 49 d2 7b b8
       -8.607986e-05 9.0236696e-05 -4.253382e-05 -6.0038907e-05
000330 7d 12 be b9 ad b4 72 b9 87 d8 1d b8 24 66 24 b9
       -0.000362534 -0.00023146225 -3.7633374e-05 -0.00015678309
000340 57 79 82 b9 3d fc 31 b8 58 01 01 37 8b b4 53 b9
       -0.00024885937 -4.2435004e-05 7.689312e-06 -0.00020189786
000350 4a ea 4b b9 e5 df 4b 38 14 71 4b b9 91 68 8b b8
       -0.00019446868 4.860749e-05 -0.00019401714 -6.6475135e-05
000360 a2 74 8c b7 98 f2 1a 39 ce cd c9 b8 c1 b3 83 b8
       -1.6743612e-05 0.00014776958 -9.622761e-05 -6.2800485e-05
000370 0d 4b 04 39 c2 09 ad 39 49 a5 82 38 3b b1 fa 39
       0.0001261646 0.00033004401 6.22967e-05 0.00047815763
000380 f4 c7 52 39 c6 55 1f b9 db 28 52 b9 17 c1 c9 b8
       0.00020101649 -0.00015195375 -0.0002004238 -9.620393e-05
000390 ad 64 80 b9 ac 1d b1 38 27 e0 d6 b7 f9 f3 c3 b9
       -0.00024489072 8.4455445e-05 -2.5615167e-05 -0.00037375072
0003a0 2f 10 4a 38 f4 24 85 b8 ca ce 24 38 ca 48 2a 38
       4.8175625e-05 -6.348817e-05 3.9293234e-05 4.059895e-05
0003b0 af 18 b4 39 ba c2 03 39 a0 98 bd 37 6e e6 2c 39
       0.00034350666 0.00012565675 2.2601627e-05 0.0001648904
0003c0 1f 43 51 39 95 a9 37 35 c4 4d c5 37 0d ef 50 39
       0.00019956798 6.8419587e-07 2.3520442e-05 0.00019925479
0003d0 b1 f2 6d 39 35 21 86 b8 16 a3 23 39 ba 98 c1 37
       0.00022692491 -6.395803e-05 0.00015605646 2.3078512e-05
0003e0 34 c5 c9 38 a2 c4 42 b9 46 c2 2d 39 6c a7 ac 38
       9.621159e-05 -0.00018574533 0.00016570938 8.232784e-05
0003f0 59 b6 16 b9 01 82 a2 b9 17 fa a2 b8 ef 93 ea b9
       -0.00014373045 -0.00030995908 -7.771345e-05 -0.00044742177
